experiments/SlidingSphere/SdfSamples/slidingspheremodel_sphere_-0.36.npz (npz, 40847 bytes, 2 tensors)

pos f4 [264, 4]
00000000: 60ac d3be 405b bdbd 908c f23e 1c8c ae3d
00000010: 405b b6be 3090 40be accf e03e 382a 9f3d
00000020: 0040 47bd a0ba 6e3d 7438 88be 807a 863c
00000030: b4cb c6be 44ee c83e 7828 523e f863 323d
00000040: d00b eebd b039 0d3e f0ce bcbe 741a 853d
00000050: 5ae1 1ebf 807f 113d d000 45be 38bb 9dbd
00000060: 6433 9dbe 98db 5c3e 081c 83be b897 77bd
00000070: 80cc 9ebe 881a 133e 945f c43e a0a3 553c
00000080: 54b0 bebe 4844 b03e 78de a5be e01e 953d
00000090: 98bb 39be 647d a7be 78fd 2f3e 2017 453c
000000a0: 5aab 0cbf d077 633e 48ee 943e 80c7 2b3c
000000b0: 348d debe 5ced c6be 8091 fa3c 0027 7cbb
000000c0: ce80 24bf 48dd 073e b844 bebe e078 aa3d
000000d0: 0c84 c6be 90cb d0be 4063 0bbe 80a3 fa3c
000000e0: 588a 73be d0aa 2a3e 40f0 d2be 587d 7d3d
000000f0: 1097 a5be 3869 d33e 48a3 1e3e 0881 2f3d
00000100: 402b 48bd 2039 d53d 0009 2d3c 64dd 8bbd
00000110: 8673 39bf 4840 64be b031 8b3d c0a5 f13c
00000120: 30e7 cabe f0a5 103e 50e8 ce3e 3054 f03c
00000130: 6052 5c3d 8042 0e3d f039 4abe e834 813d
00000140: 8089 963d a068 09bd a0df d5bd 58a2 4f3d
00000150: 4017 ce3c 8016 82bd a0d3 0a3d 409b 96bb
00000160: 40ca fabe 346d dcbe c8f6 5fbe 80f8 ca3d
00000170: 98d5 06bf e0e3 813d e042 a9be 50bb d4bc
00000180: 208b a5bd 604c be3d c02e 1bbd 0ca3 ccbd
00000190: 70c1 d1bd 705b a23d 4c98 cc3e 0ce9 ab3d
000001a0: 5acd 00bf 0005 303d acd9 f33e 74fb c83d
000001b0: c0e4 f1bc 5072 ac3e 9037 993d 5468 a43d
000001c0: 9cc8 acbe d818 df3e d83e 3a3e f84a 953d
000001d0: 100e 9d3d 8007 d43d 10eb 1e3e 642e a03d
000001e0: 5e94 06bf 989d 2dbe 94f8 d2be 14d1 973d
000001f0: 40f3 bbbd 1097 abbe 5091 4d3e f08a 9b3d
00000200: 00ce 2ebe 18d1 bb3e 40f2 6c3e b4f5 983d
00000210: 5450 08bf 20ea 683e c001 47be a84e 67bd
00000220: 3c2f fbbe d8a7 063e 2095 a83e c0b9 bfbc
00000230: b86e 34be 60df bcbe f83e 1c3e 10ff 273d
00000240: 8002 c0bd 00d4 3f3b 5046 b5be 201d 393d
00000250: e088 4ebd 3049 a03d e0d7 a93e a0cd 803d
00000260: 345c 09bf 0851 83be d025 a6bd dc44 a4bd
00000270: 1ab1 2ebf f02f cfbd e0da 1e3d 84b6 81bd
00000280: d071 47be 4835 333e a4fb c9be 5cea 813d
00000290: f4fb d5be 987f 10be 74b2 c2be 8022 173c
000002a0: 0aa9 06bf 00ff 803e 0894 c53e 7083 b53d
000002b0: 90e7 1fbe 70c5 693e 10ef afbd 7460 a3bd
000002c0: d09b 34be e892 823e 3420 983e f067 0b3d
000002d0: 0825 05be 78b9 0bbe 586e 383e bc93 99bd
000002e0: 10bc 31be 48c0 05be a4fb 983e a0c5 b8bc
000002f0: d805 02bf 70f2 773e 28ea 4a3e 0828 63bd
00000300: 6008 fabd f022 d5bd c4f6 9c3e c0e5 803b
00000310: d42c 0cbf 44d4 a0be 042d 89be b8e2 543d
00000320: 724f 2ebf 305e 523e 10c1 513e 80fd f43c
00000330: b08a c8bd f0dd 0e3e 5c6e 8cbe c04b d73b
00000340: 9888 77be 805b 3d3e 3c43 a03e 8096 87bc
00000350: 4a73 34bf 6098 213d c4c8 90be 7813 383d
00000360: 7487 c5be a03c d0bd e4dd 93be 9081 bebd
00000370: a09d 133d 306c 9dbd 20f9 513e 404b 643d
00000380: 5c50 c1be e09c 3f3d 78d8 cdbe c0a6 a33b
00000390: f21e 36bf e08a 0a3d 7045 e6bd f8ec 06bd
000003a0: 8c56 d8be 306d afbe 60de 91be 70ab 4a3d
000003b0: 1a13 06bf 20e6 483d d0e1 c0be 40cf 483c
000003c0: f09c b03d 60b9 c53d 40d9 a1bd 80ea 883d
000003d0: c095 3dbe 54c5 a03e 881a 3e3e 8033 c83b
000003e0: 6410 26bf c81e 693e 50ea 243e 0002 a1ba
000003f0: e8f2 98be 408b e0bd ac17 f4be 1c70 bf3d
-0.4134245 -0.0924592 0.47372866 0.085228175 -0.35616493 -0.18805003 0.4390844 0.077717245
-0.04864502 0.05828345 -0.2660557 0.016415834 -0.38827288 0.39244282 0.2052325 0.04355237
-0.11623347 0.13791537 -0.3687663 0.06499186 -0.6206261 0.035521984 -0.19238591 -0.07701725
-0.3070327 0.21568143 -0.25607324 -0.060447425 -0.31015396 0.1436559 0.3835417 0.0130394995
-0.37243903 0.34427094 -0.32396293 0.072812796 -0.18137968 -0.32712853 0.17186534 0.012029439
-0.5494896 0.22213674 0.29088044 0.010484576 -0.43467104 -0.38852966 0.030586958 -0.0038475394
-0.6425904 0.13268006 -0.37161803 0.08323836 -0.3877262 -0.40780306 -0.1361208 0.030595541
-0.23783243 0.16666722 -0.4119892 0.061887115 -0.32341814 0.41291213 0.15491974 0.042847663
-0.04886937 0.10411286 0.010561228 -0.06829336 -0.724419 -0.22290146 0.067965865 0.029497981
-0.39629507 0.141258 0.40411615 0.029337019 0.053789496 0.034731388 -0.19748664 0.06308919
0.07350445 -0.033547044 -0.10443044 0.050691932 0.02515757 -0.06351948 0.033893228 -0.004596144
-0.4898243 -0.43052065 -0.21871483 0.09910679 -0.5266967 0.06342292 -0.33058834 -0.025968224
-0.080831766 0.09291911 -0.03788638 -0.09992036 -0.102419734 0.079275966 0.39959943 0.083940595
-0.5031334 0.04297352 0.47627008 0.09813586 -0.029528022 0.33680964 0.07481301 0.080277115
-0.33746803 0.43573642 0.18188035 0.0728969 0.07668698 0.10352993 0.15519357 0.07821348
-0.5257014 -0.16954648 -0.41205275 0.07412925 -0.09177256 -0.3351369 0.20074964 0.075948596
-0.1707077 0.36682963 0.23139286 0.07468739 -0.5324757 0.22745562 -0.19434261 -0.056471497
-0.49059474 0.13149965 0.32926273 -0.023404002 -0.17620361 -0.36889172 0.15258396 0.04101473
-0.09375477 0.002927065 -0.35405207 0.04519379 -0.050423503 0.078264594 0.33172512 0.0628922
-0.53656316 -0.2564776 -0.08112681 -0.080209464 -0.68238986 -0.10116565 0.038782954 -0.0633364
-0.1947701 0.17500794 -0.394498 0.06343529 -0.41793787 -0.14111173 -0.38026774 0.009224534
-0.52601683 0.2519455 0.385895 0.0886296 -0.15615678 0.22829223 -0.085905194 -0.07977381
-0.17637563 0.25502706 0.2971207 0.03403467 -0.13002408 -0.1364497 0.18010843 -0.07498881
-0.17356896 -0.1306163 0.29879487 -0.022555172 -0.50790167 0.24213576 0.19815886 -0.0554581
-0.12208629 -0.104070544 0.30657017 0.0039336383 -0.547559 -0.31411946 -0.26792157 0.05197403
-0.68089974 0.20543742 0.20483804 0.029906034 -0.097920775 0.1395185 -0.27427948 0.0065703094
-0.241732 0.18491936 0.31301296 -0.016551256 -0.7048842 0.039451957 -0.28278172 0.04494044
-0.38579905 -0.10167813 -0.28880227 -0.09302056 0.036038995 -0.07686651 0.2050519 0.055735826
-0.37756622 0.046780467 -0.40204215 0.0049942434 -0.7114097 0.033823848 -0.11243713 -0.032940835
-0.4225353 -0.3426299 -0.2848997 0.0494799 -0.52372897 0.04904759 -0.3767228 0.0122564435
0.086236835 0.09654498 -0.07902765 0.06685352 -0.18514156 0.3140055 0.18564808 0.006109655
-0.6486876 0.22765648 0.16105008 -0.0012283921 -0.29872823 -0.1096406 -0.4767431 0.09347555

neg f4 [2500, 4]
00000000: 7a8c 793f 5851 d13e a6d3 09bf 67bb 8c3f
00000010: d427 fabe 6a79 793f 403f cf3e 62a0 293f
00000020: a8ac 923e 82c8 1d3f ce75 603f c67f 5a3f
00000030: e8ac e83e 9005 5bbf e87c f63e 30bd 603f
00000040: 90a7 193f 5a8b 6cbf 3036 e8bd d4a4 703f
00000050: 442c a03e 582e 7a3e c0aa 5c3f e0fe 383f
00000060: 10a1 97be 008e f3be 7856 32be 8c6c e33d
00000070: 50fe 6a3e 4003 873d 6e7c 0abf 8399 cf3e
00000080: 2061 d63d 9486 533f 68bb 39bf de8f 4b3f
00000090: 30cf d5be 5c35 e9be 5cd2 b13e f688 333e
000000a0: 80ef 823c 8070 6abc 74ed 43bf 19ac e83e
000000b0: f691 0e3f aaee 72bf 0cdf c93e 2cc9 7a3f
000000c0: 3694 68bf f804 d83e b06c ed3e b17a dc3e
000000d0: 7035 7ebe c4d0 83be 8622 75bf 3c27 193f
000000e0: aa52 413f 40f3 c1bd f4c3 c73e dae5 493f
000000f0: 7c3f 3d3f f869 4c3e 8c84 09bf 74c7 573f
00000100: a444 d2be 8806 093e 86dc 7ebf 0409 1b3f
00000110: c82d 853e 1017 18be d8ec 33bf 6426 0d3f
00000120: f8c3 de3e 4cbb fbbe 2ced 383f b2aa 483f
00000130: fcd9 9cbe 8046 5e3e 3e3f 63bf 7400 043f
00000140: e00b 293d 2810 32bf c09c 52bd 091d d03e
00000150: 006d b7bc 1a68 5fbf 325c 353f 6252 463f
00000160: 6ab8 7f3f 6013 3e3e 0075 523c 06a6 793f
00000170: d0b4 763e 78d4 0d3e a8b3 303f 6828 073f
00000180: 0aba 73bf fc4e 66bf fa8f 443f 48c9 6b3f
00000190: 58af 5b3e 0a1f 23bf 826f 573f 74b4 4d3f
000001a0: 6058 f6bd c0b3 453d 207a 09be dc7b f1bd
000001b0: 4885 b7be 6c63 6ebf 6434 ca3e 7e8b 1c3f
000001c0: e032 c03e 18cb 313f c828 213e 5054 203f
000001d0: 10f8 a03e acc6 f0be d830 cb3e faff 033f
000001e0: 38e7 173e 986c ddbe 441f adbe 1f89 b33e
000001f0: 045f 603f 2ccb 1bbf 06f3 26bf 2654 903f
00000200: 70bb 653e 402b 7ebd 947b 683f 5c03 2f3f
00000210: 00dc 903e 244a d4be 1808 0b3e 1b8f c23e
00000220: 982e 363f 042d acbe 1030 3e3f f214 733f
00000230: 9058 ec3d 3e7d 36bf 645c 663f ac0b 583f
00000240: 50df 80bd 20f2 163d 4c13 1d3f 258f 913e
00000250: e87d 68bf 40b5 bd3c 0cfa 893e c600 553e
00000260: ec2c 18bf 580a 49be b8d4 203f e351 983e
00000270: e44d 313f 8a9c 123f 1670 453f c98c 833f
00000280: 8888 7fbf f492 053f 4ce8 0d3f 9c4e 173f
00000290: 1041 debe 08d2 41bf 98e2 7fbe f9ff cc3e
000002a0: 08df bc3e 9033 febd 68b5 5e3f 4279 3e3f
000002b0: 62d3 25bf 344d dbbe 4434 37bf 0952 f63e
000002c0: d033 333f 60fb 003f f874 a8be ea72 523f
000002d0: 40b9 99bd caf8 5ebf b457 7d3f 8014 733f
000002e0: 38e1 85be 7834 f2be 04d5 ee3e b559 8b3e
000002f0: 9060 a8be c07c 06bf b88a 283f 21d0 e23e
00000300: 80ac 2c3e 387a 6cbe 7efd 50bf d4fe 193f
00000310: d409 a9be 0c40 173f c4ee b43e 1719 943e
00000320: 28b2 1dbf 765e 503f 60e2 3abf a8db 383f
00000330: 6c85 ba3e 68b0 9cbe 0006 4abe 9ded d33e
00000340: 16c6 79bf b099 a63d 745f 5ebf 866c 2a3f
00000350: 4c86 003f 0e2f 14bf a0e9 6cbd 9e9a 243f
00000360: ec77 cdbe 3cd9 a53e e0bb eebe fa0d 2d3e
00000370: fe63 64bf 2c99 903e a409 3f3f 769b 0e3f
00000380: 8035 f53c c6ac 43bf 063a 0f3f ce30 203f
00000390: 6817 103e ba83 6fbf 6010 13bd 8cda 293f
000003a0: 3cab 5cbf 804b 203d b0da 513f 3065 0f3f
000003b0: 72b7 393f 8047 47bd caea 5d3f 4c29 7e3f
000003c0: a0d8 373d d0b6 d93d 9c1f d3be b2aa 423e
000003d0: aeb5 50bf 8845 6e3f 1c23 6abf 3e19 7b3f
000003e0: 383f 6cbf 7835 4e3f e069 89be b4dc 1d3f
000003f0: 7025 35bf 70d0 40be e8c0 0f3f c7de 913e
0.97479975 0.40882373 -0.53838575 1.0994691 -0.4885851 0.9745089 0.40477943 0.6626035
0.2864735 0.61634076 0.87679756 0.85351217 0.45444417 -0.8555536 0.4814217 0.8778868
0.60021305 -0.92400134 -0.113384604 0.9400151 0.31283772 0.24431741 0.86198044 0.7226391
-0.29615068 -0.47569275 -0.17415798 0.11104688 0.22948575 0.06592417 -0.54096115 0.40546808
0.10467744 0.82627225 -0.72551584 0.795164 -0.41759634 -0.45548522 0.34730804 0.17532715
0.015983343 -0.014309049 -0.765342 0.454438 0.5569147 -0.9489542 0.39427984 0.97963214
-0.9085115 0.4219129 0.46371984 0.43062356 -0.24825072 -0.25745213 -0.95755804 0.5982549
0.7551676 -0.094702244 0.39016688 0.7886635 0.73924994 0.19962299 -0.53717875 0.84288716
-0.41067994 0.13381398 -0.9955524 0.6056063 0.2601149 -0.14852548 -0.7028327 0.55136704
0.43508887 -0.49166334 0.72236896 0.7838546 -0.3063506 0.21706581 -0.88768375 0.5156319
0.04127109 -0.695559 -0.05141902 0.40647152 -0.022390842 -0.8726822 0.70843804 0.77469456
0.9989077 0.18562078 0.012845278 0.97518957 0.24092412 0.13850582 0.69024134 0.5279603
-0.9520575 -0.8996427 0.7678219 0.92104006 0.21453607 -0.63719237 0.8415452 0.80353475
-0.12028575 0.048267126 -0.13425493 -0.117912024 -0.35843873 -0.93120456 0.39493096 0.6115035
0.37538815 0.6945052 0.15738213 0.6262865 0.31439257 -0.47026575 0.39685702 0.51562464
0.14834297 -0.43246913 -0.33812916 0.35065553 0.8764498 -0.6085689 -0.65214574 1.127568
0.22434783 -0.062052965 0.90813565 0.683645 0.28292847 -0.41462815 0.13577306 0.37999806
0.71164846 -0.33628094 0.7429209 0.94953835 0.115403295 -0.71284854 0.89984727 0.8439281
-0.062925935 0.036852002 0.6135757 0.28429523 -0.9081712 0.023157716 0.26948583 0.20801076
-0.59443545 -0.19632852 0.62824583 0.29749975 0.69259477 0.5727011 0.77124155 1.0277339
-0.99817705 0.5217736 0.5543258 0.59104323 -0.43409014 -0.7571111 -0.24988782 0.40039042
0.3688891 -0.124121785 0.86995554 0.74403775 -0.6477567 -0.4283234 -0.71564126 0.48109463
0.70000935 0.5038357 -0.3290174 0.82206595 -0.07506037 -0.8709837 0.9896195 0.94953156
-0.2614839 -0.47305655 0.46646893 0.2721688 -0.3288617 -0.52534103 0.6583667 0.44299415
0.16862679 -0.23093498 -0.816368 0.6015446 -0.3301531 0.590821 0.35338414 0.28925392
-0.6159997 0.81394136 -0.7300167 0.7221017 0.36429918 -0.30603337 -0.19728851 0.41392222
-0.9756788 0.08134782 -0.868644 0.66571844 0.5020492 -0.578843 -0.05783999 0.6429843
-0.40130556 0.323923 -0.46627712 0.16899863 -0.89215076 0.2824186 0.74624085 0.55705965
0.029932737 -0.76435506 0.5594791 0.6257447 0.14071429 -0.93560374 -0.03590429 0.663491
-0.8619878 0.039134502 0.81974316 0.56013775 0.7254554 -0.048652172 0.86686385 0.99281764
0.044884324 0.10630572 -0.41235054 0.19010428 -0.8152722 0.93074846 -0.9145982 0.9808539
-0.92283964 0.80550337 -0.2683859 0.6166489 -0.7076025 -0.18829513 0.56153727 0.28490278
