experiments/SlidingSphere/SdfSamples/slidingspheremodel_sphere_0.36.npz (npz, 40691 bytes, 2 tensors)

pos f4 [253, 4]
0.51026547 -0.33629632 -0.16679108 0.0030069053 0.049552202 -0.11430514 0.33223987 0.07127261
0.7467284 -0.025128841 -0.059167385 -0.011552155 0.24882114 0.35909188 -0.098997355 -0.010218024
0.6269306 0.3877561 -0.083551526 0.07608768 -0.0050958395 0.059632063 -0.035130978 -0.024828553
0.4684317 0.14114642 -0.37112677 0.01065734 0.3435533 -0.056024313 -0.44317257 0.04715094
0.22476268 -0.30970454 0.16805768 -0.021257102 0.227602 -0.38321602 -0.26095665 0.08317518
0.3274114 0.108908534 0.3161732 -0.063638866 -0.0020922422 0.23578894 -0.122861266 0.052160084
0.81136525 0.028432608 0.21769857 0.09866044 0.628765 0.024359345 -0.19299304 -0.07116437
0.35225892 -0.19605803 0.23782086 -0.09157342 0.4264109 -0.323802 -0.10860062 -0.05275014
0.3521664 -0.13272405 -0.39685166 0.018614948 0.80659306 -0.0742501 0.09313524 0.05869147
0.6046399 0.3331232 0.008593559 0.011251271 0.83626103 -0.06451619 -0.103181124 0.088039696
0.6576024 0.09627044 -0.14691317 -0.05755654 0.072000265 -0.06246996 -0.08744919 -0.08919224
0.3084067 0.4886812 0.011950254 0.09193742 0.44619834 -0.06557083 0.4244579 0.037356287
0.11196625 -0.2875508 0.16139841 0.014816523 0.060579658 0.12958527 0.2662139 0.023680955
0.57867765 -0.43123364 -0.11140704 0.094587445 0.04419017 0.0038033724 -0.11411798 -0.060760766
0.443483 0.37238812 0.12346983 0.00036633015 0.5367662 0.22008741 0.17242134 -0.07115123
0.7897743 -0.060289145 0.14784455 0.05506739 0.56867456 -0.43587148 0.010939717 0.081813514
0.2744143 -0.070761085 0.41493404 0.030276597 0.5461743 -0.15552199 -0.39117384 0.0588291
0.5609617 -0.17688239 0.16504788 -0.08780539 0.64103365 0.113193154 0.31660366 0.035889685
0.47336864 -0.13707972 -0.46651506 0.09846598 0.13415945 -0.068835616 -0.21948719 -0.0750806
0.03432715 -0.32243466 0.1135596 0.07466245 0.26863313 -0.11146629 0.38819897 0.014908165
0.6934185 -0.2172302 -0.2104224 0.047462612 0.6636903 0.063227534 0.11259675 -0.07333791
0.2251544 -0.22440755 0.2188493 -0.057317883 0.41011345 0.45101845 -0.004163146 0.053425938
0.06373429 -0.18078017 -0.051348805 -0.046079904 0.32556844 -0.22364771 0.25084007 -0.06178674
0.16918361 0.12520528 0.3208052 -0.0045202672 0.2672788 0.17296779 -0.32783294 -0.017015576
0.32934403 0.19042432 0.2870785 -0.05380431 0.53772485 -0.18753707 -0.19592106 -0.07772371
0.5092766 -0.0024158955 -0.29525518 -0.07076979 0.41306782 0.3801905 0.18870628 0.027315259
-0.030309796 -0.0544219 -0.222942 0.05591497 0.0118147135 0.046311736 -0.19473219 0.004776329
0.10463667 -0.12962854 0.1111846 -0.08976394 0.21930921 0.267753 0.31072807 0.03482631
0.64193976 -0.36607742 0.15766847 0.08613247 0.4830259 -0.35960984 0.05457318 -0.017179787
0.75931394 0.19285715 -0.18007219 0.0755845 0.68510723 -0.2964456 0.16460407 0.067245126
0.40270352 -0.37413192 0.20273232 0.027318776 0.16630185 -0.40597177 0.024965048 0.05208102
-0.048411727 -0.09239483 -0.043323517 0.024496585 0.17516482 0.20963883 -0.32733417 0.031992614
00000000: c2a0 023f 082f acbe 48cb 2abe 800f 453b
00000010: 40f7 4a3d d018 eabd 581b aa3e 60f7 913d
00000020: 9829 3f3f 00db cdbc 8059 72bd 4045 3dbc
00000030: f8ca 7e3e e4da b73e 20bf cabd 8069 27bc
00000040: 867e 203f f887 c63e 101d abbd dcd3 9b3d
00000050: 00fb a6bb c040 743d 80e5 0fbd 4065 cbbc
00000060: 48d6 ef3e b088 103e 5404 bebe 209c 2e3c
00000070: 38e6 af3e c079 65bd 84e7 e2be 5821 413d
00000080: 3028 663e 9891 9ebe 5017 2c3e 6023 aebc
00000090: 8010 693e e434 c4be 1c9c 85be c057 aa3d
000000a0: 78a2 a73e 700b df3d 74e1 a13e 1855 82bd
000000b0: 001e 09bb a872 713e b09e fbbd d0a5 553d
000000c0: a2b5 4f3f 80eb e83c 60ec 5e3e 7c0e ca3d
000000d0: bef6 203f 408d c73c f89f 45be a0be 91bd
000000e0: 485b b43e 70c3 48be 5087 733e d88a bbbd
000000f0: 8852 da3e 60c9 a5be 006a debd 8810 58bd
00000100: 284f b43e d0e8 07be 2430 cbbe 607e 983c
00000110: e27c 4e3f 7010 98bd b0bd be3d 7866 703d
00000120: aec9 1a3f 208f aa3e 00cc 0c3c 4057 383c
00000130: 3415 563f 1021 84bd a050 d3bd 284e b43d
00000140: a258 283f 7029 c53d 6870 16be 68c0 6bbd
00000150: e074 933d 80e0 7fbd 9018 b3bd 6caa b6bd
00000160: 7ce7 9d3e 6c34 fa3e 00cb 433c b049 bc3d
00000170: 1c74 e43e 004a 86bd 8c52 d93e e802 193d
00000180: 904e e53d dc39 93be a045 253e 00c1 723c
00000190: 6022 783d 00b2 043e 304d 883e 90fe c13c
000001a0: 3824 143f a8ca dcbe 6029 e4bd 10b7 c13d
000001b0: c000 353d 0042 793b b0b6 e9bd 48e0 78bd
000001c0: 3410 e33e a8a9 be3e c0dd fc3d 0010 c039
000001d0: 8269 093f 985e 613e 388f 303e bcb7 91bd
000001e0: a62e 4a3f c0f1 76bd 9064 173e 588e 613d
000001f0: a894 113f 8c2a dfbe 803c 333c d88d a73d
00000200: 0880 8c3e 30eb 90bd 3c72 d43e a006 f83c
00000210: 14d2 0b3f 2841 1fbe f047 c8be c8f6 703d
00000220: 309b 0f3f a820 35be 5002 293e 50d3 b3bd
00000230: c81a 243f d0d1 e73d e019 a23e 1001 133d
00000240: 605d f23e a05e 0cbe 10db eebe 88a8 c93d
00000250: 1861 093e b0f9 8cbd 40c1 60be dcc3 99bd
00000260: a09a 0c3d 2816 a5be f091 e83d a0e8 983d
00000270: 488a 893e 7048 e4bd 04c2 c63e 6041 743c
00000280: e083 313f 9871 5ebe f878 57be 2868 423d
00000290: 9ce7 293f 707d 813d 2099 e63d 3032 96bd
000002a0: e08e 663e 18cb 65be 081a 603e 28c6 6abd
000002b0: 64fa d13e e4eb e63e 006b 88bb 28d5 5a3d
000002c0: 2087 823d 701e 39be 2053 52bd 48be 3cbd
000002d0: e8b0 a63e e803 65be 1c6e 803e 1814 7dbd
000002e0: 783e 2d3e d035 003e 9440 a43e c01e 94bb
000002f0: c4d8 883e 781e 313e b8d9 a7be 4064 8bbc
00000300: c89f a83e 98fe 423e f4fb 923e e861 5cbd
00000310: 56a8 093f b809 40be 889f 48be 9c2d 9fbd
00000320: f45f 023f 0054 1ebb b02b 97be c0ef 90bd
00000330: a07d d33e 54a8 c23e 383c 413e 40c4 df3c
00000340: 404c f8bc 80e9 5ebd e84a 64be 1807 653d
00000350: 8092 413c 60b1 3d3d e067 47be c082 9c3b
00000360: c04b d63d 58bd 04be c0b4 e33d 28d6 b7bd
00000370: 9892 603e ec16 893e c017 9f3e 08a6 0e3d
00000380: 2a56 243f 806e bbbe d873 213e 3866 b03d
00000390: 2c4f f73e c81e b8be 2088 5f3d a0bc 8cbc
000003a0: 6662 423f 587c 453e d864 38be 0ccc 9a3d
000003b0: 3063 2f3f b8c7 97be f88d 283e d0b7 893d
000003c0: 282f ce3e 388e bfbe 1099 4f3e a0cb df3c
000003d0: 084b 2a3e 88db cfbe 8083 cc3c e852 553d
000003e0: 604b 46bd 8039 bdbd 0074 31bd 10ad c83c
000003f0: 685e 333e 90ab 563e 5898 a7be b00a 033d

neg f4 [2500, 4]
-0.33392775 0.22266865 -0.3649174 0.41813305 -0.13122225 0.6048757 -0.9986434 0.8680885
-0.5475925 -0.88947105 -0.29290283 0.90663266 0.7977091 -0.45348847 -0.89679086 0.69467115
0.49365473 -0.26023602 0.52770376 0.20257685 -0.33376634 -0.0783062 0.7151377 0.6019603
-0.51493514 -0.8583739 -0.6633842 0.99598444 -0.1256504 0.94397557 -0.7844666 0.9213172
-0.26246703 0.6163477 -0.5840986 0.65501714 -0.97829914 0.41019678 0.5366497 1.1023467
0.5423478 0.6767111 0.68756473 0.58113253 -0.4453305 0.32058668 -0.351434 0.53846097
-0.980183 -0.3006258 0.46690595 1.0540384 0.49526644 -0.6512375 -0.8927671 0.7128656
-0.905079 0.9510728 0.43475688 1.2441386 0.6615752 0.5618508 0.098397374 0.24352613
-0.09704566 -0.5843308 -0.8459953 0.7266669 0.7531421 0.42308545 -0.7515439 0.54632664
0.8101703 0.24416351 -0.88680005 0.6224592 0.4693091 0.2933823 0.84220874 0.49808434
0.27163935 -0.4405769 -0.3414986 0.16497144 0.07519126 0.6984544 -0.5925056 0.56026137
0.8445356 0.6439047 0.21500635 0.4319285 0.4617194 0.8807105 -0.7608173 0.76795304
-0.008194327 0.11126816 0.48401845 0.22041318 0.280254 -0.18033803 -0.11960268 -0.16809653
0.5554317 -0.5630655 -0.47051156 0.3584256 0.8963094 -0.9751477 0.81204665 0.9762534
-0.655656 -0.6025624 0.6705227 0.9607495 0.11312091 0.97888136 0.51312137 0.73325205
-0.5828179 -0.09437251 -0.7688688 0.82304585 -0.32507777 0.66594267 0.57628727 0.7179955
-0.9290494 0.14137483 0.035942316 0.90089023 -0.2027651 -0.29731214 0.76448965 0.59681976
0.2193501 0.9879328 -0.5255352 0.72828054 0.14223492 -0.0114661455 0.9474548 0.57304716
-0.6695082 -0.881672 0.8826754 1.21983 -0.1244632 -0.6191318 0.031934023 0.38904062
0.575377 0.887542 0.94989 0.9171393 0.6782031 -0.5091678 0.7635474 0.5701591
0.4152006 -0.5858897 0.77688587 0.57441115 -0.9633244 0.54671156 -0.8892733 1.2883499
0.96820796 0.43713152 0.3143325 0.40956512 -0.2709037 -0.33763397 -0.0679152 0.32197663
0.54762924 0.2148726 -0.8572494 0.5027182 0.95900345 -0.58200645 0.16843355 0.4494488
0.59509516 0.9826828 -0.6919868 0.82396257 -0.31707692 0.15649736 -0.29921067 0.35986122
0.08819234 0.44976676 0.7178272 0.49074993 -0.22559023 -0.16849089 -0.35141885 0.30645058
-0.9421352 0.9171382 0.9210471 1.4424195 -0.91070557 0.20904696 -0.6409037 1.0416677
-0.71076894 0.7274866 0.80311584 1.1259681 0.5931848 -0.053244352 0.9539348 0.5826082
0.13195753 -0.46729243 -0.4223677 0.27114215 0.98676634 -0.5720749 0.23052704 0.47675726
0.07348299 0.4221065 0.6456624 0.42416188 -0.16573775 0.03774607 -0.2145257 0.17243603
-0.52921915 0.7903663 0.43114817 0.86797416 0.02169764 0.33162677 0.92579734 0.64115286
-0.12854874 -0.23070765 -0.5962182 0.4068137 -0.24855518 0.6829673 -0.027950048 0.5176078
0.0054734945 0.086889744 -0.64171576 0.34001997 0.016539812 -0.29079688 0.37075174 0.1852313
00000000: 94f8 aabe 4003 643e 74d6 babe 8915 d63e
00000010: 205f 06be 22d9 1a3f 18a7 7fbf 0c3b 5e3f
00000020: 062f 0cbf 60b4 63bf 5cf7 95be 1419 683f
00000030: aa36 4c3f a42f e8be 1694 65bf f8d5 313f
00000040: 50c0 fc3e a83d 85be 9817 073f 4e70 4f3e
00000050: 6ce3 aabe 005f a0bd 4413 373f 121a 1a3f
00000060: cad2 03bf 64be 5bbf 8cd3 29bf d6f8 7e3f
00000070: 80aa 00be 62a8 713f ced2 48bf 72db 6b3f
00000080: 1462 86be f6c8 1d3f 7c87 15bf 34af 273f
00000090: d071 7abf 5005 d23e e061 093f b219 8d3f
000000a0: 4ed7 0a3f f03c 2d3f 3e04 303f 1ac5 143f
000000b0: 5c02 e4be f023 a43e 28ef b3be 94d8 093f
000000c0: 46ed 7abf a0eb 99be 4c0e ef3e bbea 863f
000000d0: 9093 fd3e 80b7 26bf 628c 64bf 5c7e 363f
000000e0: 42b3 67bf 8279 733f 7498 de3e ef3f 9f3f
000000f0: fe5c 293f 74d5 0f3f 9084 c93d ea5e 793e
00000100: e0bf c6bd b496 15bf 2693 58bf d806 3a3f
00000110: eccd 403f a89e d83e 2e65 40bf 10dc 0b3f
00000120: 5267 4f3f 0006 7a3e 5405 63bf 7c59 1f3f
00000130: 4849 f03e 3436 963e fe9a 573f e904 ff3e
00000140: 5014 8b3e 4c93 e1be e8d8 aebe 46ee 283e
00000150: e0fd 993d e8cd 323f 72ae 17bf 4a6d 0f3f
00000160: 7c33 583f f0d6 243f a02a 5c3e bb25 dd3e
00000170: 7c66 ec3e 3e76 613f ecc4 42bf 9298 443f
00000180: 8041 06bc 90e0 e33d 44d1 f73e feb3 613e
00000190: 747d 8f3e 88aa 38be 40f2 f4bd 7f21 2cbe
000001a0: c630 0e3f 1025 10bf e4e6 f0be 8f83 b73e
000001b0: 8874 653f 48a3 79bf 4ae2 4f3f beeb 793f
000001c0: 12d9 27bf 8841 1abf 60a7 2b3f aef3 753f
000001d0: f0ab e73d f897 7a3f ec5b 033f 68b6 3b3f
000001e0: 8e33 15bf 6046 c1bd 96d4 44bf 22b3 523f
000001f0: 9870 a6be 387b 2a3f 9087 133f 8ece 373f
00000200: 2ed6 6dbf 90c4 103e 4038 133d bea0 663f
00000210: a8a1 4fbe 4c39 98be 98b5 433f 2ec9 183f
00000220: 509d 603e 2ae9 7c3f 7a89 06bf 9870 3a3f
00000230: 08a6 113e 80dc 3bbc 668c 723f 38b3 123f
00000240: e464 2bbf 42b5 61bf 04f7 613f 6423 9c3f
00000250: 90e6 febd 6c7f 1ebf 40cd 023d 5530 c73e
00000260: e84b 133f f435 633f fe2b 733f a4c9 6a3f
00000270: b89e 2d3f d258 02bf d877 433f f2f5 113f
00000280: 2c95 d43e defc 15bf fee1 463f 9c0c 133f
00000290: 6e9c 76bf 4af5 0b3f 6aa7 63bf a6e8 a43f
000002a0: 7adc 773f b4cf df3e 30f0 a03e 85b2 d13e
000002b0: e4b3 8abe 5cde acbe 2017 8bbd 1fda a43e
000002c0: 6e31 0c3f 9007 5c3e b274 5bbf 24b2 003f
000002d0: 4081 753f 60fe 14bf d879 2c3e 271e e63e
000002e0: 2858 183f 1a91 7b3f 0c26 31bf 36ef 523f
000002f0: e857 a2be d840 203e 2432 99be bb3f b83e
00000300: 309e b43d d447 e63e 86c3 373f 9343 fb3e
00000310: 2001 67be e088 2cbe 2ced b3be 17e7 9c3e
00000320: c62f 71bf 92c9 6a3f bec9 6b3f 34a1 b83f
00000330: 0024 69bf 6810 563e 4412 24bf 5e55 853f
00000340: f4f4 35bf 903c 3a3f 0099 4d3f b91f 903f
00000350: f6da 173f c016 5abd 1235 743f d025 153f
00000360: e01f 073e f440 efbe 9440 d8be 25d3 8a3e
00000370: b89c 7c3f 8073 12bf 480f 6c3e 8719 f43e
00000380: 407e 963d 581e d83e 224a 253f bf2b d93e
00000390: 28b7 29be a09b 1a3d a0ac 5bbe 1293 303e
000003a0: e87a 07bf 7255 4a3f 74bf dc3e 8e33 5e3f
000003b0: 40bf b13c fcca a93e 0e01 6d3f 9822 243f
000003c0: 48a2 03be a03e 6cbe c2a1 18bf e349 d03e
000003d0: 4085 7ebe f2d6 2e3f 80f7 e4bc f281 043f
000003e0: 005b b33b 40f3 b13d 7c47 24bf 1917 ae3e
000003f0: 807e 873c 54e3 94be 2cd3 bd3e 46ad 3d3e
