experiments/SlidingSphere/SdfSamples/slidingspheremodel_sphere_0.80.npz (npz, 39695 bytes, 2 tensors)

pos f4 [182, 4]
0.54574275 0.29098833 0.10264194 -0.0001796186 0.9750428 0.39826524 -0.084677815 0.04319918
0.8992733 0.105758786 0.34991634 -0.021210432 0.67961717 -0.26757205 0.10313225 -0.08899665
0.54434156 0.14516532 -0.32830048 0.040698767 0.6780032 -0.32501078 0.11544728 -0.034153998
0.5275215 0.39253688 0.051159263 0.080569476 0.7000419 0.3820864 -0.15718043 0.02507332
0.890501 -0.26766312 0.20030093 -0.053655624 0.7265018 0.15055037 -0.34143043 -0.019681543
0.66403925 0.03303802 -0.40632784 0.029743105 0.64181113 -0.22416484 -0.3768916 0.06617689
0.5894743 0.3072157 -0.25614893 0.052011967 0.64897084 -0.41267312 0.05235994 0.042549968
0.7602066 0.24774885 -0.35008514 0.030723363 0.9227333 0.09460735 -0.45803773 0.08354169
0.45568085 -0.06084633 0.10207224 -0.03575188 0.90992904 0.15169966 0.2598865 -0.07962808
0.67063427 0.14821267 0.4528607 0.093746185 0.87035275 -0.32871485 -0.10264242 -0.04851967
0.51973546 0.30724394 0.16653407 0.04797393 0.9299375 0.47467983 0.0210073 0.09259111
0.6309315 0.3053863 0.05623305 -0.04643655 0.52644956 -0.039777517 0.156932 -0.08213249
0.42136204 0.23140538 -0.14415777 0.06657967 0.62328184 -0.041079044 0.32396984 -0.02868712
0.82960045 0.16968036 -0.29130435 -0.06158334 0.6855477 -0.083312154 0.42738295 0.050218195
0.69021523 -0.37651908 0.07015991 -0.0015759468 0.53673947 0.31562173 -0.15234125 0.038327575
0.9131315 -0.2767868 -0.34131014 0.053764552 0.6882949 0.37866068 0.10024607 0.0073219836
0.5341134 -0.25445032 -0.31905186 0.087067485 0.731913 -0.20609212 0.38353062 0.04068759
0.6818936 0.060934544 -0.43130112 0.051312327 0.8056042 0.4411286 -0.14417946 0.06412667
0.5987724 -0.2766 0.280491 0.04235202 0.78229165 -0.18629098 -0.23768401 -0.097491145
0.69816744 -0.23957133 0.19440424 -0.07510418 0.5114591 0.04502356 -0.23069978 -0.027836919
0.85151315 -0.32662082 -0.060907125 -0.063779175 0.78512347 0.110524416 0.3469236 -0.035592347
0.9834529 -0.3704698 -0.24657977 0.08135685 0.6122432 0.31592274 0.32000446 0.0873014
0.62642205 -0.30642843 -0.19324839 0.0017121136 0.58160734 -0.32262218 0.2793274 0.07937899
0.97759867 0.3369665 -0.0039612055 -0.019075602 0.69207656 0.12012899 -0.43273044 0.061881036
0.41455638 -0.14398253 -0.23951507 0.0760937 0.8308853 0.3451233 0.07875633 -0.044659972
0.7660656 0.29710066 0.026611686 -0.099785864 0.92688024 -0.30516267 0.29207242 0.041054577
0.69406784 -0.07928896 -0.47052026 0.08877161 0.97247124 0.32930636 -0.27425182 0.06195569
0.55529 0.24896324 0.09892404 -0.037161678 0.66769814 -0.3305123 0.19921613 0.007957369
0.55213714 0.20716333 0.37410045 0.094270974 0.78955245 -0.33146155 0.29280722 0.042393446
0.976763 -0.20203447 -0.39519167 0.077744216 0.49195778 -0.17393029 -0.13529873 -0.021255374
0.4368286 0.22588825 0.10661912 0.04077953 0.75107336 -0.43683124 0.22543716 0.09400126
0.50359666 0.03770733 -0.102261186 -0.0841929 0.7816715 0.37631238 -0.07576549 -0.01569888
00000000: ccb5 0b3f 6cfc 943e f035 d23d 0058 3cb9
00000010: 689c 793f 6ce9 cb3e 906b adbd a0f1 303d
00000020: c636 663f 1098 d83d 3c28 b33e 80c1 adbc
00000030: 64fb 2d3f 34ff 88be 0037 d33d e043 b6bd
00000040: f859 0b3f 38a6 143e 0017 a8be c0b3 263d
00000050: 9e91 2d3f d067 a6be a06f ec3d 10e5 0bbd
00000060: a60b 073f 98fa c83e 608c 513d 9c01 a53d
00000070: f235 333f d4a0 c33e e8f3 20be 9066 cd3c
00000080: e0f7 633f 240b 89be b01b 4d3e 00c6 5bbd
00000090: 06fc 393f e029 1a3e f8cf aebe 303b a1bc
000000a0: 7afe 293f e052 073d 340a d0be d0a7 f33c
000000b0: bc4d 243f 788b 65be f0f7 c0be c087 873d
000000c0: cae7 163f 604b 9d3e f425 83be 800a 553d
000000d0: f422 263f e449 d3be 6077 563d e048 2e3d
000000e0: e69c 423f e0b1 7d3e 5c3e b3be 90af fb3c
000000f0: 4038 6c3f 80c1 c13d ec83 eabe e817 ab3d
00000100: 004f e93e 003a 79bd 400b d13d 9070 12bd
00000110: 1cf1 683f 2857 1b3e d80f 853e 0c14 a3bd
00000120: b0ae 2b3f 10c5 173e 5cdd e73e 00fe bf3d
00000130: 70cf 5e3f 504d a8be 3036 d2bd 90bc 46bd
00000140: 620d 053f 144f 9d3e e887 2a3e 5080 443d
00000150: 6210 6e3f 3c09 f33e 8017 ac3c 68a0 bd3d
00000160: ba84 213f 985b 9c3e a054 663d 4034 3ebd
00000170: 66c5 063f c0ed 22bd c8b2 203e 1435 a8bd
00000180: c4bc d73e 88f5 6c3e 189e 13be ec5a 883d
00000190: 668f 1f3f 8042 28bd 60df a53e 4001 ebbc
000001a0: b260 543f b0c0 2d3e d825 95be d03e 7cbd
000001b0: 0e80 2f3f 909f aabd f0d1 da3e 98b1 4d3d
000001c0: f2b1 303f 1cc7 c0be 00b0 8f3d 0090 ceba
000001d0: c267 093f 2c99 a13e 58ff 1bbe 60fd 1c3d
000001e0: fcc2 693f 00b7 8dbe 34c0 aebe 3838 5c3d
000001f0: 1834 303f d0df c13e d04d cd3d 40ed ef3b
00000200: a8bb 083f 5047 82be c45a a3be 7050 b23d
00000210: a65e 3b3f d009 53be 205e c43e 08a8 263d
00000220: 9490 2e3f 8096 793d 80d3 dcbe e02c 523d
00000230: 143c 4e3f 9cdb e13e c8a3 13be d854 833d
00000240: 2649 193f 849e 8dbe 849c 8f3e 5079 2d3d
00000250: 4444 483f 10c3 3ebe 7063 73be 70a9 c7bd
00000260: 1abb 323f 3052 75be e811 473e 38d0 99bd
00000270: fcee 023f a06a 383d 903c 6cbe 400a e4bc
00000280: c4fc 593f d83a a7be c079 79bd a89e 82bd
00000290: dafd 483f a05a e23d f89f b13e 48c9 11bd
000002a0: 92c3 7b3f 38ae bdbe 687f 7cbe 6c9e a63d
000002b0: f8bb 1c3f a0c0 a13e a0d7 a33e 14cb b23d
000002c0: 325d 203f 30e4 9cbe e8e2 45be 0069 e03a
000002d0: 38e4 143f bc2e a5be 0004 8f3e 7491 a23d
000002e0: e843 7a3f e086 ac3e 00cd 81bb 7044 9cbc
000002f0: ee2b 313f 3006 f63d d88e ddbe f876 7d3d
00000300: bc40 d43e 2870 13be 7043 75be 04d7 9b3d
00000310: e6b4 543f 00b4 b03e 004b a13d 60ed 36bd
00000320: e01c 443f 941d 983e c000 da3c 885c ccbd
00000330: 0648 6d3f 483e 9cbe 848a 953e d828 283d
00000340: 6eae 313f 4062 a2bd 08e8 f0be e4cd b53d
00000350: e0f3 783f d89a a83e bc6a 8cbe 40c5 7d3d
00000360: 7c27 0e3f 38f0 7e3e b098 ca3d d836 18bd
00000370: 44ee 2a3f e838 a9be 50ff 4b3e a05f 023c
00000380: dc58 0d3f a022 543e 188a bf3e 2411 c13d
00000390: 1c20 4a3f 54b5 a9be d4ea 953e c0a4 2d3d
000003a0: 240d 7a3f 20e2 4ebe 9056 cabe 5c38 9f3d
000003b0: e4e1 fb3e c81a 32be c08b 0abe c01f aebc
000003c0: 00a8 df3e 404f 673e 205b da3d 7008 273d
000003d0: 5846 403f 58a8 dfbe 00d9 663e bc83 c03d
000003e0: b6eb 003f 0073 1a3d 506e d1bd 546d acbd
000003f0: a01b 483f 04ac c03e f02a 9bbd f09a 80bc

neg f4 [2500, 4]
0.44576955 -0.8093921 -0.7748959 0.7751845 0.13537025 -0.6532334 0.39448965 0.6119628
0.5780716 -0.7282646 -0.17330408 0.38080457 -0.33222365 0.739879 0.35609055 0.9986249
-0.018947482 -0.52372813 -0.3687042 0.63966775 0.54429996 0.85700583 0.6514199 0.7064309
0.025400996 0.695122 -0.1242187 0.64815485 -0.9383328 0.37188196 -0.2806952 1.3996907
-0.4012611 -0.13123512 -0.12049472 0.81440103 -0.63070583 -0.38794923 -0.2799312 1.1085706
0.05171883 -0.6055697 0.8599521 0.890797 0.31052506 -0.3806237 0.16814888 0.24244389
-0.24151862 0.48087406 -0.34474647 0.79785275 -0.43987167 -0.83653986 -0.24027228 1.1148636
0.3708148 -0.12698531 0.6555418 0.39376333 -0.2777189 0.5720974 -0.3100648 0.85893357
0.10449624 0.81872845 -0.70251405 0.88357615 -0.87031984 0.35257924 -0.7581705 1.4679141
0.99243164 -0.70358133 0.87475634 0.7389711 0.6127384 -0.92411375 0.7941327 0.83276105
-0.22901475 -0.40512598 -0.40832078 0.7788658 0.24298298 0.54257846 -0.84791243 0.7504846
-0.41721976 0.78460383 0.4145944 1.1063585 -0.7468349 0.71672654 -0.35516393 1.341418
-0.22525978 0.18816507 0.09999323 0.64716876 -0.79527414 0.1740942 -0.14159048 1.2109799
-0.24950862 0.29028416 0.47762823 0.78905916 0.23405194 0.013142109 -0.7284558 0.52256036
0.7121072 0.92563975 -0.90878 0.9001597 0.4588704 -0.06741452 -0.95999646 0.6210325
0.907061 -0.5904012 0.84450877 0.63596857 -0.5618553 0.20792544 0.589314 1.0983903
0.66001475 -0.4004228 0.9415083 0.632653 0.69973826 -0.55210114 0.7168124 0.51032305
0.37319696 -0.30955136 -0.6060977 0.40332893 -0.50024366 -0.7133324 -0.37701547 1.1302344
-0.27396047 0.85845566 0.65688884 1.1237587 0.47316885 0.7722002 0.6093514 0.6365428
0.35126102 0.7907535 0.25428414 0.54409647 0.28627944 -0.7894192 0.61678326 0.7258388
0.55302167 -0.10988557 0.9599407 0.59727585 -0.15545094 -0.77917504 -0.44282103 0.9099965
0.7511815 0.092981815 -0.7857702 0.39275703 -0.98827624 -0.19775498 0.29398918 1.4230382
-0.17129636 -0.8320236 0.0116683245 0.8789903 -0.99152815 -0.23826385 -0.18577063 1.4168252
0.19801307 0.4970895 0.83271563 0.7414471 0.9955698 -0.38864076 -0.67383397 0.4020857
-0.18787694 0.46061182 -0.41123354 0.7649795 -0.5321193 0.9966953 -0.3492937 1.2999852
0.9188725 0.6400564 0.51524854 0.43023118 0.8219991 0.052155852 0.98508537 0.58671033
-0.96815085 -0.027629375 -0.97696114 1.6202906 0.27428317 -0.04822135 -0.41600108 0.27213123
0.9482336 -0.8480308 0.349115 0.5289837 0.38636422 0.7758641 0.31346452 0.5334451
0.76485217 0.43757856 -0.4908135 0.25848934 0.51006997 0.81367195 0.81453764 0.7872629
0.6741562 0.32517326 -0.6821135 0.3660634 0.668301 -0.41483176 0.9605582 0.6545625
-0.8142142 -0.54025185 0.5763142 1.397136 -0.4304409 0.8231672 -0.5976192 1.1964766
-0.81353533 0.9923296 -0.36802065 1.5296772 0.8892467 -0.32301354 -0.41076112 0.13012019
00000000: e83b e43e 5234 4fbf 945f 46bf 7e72 463f
00000010: 809e 0a3e 4e3a 27bf 8cfa c93e 98a9 1c3f
00000020: 80fc 133f 8c6f 3abf a076 31be d1f8 c23e
00000030: 3819 aabe b668 3d3f 8051 b63e e2a5 7f3f
00000040: c037 9bbc 0c13 06bf ccc6 bcbe 44c1 233f
00000050: 3e57 0b3f bc64 5b3f 74c3 263f a8d8 343f
00000060: c015 d03c 84f3 313f 6066 febd 7aed 253f
00000070: 9436 70bf 5067 be3e 48b7 8fbe 1129 b33f
00000080: 1872 cdbe 8062 06be f0c5 f6bd 967c 503f
00000090: f075 21bf 48a1 c6be 2453 8fbe a4e5 8d3f
000000a0: 20d7 533d 9e06 1bbf d225 5c3f 460b 643f
000000b0: 24fd 9e3e 1ce1 c2be 382f 2c3e 3643 783e
000000c0: a850 77be 2035 f63e 9c82 b0be 1440 4c3f
000000d0: dc36 e1be 7a27 56bf f009 76be dab3 8e3f
000000e0: 70db bd3e 7008 02be 96d1 273f 599b c93e
000000f0: 2c31 8ebe fa74 123f d0c0 9ebe 12e3 5b3f
00000100: 2002 d63d 3098 513f f6d7 33bf 0c32 623f
00000110: 48cd 5ebf 4485 b43e 7617 42bf 9ce4 bb3f
00000120: 0010 7e3f e81d 34bf 08f0 5f3f 362d 3d3f
00000130: 6cdc 1c3f b892 6cbf 484c 4b3f d42f 553f
00000140: d882 6abe ac6c cfbe 6c0f d1be c063 473f
00000150: 88d0 783e 6ce6 0a3f ca10 59bf c21f 403f
00000160: d49d d5be ccdb 483f b845 d43e 289d 8d3f
00000170: 9230 3fbf 647b 373f 0cd8 b5be 96b3 ab3f
00000180: 80aa 66be 58ae 403e 40c9 cc3d daac 253f
00000190: 1697 4bbf c045 323e 18fd 10be 6401 9b3f
000001a0: 307f 7fbe 20a0 943e b08b f43e c8ff 493f
000001b0: 50ab 6f3e 0052 573c 147c 3abf 84c6 053f
000001c0: a84c 363f baf6 6c3f cea5 68bf de70 663f
000001d0: 10f1 ea3e a010 8abd 54c2 75bf fcfb 1e3f
000001e0: 2635 683f 8824 17bf ba31 583f d6ce 223f
000001f0: c0d5 0fbf 68ea 543e 48dd 163f 0e98 8c3f
00000200: baf6 283f 3804 cdbe b006 713f 8cf5 213f
00000210: 0c22 333f 8056 0dbf 0481 373f 88a4 023f
00000220: ac13 bf3e 847d 9ebe 3829 1bbf 2181 ce3e
00000230: f80f 00bf f49c 36bf 2c08 c1be 85ab 903f
00000240: 8c44 8cbe c0c3 5b3f de29 283f 53d7 8f3f
00000250: 3043 f23e eaae 453f 74fe 1b3f 78f4 223f
00000260: 7cd8 b33e d26e 4a3f 8831 823e e849 0b3f
00000270: 3893 923e 6017 4abf 82e5 1d3f 92d0 393f
00000280: d492 0d3f b00b e1bd acbe 753f 12e7 183f
00000290: 882e 1fbe 0478 47bf 70b9 e2be 88f5 683f
000002a0: 6e4d 403f 406d be3d 3c28 49bf 7317 c93e
000002b0: acff 7cbf 4880 4abe c085 963e 1e26 b63f
000002c0: 5068 2fbe 80ff 54bf 802c 3f3c 8205 613f
000002d0: cad4 7dbf 70fb 73be a83a 3ebe 875a b53f
000002e0: f0c3 4a3e 8482 fe3e da2c 553f 7acf 3d3f
000002f0: aadd 7e3f ecfb c6be 6280 2cbf 2dde cd3e
00000300: d062 40be 50d5 eb3e 348d d2be b2d5 433f
00000310: f838 08bf 6c27 7f3f a0d6 b2be ea65 a63f
00000320: 3a3b 6b3f bcda 233f 54e7 033f 4347 dc3e
00000330: 886e 523f 60a1 553d 8e2e 7c3f a632 163f
00000340: bcd8 77bf 0057 e2bc 201a 7abf af65 cf3f
00000350: d86e 8c3e c083 45bd 18fe d4be c954 8b3e
00000360: 70bf 723f 8c18 59bf 34bf b23e 7a6b 073f
00000370: 88d1 c53e 089f 463f 6c7e a03e dc8f 083f
00000380: 5acd 433f 4c0a e03e e84b fbbe b758 843e
00000390: f293 023f ce4c 503f 8a85 503f 108a 493f
000003a0: 8095 2c3f 1c7d a63e fe9e 2ebf a96c bb3e
000003b0: c615 2b3f d464 d4be 24e7 753f 6891 273f
000003c0: 5870 50bf f24d 0abf 5489 133f 5ad5 b23f
000003d0: c062 dcbe 16bb 523f 92fd 18bf 2526 993f
000003e0: da43 50bf 5009 7e3f 346d bcbe 76cc c33f
000003f0: aca5 633f 0862 a5be 484f d2be 3a3e 053e
