experiments/SlidingSphere/SdfSamples/slidingspheremodel_sphere_0.22.npz (npz, 40959 bytes, 2 tensors)

pos f4 [272, 4]
000000 80 a9 57 bd 40 f0 cd bd 90 d8 98 be 20 c8 7c 3c
       -0.052651882 -0.1005559 -0.29852724 0.015428573
000010 20 d2 77 be 88 89 2a be f0 af 8b bd 60 c8 c0 3d
       -0.2420125 -0.16654027 -0.06820667 0.094132185
000020 98 09 06 be 80 68 3e bc 00 38 c2 bb 48 94 4f bd
       -0.13089597 -0.011621594 -0.005927086 -0.05067852
000030 a0 19 42 bd 30 99 7f be 80 52 f0 3d 70 34 8c bc
       -0.04738772 -0.2496078 0.117344856 -0.017114848
000040 e0 70 5b bd d4 96 83 be 30 83 13 3e 00 3e 57 3a
       -0.053574443 -0.2570101 0.14405513 0.0008210838
000050 80 94 9e bc f0 10 7f 3e 08 6b b0 3e a8 3b b2 3d
       -0.01935792 0.24908805 0.34456658 0.08702785
000060 68 96 41 3e 04 00 e7 3e c8 b3 2a be 00 a9 a7 3d
       0.18905032 0.451172 -0.16670144 0.08186531
000070 68 32 52 3e 44 b1 8e be 34 d0 91 3e 00 38 ad ba
       0.20527041 -0.27869618 0.2847916 -0.0013215542
000080 20 59 6a 3d f4 9e 8a 3e f4 92 87 3e 60 56 3c 3c
       0.057213902 0.27074397 0.26479304 0.011495203
000090 88 bd 4b 3e 60 ec ca 3e 20 e1 61 be 40 26 5d 3d
       0.19896519 0.39633465 -0.22058535 0.053991556
0000a0 20 b1 ed bd 08 f8 44 3e b8 20 01 3e 40 d8 bb 3b
       -0.116060495 0.19235241 0.12610137 0.005732566
0000b0 ce 1b 24 3f 60 db 10 bd d0 e9 84 3d 20 d8 ef 3c
       0.64104927 -0.035365462 0.06489909 0.029277861
0000c0 c0 3f 43 3e 9c 8a d6 3e 78 b5 5a be 38 a9 91 3d
       0.19067287 0.41902626 -0.21358287 0.07112354
0000d0 d0 19 2a 3e c4 30 c3 3e 70 ae 32 3e 90 39 b8 3c
       0.16611409 0.38123143 0.17449355 0.022488385
0000e0 80 ea 1d be d0 a4 0d 3e 20 bc a0 3d 80 b7 a1 3b
       -0.15421486 0.13832402 0.07848382 0.004935205
0000f0 50 65 39 3e fc ee 8e 3e d0 13 73 be 00 bf 01 bd
       0.18105054 0.27916706 -0.23738027 -0.031676292
000100 00 b4 30 3d 90 d3 c4 bd 98 ca dd be b8 b0 9d 3d
       0.04314041 -0.09610665 -0.4331863 0.07699722
000110 70 5b 6c be 88 80 0e be 00 de c8 3d b0 3c a4 3d
       -0.23081756 -0.13916218 0.09807968 0.08019388
000120 30 27 44 3e f8 5c 1e 3e 84 bf 8c be f4 ee aa bd
       0.19155574 0.15465152 -0.27489865 -0.08346358
000130 48 81 20 3e 50 5a 23 be e8 77 df be f4 c9 8c 3d
       0.15674317 -0.1595242 -0.4364617 0.06874457
000140 da b8 06 3f 40 ab ba 3c 00 0e 78 bd 64 7e ae bd
       0.5262581 0.022786736 -0.060560226 -0.08520201
000150 b0 f4 d9 3e 00 eb a3 3e 10 3d 43 3e 10 2d d9 3c
       0.42569494 0.32015228 0.19066262 0.026510745
000160 48 99 81 3e 88 59 61 3e 84 22 de 3e fc ac b3 3d
       0.25312257 0.2200681 0.43385708 0.087732285
000170 b0 f7 eb 3e 48 e6 71 be f8 8d a7 be a0 51 91 3d
       0.46087408 -0.23623002 -0.327255 0.07095647
000180 0a 4b 07 3f b0 85 f7 bd 60 a6 43 be 80 a2 83 bc
       0.52848876 -0.12086046 -0.19106436 -0.016068697
000190 40 9f 58 3e 00 09 66 3c 08 a9 fa 3e 08 f2 b7 3d
       0.21154499 0.014040232 0.48957086 0.08981711
0001a0 98 04 aa 3e a8 ce 3f be fc b5 bc 3e 70 41 ec 3c
       0.3320663 -0.18731177 0.36857593 0.028839797
0001b0 20 8c dc 3e c0 f6 27 bd c8 01 ac 3e 00 3c af b9
       0.43075657 -0.041006804 0.3359511 -0.00033423305
0001c0 de 92 05 3f 00 d7 2d 3e 88 c2 49 be 00 c8 7a b9
       0.52177227 0.16976547 -0.19703114 -0.00023916364
0001d0 50 14 b5 bd a4 9f b8 be 00 d0 cb bd e4 59 ab 3d
       -0.08841765 -0.36059296 -0.09951782 0.08366755
0001e0 48 d9 8e 3e 20 2f 9a be 18 96 94 3e a0 47 b9 3c
       0.27900147 -0.3011408 0.29020762 0.022617161
0001f0 10 48 86 bd a4 63 89 3e a4 d7 87 be dc bb 93 3d
       -0.065567136 0.26833832 -0.26531708 0.07213566
000200 b8 8f 39 3e 70 6a 3b be 44 bb ab be b0 07 84 bc
       0.1812123 -0.18302321 -0.3354131 -0.016116947
000210 50 0c ee 3e 9c 8d da be 00 f2 f4 bb 40 af be 3d
       0.4649377 -0.42686164 -0.0074751377 0.0931077
000220 e8 9a 28 3e 94 74 db 3e b0 e0 52 3e 70 d5 a0 3d
       0.16465342 0.4286238 0.20593524 0.0785321
000230 60 a0 08 3f 80 55 f0 3c 88 2b a8 3e 78 fc 66 3d
       0.5336971 0.029337645 0.32845712 0.056393117
000240 50 ae 83 bd d0 eb b6 be 00 62 01 3d d8 9a 67 3d
       -0.06429732 -0.35726786 0.0315876 0.056544155
000250 10 97 0e 3f 48 99 1b be e8 d2 92 be bc a6 8d 3d
       0.55699253 -0.15195191 -0.28676534 0.06916568
000260 68 a8 59 3e 18 81 c2 3e f0 6b 9c 3d c0 3e 4c bc
       0.21255648 0.37989116 0.07637775 -0.012466133
000270 a8 7d fa 3e a4 84 be 3e 00 6f 53 bd c0 88 81 3d
       0.48923993 0.37210572 -0.05161953 0.06324911
000280 a0 6e a7 bd 8c d8 97 3e 20 d4 36 3e 60 b5 6d 3d
       -0.08175397 0.296574 0.17854357 0.0580343
000290 c0 83 a6 3e 4c 59 c9 be 00 21 89 bb c0 a9 f8 3b
       0.32522392 -0.3932594 -0.004184842 0.007588595
0002a0 88 4d 6c 3e c0 b5 6a bd 18 53 af be 00 5e 57 bd
       0.23076451 -0.057302237 -0.34243083 -0.05257988
0002b0 10 4a 9d 3e 64 8d d3 3e 38 a1 09 3e e0 46 32 3d
       0.30720568 0.4131881 0.13440406 0.043524623
0002c0 d6 e6 06 3f ec 5e 9a 3e 90 81 e1 bd 88 ec 39 3d
       0.5269598 0.30150545 -0.1101104 0.04539159
0002d0 40 d2 dd bc 08 1b 11 be 78 89 40 3e a8 d8 75 bd
       -0.027077794 -0.14170468 0.1880244 -0.060021073
0002e0 e0 ee 5c bd a8 d5 02 3e b8 cd 63 be 80 1d d5 bc
       -0.053938746 0.12776816 -0.22246444 -0.026015043
0002f0 86 28 27 3f 20 27 67 3e 00 a0 26 bc 8c 4e b8 3d
       0.6529621 0.22573519 -0.010169983 0.089993566
000300 dc f0 b7 3e 24 f5 9b be 10 df a0 bd f8 46 62 bd
       0.3592595 -0.30460465 -0.07855046 -0.055243462
000310 a0 e4 7c 3e 00 c9 2b 3e 78 de d9 3e 38 d1 6e 3d
       0.24696589 0.16775894 0.42552543 0.058304995
000320 d8 c3 11 3e 28 58 7e 3e f0 4a 30 3e c0 13 b5 bd
       0.14234865 0.24838316 0.17216086 -0.08841658
000330 00 e5 04 3d 40 99 4e 3d 90 7f ad 3e 00 a7 28 bc
       0.032444954 0.05043912 0.33886385 -0.010293722
000340 a0 94 b1 3e 68 9a 3b be e4 a4 ae be 60 22 03 3c
       0.34683704 -0.1832062 -0.34110177 0.008003801
000350 2c 17 e7 3e 10 f2 a2 be 48 aa 53 be 20 f2 39 3d
       0.45134866 -0.31825304 -0.20670426 0.045396924
000360 f0 1b ad bd a0 40 8a be b8 a2 68 3e 90 f8 84 3d
       -0.08452594 -0.2700243 0.22718322 0.06492722
000370 c0 65 64 3e 64 61 bf 3e 40 c2 2a bd 40 78 c3 bc
       0.2230444 0.3737899 -0.041689157 -0.02386105
000380 e0 57 67 3d ec 28 a2 be 80 b4 a9 3d 78 cd 0e bd
       0.05648029 -0.31671846 0.08286381 -0.03486392
000390 60 79 5b 3e 58 fa e2 3e 68 84 3f be 08 3c a6 3d
       0.2143302 0.44331622 -0.18702853 0.08116919
0003a0 9c 40 91 3e b4 68 ac 3e 98 3d 46 3e 00 ad c7 bb
       0.28369606 0.33673632 0.19359434 -0.0060936213
0003b0 ca 9a 2a 3f f0 cb 4f be 80 bc e6 3c 44 24 be 3d
       0.6664244 -0.2029264 0.028166056 0.09284261
0003c0 5c f0 c3 3e ec e9 e5 be 30 35 8f 3d 80 a4 aa 3d
       0.38269317 -0.4490503 0.069925666 0.08332157
0003d0 80 12 3d bd 30 27 af 3e 20 9e 49 3e 00 b4 99 3d
       -0.04616022 0.34209585 0.19689226 0.075050354
0003e0 08 1f 64 be 50 da b7 3d 40 dc 8c bd 58 36 62 3d
       -0.22277462 0.08977187 -0.06877947 0.055227607
0003f0 26 92 0a 3f e0 3d 6b bd c0 bc 6e bd 48 94 88 bd
       0.54129255 -0.057432055 -0.058285475 -0.066689074

neg f4 [2500, 4]
000000 a2 c2 5d 3f 86 c3 60 3f a6 e6 74 3f 20 8e 86 3f
       0.8662511 0.87798345 0.9566444 1.0512123
000010 7e cc 7b bf b0 ae 88 3e 28 2a f9 be b6 7b 6c 3f
       -0.98358905 0.26695776 -0.48664975 0.9237627
000020 14 1a a2 3e 8e 8a 21 bf 80 47 52 bd ba 7c 76 3e
       0.3166052 -0.6310204 -0.05133772 0.24071017
000030 cc 1a 9d be 14 63 83 3e e4 9e 68 3f 92 2c 2e 3f
       -0.30684507 0.25661528 0.9086745 0.6803676
000040 cc 23 1f 3f 84 22 86 be b2 28 2a 3f 87 4b d7 3e
       0.62163997 -0.26198208 0.66468346 0.4204981
000050 1c cd 22 3f d0 08 bd be d0 b3 49 3f 68 b1 10 3f
       0.6359422 -0.36920786 0.7879 0.565207
000060 70 96 7e be f8 6e 5d 3e 80 90 d6 3c bc c5 eb 3d
       -0.24862075 0.21624362 0.02619195 0.11512324
000070 fc 72 e2 be 50 17 9c bd 3a f2 62 bf 16 47 35 3f
       -0.4422835 -0.07621634 -0.8865086 0.70811594
000080 90 fe 04 3e 3c 08 c5 3e 14 e5 f1 be 6e e3 5c 3e
       0.12987733 0.38482845 -0.47245085 0.21571133
000090 e0 3e 66 bf e8 6d 40 3f b8 ad 49 bf ce 85 94 3f
       -0.8993969 0.75167704 -0.787807 1.1603334
0000a0 48 09 d9 be 78 07 b8 3e 30 eb 81 be 9f b8 c1 3e
       -0.42389894 0.35943198 -0.25374746 0.37836167
0000b0 30 e4 77 3e 94 79 7f 3f 72 3a 4d 3f f4 5a 61 3f
       0.2420814 0.9979489 0.80167305 0.8802941
0000c0 80 76 92 3d d8 f1 51 bf 58 ed 09 3f ca 96 17 3f
       0.07151508 -0.8200965 0.5387778 0.5921446
0000d0 42 10 08 bf 30 9d bc 3e 98 8d 68 3f e0 85 55 3f
       -0.5314981 0.36838675 0.90841055 0.834074
0000e0 30 ce 10 bf 58 0e 05 be 46 19 55 bf 16 30 40 3f
       -0.5656462 -0.12993753 -0.8324169 0.75073373
0000f0 30 64 aa be b6 33 2c bf 00 5b 9f bd 71 2b f2 3e
       -0.33279562 -0.67266405 -0.07781029 0.47298768
000100 e0 d1 06 be 40 2a 0a bf a0 87 b2 3e 43 c9 a9 3e
       -0.13165998 -0.5397072 0.348691 0.33161363
000110 ee 81 1d 3f 58 7f c5 be 0e 67 1e bf 01 4b dc 3e
       0.6152638 -0.38573718 -0.61876 0.43025973
000120 60 ed 29 3e 76 f4 0e bf cc 93 35 bf be 15 01 3f
       0.16594458 -0.5584177 -0.70928645 0.504238
000130 2c 71 82 be a6 d5 07 3f b4 70 68 bf f6 ca 40 3f
       -0.25476968 0.53060377 -0.9079697 0.75309694
000140 90 a5 7d 3f 30 80 99 bd de 70 58 bf 4c 6e 3f 3f
       0.99080753 -0.07495153 -0.8454722 0.74777675
000150 e6 96 69 bf a6 c5 3f 3f 40 99 53 bd a8 0f 75 3f
       -0.9124588 0.7491096 -0.051659822 0.95727015
000160 ae 69 69 3f 78 26 be 3e 00 1c b4 3d a9 87 c8 3e
       0.9117688 0.37138724 0.08794403 0.39166
000170 70 e8 91 bd a2 6d 7d 3f fc 72 c0 be e6 9f 32 3f
       -0.07124412 0.9899541 -0.37587726 0.69775236
000180 58 5a 69 bf ba 0d 7a bf 10 89 2d 3e b0 2f 8d 3f
       -0.9115348 -0.97677195 0.16946816 1.1030178
000190 d8 5c d2 3e e8 a2 d1 be 68 95 66 3e 7c f5 d7 3d
       0.4108646 -0.409446 0.22517931 0.10544869
0001a0 20 07 63 be f4 4e 3b bf 8c fa 48 3f b8 83 42 3f
       -0.22170687 -0.7316735 0.78507304 0.75982237
0001b0 18 5c 04 bf c4 3f 73 3f c8 bc 4d 3f b7 d0 85 3f
       -0.51703024 0.95019174 0.8036618 1.045432
0001c0 98 a1 f3 be 2c cc 6a 3f 80 b6 d0 3d 46 32 41 3f
       -0.47584224 0.9171779 0.10191059 0.75467336
0001d0 a4 16 6c 3f 18 46 46 3f 00 9d 2b 3f 72 cb 57 3f
       0.92222047 0.77450705 0.6703644 0.8429481
0001e0 b0 9e 49 3e 18 c1 87 be 48 92 db be b4 50 d6 3d
       0.1968944 -0.26514506 -0.4288504 0.10464612
0001f0 60 c8 74 3f c2 29 32 3f ac 50 01 bf 5a b3 3b 3f
       0.9561825 0.6959497 -0.5051372 0.73320544
000200 48 e3 b2 be 1c c4 7f bf 30 d9 58 be cc b5 44 3f
       -0.34939027 -0.99908614 -0.211766 0.768399
000210 00 55 34 bc 94 c4 27 bf b0 b0 e0 3e 1b b9 d7 3e
       -0.011006594 -0.6553433 0.43884802 0.42133412
000220 ca f5 5a 3f 80 22 34 3f 2c 6f c2 be be 54 1f 3f
       0.85531294 0.7036514 -0.37975442 0.6223868
000230 82 3d 39 3f 24 d4 37 bf c0 59 39 bf d0 f4 3c 3f
       0.7235948 -0.71808076 -0.7240257 0.73811054
000240 e2 ba 5d bf 74 eb 64 3f a0 93 cc 3d 9f 27 81 3f
       -0.86613286 0.8942177 0.09989095 1.0090216
000250 00 42 4d 3f 80 2e a3 3c 02 07 1f 3f df b7 e7 3e
       0.80178833 0.019919634 0.6212007 0.4525747
000260 bc c0 fc be 7e 24 3d 3f 70 a6 ba be 7c 55 30 3f
       -0.49365795 0.7388381 -0.36455107 0.6888044
000270 9c 4e 03 bf c8 62 41 3f 50 67 2c 3f c2 35 59 3f
       -0.51291823 0.75541353 0.6734514 0.8484765
000280 fc 3d e6 be 4a 58 63 3f 70 23 a2 be 58 63 41 3f
       -0.44969165 0.88806593 -0.31667662 0.7554221
000290 46 21 0d 3f 08 bc 05 be 8e 1c 2d 3f 85 e6 ba 3e
       0.55128896 -0.1306001 0.67621696 0.36503997
0002a0 28 16 b6 be 18 34 48 3e d8 92 dd be e7 8d b0 3e
       -0.3556378 0.19551122 -0.43276095 0.34483263
0002b0 20 b9 af 3e a8 d7 4c bf 38 bd dc 3e 9e 79 04 3f
       0.34320927 -0.80016565 0.43113112 0.51748073
0002c0 48 83 73 be 2c ed 83 be 68 b3 9e be 56 9b 55 3e
       -0.23780549 -0.25766885 -0.3099625 0.20860037
0002d0 cc be 1b bf c6 a1 51 3f 00 19 31 bc d2 78 43 3f
       -0.6083801 0.8188747 -0.010809183 0.7635623
0002e0 d8 01 61 be 6a 52 48 3f c0 f2 b8 bd 9e 51 00 3f
       -0.2197336 0.78250754 -0.09030676 0.5012454
0002f0 50 23 9c 3d 58 de 17 bf 48 5e 5d 3e 7a 16 7d 3e
       0.07623923 -0.59323645 0.21617997 0.24715605
000300 d4 66 db 3e f8 f8 2c 3f 96 59 3e bf a6 60 20 3f
       0.4285189 0.67567396 -0.7435545 0.62647474
000310 d4 04 85 be 7a e2 23 bf 58 1b 58 be b3 48 da 3e
       -0.25980246 -0.6401745 -0.21104181 0.4263359
000320 68 6b 7d bf f6 6b 6a bf 90 27 93 be 9b 4b 92 3f
       -0.98992014 -0.91570985 -0.2874112 1.1429323
000330 94 47 7f bf 60 70 f8 bd d8 76 ee be ea 3d 68 3f
       -0.99718595 -0.12130809 -0.46575046 0.90719473
000340 00 b4 fc 3d 00 cc 65 bc 88 ea 75 3e 94 d4 10 be
       0.1233902 -0.014025688 0.24015248 -0.14143592
000350 00 70 77 3e f0 33 71 3f 20 57 12 be b4 a2 0d 3f
       0.24163818 0.94219875 -0.14291048 0.5532639
000360 d2 d4 00 bf 9e 53 3d bf 50 fc 96 3d 7a c2 22 3f
       -0.5032474 -0.73955715 0.073723435 0.63578
000370 b2 6f 3b 3f 4c ef a7 3e e2 56 36 bf f6 9f 09 3f
       0.7321731 0.32799757 -0.7122632 0.53759706
000380 8a 31 38 bf 20 7a 25 3d c0 71 c4 3e 0a 2c 1d 3f
       -0.7195059 0.04039967 0.38368034 0.61395323
000390 02 9d 1b 3f fc 9e d3 be 44 1f 23 3f e7 43 e8 3e
       0.6078645 -0.41332233 0.6371958 0.45364305
0003a0 18 6e 87 3e 0e f9 4c 3f 84 21 cf be 55 1d ff 3e
       0.26451182 0.8006753 -0.40455258 0.49827066
0003b0 d2 e5 3d bf 00 a5 f0 3c 36 fc 19 bf 0a b5 3b 3f
       -0.741788 0.029375553 -0.6015047 0.7332312
0003c0 e0 2c 13 3f 98 36 1b 3f 0a da 6c bf 8c 23 43 3f
       0.5749035 0.6063018 -0.925202 0.76226115
0003d0 10 8b 8f be a4 16 2e bf a8 69 07 bf d0 6a 18 3f
       -0.28035784 -0.68003297 -0.52895594 0.5953798
0003e0 86 c2 08 bf 56 9d 6e 3f 56 3c 41 bf af 07 82 3f
       -0.5342182 0.93208826 -0.7548269 1.0158595
0003f0 14 aa 64 bf 50 f0 b0 bd 4c ee 6d bf 86 93 86 3f
       -0.8932202 -0.08639586 -0.9294174 1.051377
