experiments/SlidingSphere/SdfSamples/slidingspheremodel_sphere_-0.80.npz (npz, 40088 bytes, 2 tensors)

pos f4 [207, 4]
000000 30 db 0f bf 60 06 49 bd d8 11 d5 3e 30 cf a7 3d
       -0.5619383 -0.049078345 0.41615176 0.08193815
000010 c2 1f 7d bf 90 e5 9e 3d 90 f2 db be 34 d4 9a 3d
       -0.98876584 0.07758629 -0.42958498 0.07560006
000020 a2 05 36 bf d8 83 9b be 70 b4 83 3e 60 b0 00 3c
       -0.71102345 -0.30374026 0.257236 0.007854551
000030 a6 71 2f bf b0 af 99 bd 4c 11 d8 be 30 00 33 3d
       -0.6853279 -0.07504213 -0.42200696 0.04370135
000040 8c 6c 76 bf 70 4b bc be c8 1a 80 be f8 b6 96 3d
       -0.9625938 -0.36776304 -0.25020432 0.07359117
000050 8e 9a 26 bf e0 8c f0 be 20 1a 1d 3d 64 68 c1 3d
       -0.6507958 -0.4698248 0.038354993 0.09443739
000060 5c 6d be be 70 74 d8 bd e0 07 34 3d e0 95 30 3d
       -0.3719281 -0.10569084 0.043952823 0.043111682
000070 18 b0 db be c0 9a 8e bc 80 5e 2a bd 50 d6 d7 bc
       -0.42907786 -0.017407775 -0.04159403 -0.02634731
000080 56 12 6b bf e4 cd 95 3e 40 4b 2f 3e a0 dc 27 bd
       -0.91824853 0.29258645 0.1711855 -0.04098189
000090 cc f4 5b bf 70 ef b0 be 60 ab 1e be e0 99 88 bc
       -0.85920405 -0.34557676 -0.15495062 -0.016674936
0000a0 7e b2 3e bf 2c 84 98 3e 00 8b 27 bc d0 6f c6 bd
       -0.7449111 0.2978834 -0.010226011 -0.09689295
0000b0 ee e5 04 bf 10 b3 91 be 90 d4 4e be 50 6b 44 3d
       -0.51913345 -0.28456926 -0.20198274 0.047953904
0000c0 80 b5 b9 be e0 0e d3 3d 30 be 28 3e e4 d6 a0 3d
       -0.36271286 0.103055716 0.16478801 0.07853487
0000d0 6c 63 cf be 40 58 d2 3d d0 f7 72 3e 94 8d 93 3d
       -0.4050554 0.102707386 0.23727345 0.07204738
0000e0 ca cf 28 bf e8 17 28 be 60 9c 91 be 80 51 2f bd
       -0.6594206 -0.1641537 -0.28439617 -0.042802334
0000f0 36 0a 59 bf 78 38 16 3e b0 83 e0 be 64 d4 84 3d
       -0.84781206 0.14669979 -0.4385047 0.06485823
000100 b6 5d 36 bf 70 e8 23 3e c4 ff e9 3e 80 a6 bc 3d
       -0.7123674 0.16006637 0.45702946 0.09211445
000110 74 92 08 bf 00 61 a5 3d 0c fd a9 be 70 8c 08 3d
       -0.5334847 0.08075142 -0.33200872 0.033337057
000120 f0 d7 44 bf 64 95 c9 be b0 d1 a8 3d 00 52 62 3b
       -0.76891994 -0.39371789 0.0824312 0.003453374
000130 6c f9 51 bf 7c e7 e0 3e 00 ea 72 bb 30 cd 22 3d
       -0.8202121 0.4392661 -0.0037065744 0.039746463
000140 6a 85 14 bf a0 a3 19 3d 8c b7 c8 3e a0 fb 50 3d
       -0.58016074 0.03750956 0.39202535 0.05102122
000150 9c e5 18 bf e0 4e 87 3e 60 23 fa bd 48 3f 39 bd
       -0.59725356 0.26427364 -0.122137785 -0.045226365
000160 94 65 43 bf 8c 36 ea 3e 90 56 a6 3d 00 46 87 3d
       -0.7632687 0.4574474 0.08121979 0.06605148
000170 e8 64 65 bf ec b0 c2 be 30 0e d2 bd 00 be b0 3b
       -0.89607096 -0.38025606 -0.10256612 0.0053937435
000180 36 35 32 bf ec 8e e5 be 80 97 7a bd 68 a5 83 3d
       -0.69612443 -0.44835603 -0.061179638 0.06428033
000190 bc 67 e8 be 80 64 b9 3d c4 1d a3 3e 48 d8 a1 3d
       -0.45391643 0.09052372 0.31858647 0.079025805
0001a0 d0 52 f3 be 50 a1 e0 3d 88 30 41 3e 60 0a 0f bc
       -0.47524118 0.10968268 0.1886617 -0.008730501
0001b0 32 fa 08 bf 20 d0 03 be d4 0e ae 3e 38 06 4c 3d
       -0.5350677 -0.12872362 0.33995688 0.04981062
0001c0 36 89 15 bf 20 f6 69 be 40 e9 8d 3d 3c fe 9f bd
       -0.5841249 -0.22847795 0.069292545 -0.07812163
0001d0 4e d4 77 bf 98 93 e7 be d8 fd 03 be 14 a7 cb 3d
       -0.96808326 -0.45229793 -0.12889802 0.09943977
0001e0 58 80 f3 be 58 42 11 be 14 49 a6 3e 0c ca a4 3d
       -0.47558856 -0.14185464 0.3247763 0.0804635
0001f0 da 10 5a bf dc d4 c0 3e 00 cb 3b 3d 10 dd 8b bc
       -0.85181963 0.376624 0.045847893 -0.017073184
000200 7c 01 5a bf 84 e3 aa be 90 4a c2 bd 90 84 49 bd
       -0.85158515 -0.33376706 -0.09486878 -0.049198687
000210 88 e0 23 bf 34 88 c3 be d0 85 3d 3e 80 1a 5b 3d
       -0.6401448 -0.38189852 0.18508077 0.05349207
000220 1c ca 12 bf 70 9a 07 3e 8c 32 cf be c4 a2 a8 3d
       -0.57339644 0.13242507 -0.40468252 0.0823417
000230 90 8b 37 bf 30 13 88 3d 00 32 da 3e 58 af 20 3d
       -0.7169733 0.06644285 0.42616272 0.03922972
000240 54 f3 f7 be f8 a0 42 3e 28 85 4f 3e f0 78 a8 3c
       -0.48427832 0.19006717 0.20265639 0.02056548
000250 8c 30 d5 be 00 83 c0 bb d0 98 c1 3d 80 7b 9f bb
       -0.416386 -0.0058749914 0.09452975 -0.0048670173
000260 fc 55 58 bf ec fe e7 be 80 13 ed 3d 1c 06 8f 3d
       -0.845062 -0.45311677 0.11575985 0.06983587
000270 fe 7b 69 bf b0 18 9d 3d f8 03 ce 3e 60 16 ca 3c
       -0.9120482 0.076707244 0.40237403 0.024668872
000280 34 32 01 bf 00 de b8 3b 10 13 ca 3d 80 66 b5 bd
       -0.5046723 0.005641699 0.09866917 -0.08857441
000290 d4 f7 4a bf f8 6f 29 3e c4 61 b9 3e 00 c1 f1 ba
       -0.79284406 0.16546619 0.36207402 -0.0018444359
0002a0 3c 6f 33 bf e8 c2 80 3e 80 cf be 3e e0 52 77 3d
       -0.70091605 0.25148702 0.37267685 0.06038177
0002b0 6e ba 56 bf 38 0e 3f be 20 13 92 be a0 17 69 bd
       -0.8387822 -0.18657768 -0.28530216 -0.056907296
0002c0 2c 41 c1 be e0 53 74 bd 10 21 2d 3e 00 b6 71 3d
       -0.37745035 -0.059650302 0.16907144 0.05901146
0002d0 a0 e0 00 bf a0 70 48 be a8 16 98 3e a4 54 81 3d
       -0.5034275 -0.19574213 0.29704785 0.06314972
0002e0 3a 36 1a bf 80 1b fb 3c 64 54 a1 be 90 93 db bc
       -0.60238993 0.030652761 -0.31509697 -0.026803762
0002f0 08 e6 f7 be 68 c2 3f 3e 10 45 39 3e 20 c9 18 3c
       -0.48417687 0.18726504 0.18092752 0.009325296
000300 68 c7 c1 be a0 15 be 3d 00 8d 00 bc d0 d1 01 3d
       -0.37847447 0.092814684 -0.007846117 0.031694233
000310 48 4e 71 bf 38 da e1 be 20 ca 67 bd 08 4a 89 3d
       -0.9426007 -0.441118 -0.056589246 0.067035735
000320 da 47 70 bf 00 da 0f bb 6c a4 dd 3e 70 6b 5f 3d
       -0.93859637 -0.0021950006 0.43289506 0.05454582
000330 a6 fa 3d bf a0 b2 ac 3d d0 76 a3 3e 34 9b 84 bd
       -0.74210584 0.084325075 0.31926584 -0.06474915
000340 5c 72 0a bf 98 0f 22 be b4 73 92 be a0 ce 8c 3c
       -0.5408075 -0.15826261 -0.286039 0.01718837
000350 6c ac 2c bf b8 4d 8f be 60 75 1b 3d b8 36 ba bd
       -0.67450595 -0.27988982 0.037953734 -0.09092468
000360 00 82 cc be b8 b2 39 3e 90 d1 e5 3d c8 5e 5c 3d
       -0.39942932 0.18134582 0.112216115 0.053801328
000370 76 47 0a bf 80 f6 96 3d 38 10 b3 3e 70 95 2b 3d
       -0.5401529 0.07371235 0.3497331 0.04189056
000380 98 53 6f bf 04 83 94 be f0 95 a1 3e f8 30 4a 3d
       -0.9348693 -0.29006207 0.31559706 0.049363106
000390 4c 58 3e bf 18 cf c0 be 00 3a 15 bb 90 50 9d bc
       -0.7435348 -0.37658 -0.0022770166 -0.019203454
0003a0 70 37 5c bf d8 b4 28 3e e0 c9 a8 be f0 ab d9 bc
       -0.8602209 0.16475236 -0.32966518 -0.026571244
0003b0 dc 72 53 bf c0 f0 cb be a0 2f 3f 3e 28 99 26 3d
       -0.82597136 -0.39832115 0.18670511 0.040673405
0003c0 50 f8 77 bf 88 14 c8 be 80 d6 3a bd 00 cc e5 3c
       -0.9686327 -0.39078164 -0.04561472 0.028051376
0003d0 f4 31 43 bf 50 63 28 be 58 5d c6 be d0 c1 b8 3c
       -0.762481 -0.16444135 -0.3874309 0.022553355
0003e0 8c 8d 58 bf 58 72 b4 3e c4 3b 85 be 18 db 25 3d
       -0.84590983 0.35243487 -0.2602216 0.040492147
0003f0 74 0e e1 be 50 7b f7 3d c8 02 85 be 58 91 77 3d
       -0.4395634 0.12084067 -0.25978684 0.060441345

neg f4 [2500, 4]
000000 f6 dd 23 bf 80 25 a6 3c c4 26 6d 3f 68 50 0a 3f
       -0.6401056 0.020281553 0.92637277 0.5402894
000010 fc d3 0e 3f 60 61 ea bd f8 74 70 bf 9e a6 a0 3f
       0.5579221 -0.11444354 -0.9392848 1.2550848
000020 80 70 13 3d 68 65 11 3e 96 df 25 bf 84 cc 2a 3f
       0.03599596 0.1419884 -0.6479429 0.66718316
000030 f2 37 3a 3f 52 b7 72 bf 6e 65 6a bf d3 09 cf 3f
       0.72741616 -0.94810975 -0.9156102 1.6174873
000040 38 05 0d 3f 80 c1 3f bf 4a 92 36 bf d1 91 a6 3f
       0.5508609 -0.7490463 -0.7131697 1.301325
000050 5c dc df 3e d0 20 76 bf c0 60 ce bd 3a c6 95 3f
       0.43722808 -0.9614382 -0.10077047 1.1701119
000060 5e 52 75 3f a4 5c 7c 3f a0 8e 90 3d 43 fa ce 3f
       0.9582881 0.9857886 0.070584536 1.6170124
000070 20 35 ee be c0 95 0c 3d 90 1d 62 bf ce 91 0b 3f
       -0.46524906 0.0343225 -0.8832636 0.54519355
000080 f4 cc ff be 6c cf 62 3f 2e 6e 65 bf 2c 41 65 3f
       -0.49961054 0.8859775 -0.89621246 0.8955257
000090 24 5a ec be 74 e5 bd be 78 d1 2b 3e 62 74 04 3e
       -0.46162522 -0.3708912 0.16779125 0.12935022
0000a0 a0 a6 4f 3d e0 d7 81 be 34 b6 60 bf 8a 30 59 3f
       0.050696015 -0.25360012 -0.8777802 0.8483969
0000b0 90 00 f5 3d f0 59 8f bd 10 1f 73 3e 6e 67 0d 3f
       0.11962998 -0.06999576 0.23742318 0.55235946
0000c0 e0 66 0d bf 62 ae 0a bf 8e 09 4f bf 16 bb 1a 3f
       -0.552351 -0.5417234 -0.80873954 0.6044172
0000d0 f8 89 df be bc e7 cf 3e 98 bd 62 be 46 b7 40 3e
       -0.4365995 0.40606487 -0.22142637 0.18819913
0000e0 20 39 d3 bd 10 f6 98 3e c0 a6 15 3f 48 b1 0e 3f
       -0.1031363 0.2987523 0.58457565 0.5573926
0000f0 44 f3 5b 3f 42 45 44 bf 08 d9 0d bf 41 44 c1 3f
       0.8591807 -0.7666818 -0.5540929 1.5098954
000100 9e bc 4b bf ac 34 45 bf e4 2b 0b 3f 90 f8 0a 3f
       -0.7958468 -0.77033496 0.54363847 0.54285526
000110 40 3b aa be 60 b9 bb bd 26 25 7f 3f 90 65 34 3f
       -0.3324833 -0.09166217 0.9966606 0.7046747
000120 04 74 25 3f f0 82 1b be 98 ab 04 3f 32 69 92 3f
       0.6463015 -0.15186667 0.5182433 1.1438353
000130 8a 76 59 bf f6 36 7c bf b6 f0 77 bf a4 80 7b 3f
       -0.849465 -0.98521364 -0.9685167 0.98243165
000140 96 e4 5a 3f 60 d2 33 bd f4 2a 44 3f 92 51 b6 3f
       0.85505044 -0.0439018 0.7662804 1.4243643
000150 1c ed dc 3e f0 33 52 be 28 12 e0 3e c4 47 6c 3f
       0.4314965 -0.20527625 0.43763852 0.92297006
000160 2c de 8b 3e 10 52 b7 bd c0 5c 11 3d 08 70 2d 3f
       0.2731794 -0.08951199 0.035488844 0.6774907
000170 90 82 57 be e0 95 50 3d 30 d2 39 be c2 30 60 3e
       -0.210459 0.050924182 -0.18146586 0.218936
000180 30 55 cc 3e 70 51 a5 3d 38 4d 20 be 3a dc 4f 3f
       0.39908743 0.080721736 -0.15654457 0.81195414
000190 90 8e fe be 3e e5 19 3f 20 df 65 3d 03 08 8d 3e
       -0.49718142 0.6011542 0.05612099 0.27545175
0001a0 80 01 c9 bd 16 f0 5a bf 78 99 ac 3e 7a ae 41 3f
       -0.09814739 -0.8552259 0.33710837 0.75656855
0001b0 a0 f8 62 be b6 d6 7a bf 90 31 1c 3f 62 1c 64 3f
       -0.22165155 -0.9798387 0.61013126 0.8910581
0001c0 78 ce 6e 3e a2 af 64 3f 60 94 53 bd 34 81 77 3f
       0.23320949 0.89330494 -0.051655173 0.96681523
0001d0 9c 29 9a be 40 02 00 bd 50 b0 14 be 6c de f6 3d
       -0.3010987 -0.031252146 -0.14520383 0.12054142
0001e0 14 b5 34 3f b8 13 a0 be 20 95 82 3d 53 d5 91 3f
       0.70588803 -0.31265044 0.063760996 1.1393226
0001f0 d2 14 04 3f c8 08 6f be 76 3f 0f bf 4a 42 86 3f
       0.5159427 -0.23343194 -0.5595621 1.048898
000200 10 87 8c 3d bc 51 ed 3e 90 68 ab bd dc 8d 16 3f
       0.06861699 0.4635142 -0.08369553 0.5881021
000210 c0 57 d9 3e 92 07 16 3f e4 06 6d 3f 4c 21 9f 3f
       0.4244976 0.586053 0.9258864 1.2432036
000220 1e 58 5e 3f 30 d1 92 3d a6 1a 27 bf 3b 51 b2 3f
       0.86853206 0.071688056 -0.6527504 1.393104
000230 70 51 57 3e 50 b1 f0 bd b4 6a 72 bf 6c 5a 7d 3f
       0.2102716 -0.1175257 -0.94694066 0.989661
000240 ba 56 52 bf 1c 19 15 3f 1e e5 57 3f b0 08 20 3f
       -0.82163584 0.5824144 0.8433398 0.62513256
000250 a0 cc 48 be 82 28 3b 3f 6c 4f 1c 3f 48 53 3a 3f
       -0.19609308 0.73108685 0.6105869 0.7278333
000260 f8 61 61 bf b6 54 56 3f 68 b7 2f be 77 b4 ea 3e
       -0.88040113 0.8372301 -0.17159808 0.4584081
000270 30 4d 89 be 64 9c d5 be 94 d0 79 bf 6a 7e 49 3f
       -0.26816702 -0.4172088 -0.9758389 0.7870852
000280 b8 05 c6 be 48 fc 6e bf c0 39 bb bd a6 ff 1f 3f
       -0.38676238 -0.933537 -0.09141874 0.62499464
000290 92 f1 34 3f 52 d0 03 3f 40 2f c5 3e 8f 7f 9e 3f
       0.7068111 0.51489747 0.3851261 1.2382678
0002a0 b0 71 b6 3d 92 16 50 3f bc 7d 59 3f 08 7c 89 3f
       0.08908403 0.8128444 0.8495748 1.0740976
0002b0 04 67 a3 3e 20 fb 14 be 6e db 77 3f 80 21 8b 3f
       0.31914532 -0.14548922 0.968192 1.0869598
0002c0 4e c1 6f 3f 9e 88 3d bf 94 9a 9f be 5d b5 c1 3f
       0.93654335 -0.74036586 -0.3117262 1.5133473
0002d0 fa 5c 1f bf ce 36 7f 3f 60 86 69 bf 84 80 76 3f
       -0.62251246 0.99693 -0.91220665 0.9628985
0002e0 fc 6a 16 bf f4 06 22 bf c4 76 42 3f a0 7e 1c 3f
       -0.58756995 -0.6329186 0.7596247 0.61130714
0002f0 40 61 db be e0 16 ea be 40 b6 c5 bc 3e 2b 42 3e
       -0.42847633 -0.45720577 -0.024134755 0.18961808
000300 a0 c0 5b 3d 30 1a ef 3d 8a 1e 38 bf 84 ea 38 3f
       0.0536505 0.11674917 -0.719216 0.7223284
000310 b2 83 04 3f 40 c7 64 bd 90 37 82 3d 0a 9c 6b 3f
       0.5176345 -0.055854082 0.06358254 0.9203497
000320 74 75 19 3f 98 2d 48 3e c4 2c 4d 3f 93 bc 9c 3f
       0.59944844 0.19548643 0.8014643 1.2245048
000330 72 da 38 bf 48 2a f4 be 64 1a c0 3e 12 db 58 3e
       -0.7220832 -0.47688508 0.37520134 0.21177319
000340 d0 eb b7 be 9c a0 8e be 02 20 35 3f cf 32 f5 3e
       -0.35922098 -0.2785691 0.70751965 0.47890326
000350 88 21 19 be bc 7d 58 3f dc 27 df 3e ba a2 40 3f
       -0.14954197 0.84566855 0.43585098 0.752483
000360 8c d1 18 bf b0 c4 e1 3e 14 f4 79 bf 94 be 30 3f
       -0.59694743 0.44095373 -0.9763806 0.690408
000370 42 81 0b 3f d0 17 bf be 52 26 0b 3f 07 87 8c 3f
       0.54494107 -0.37322855 0.5435535 1.0978707
000380 ac bb c3 be 44 a4 7f 3f 60 4f 13 be 56 24 31 3f
       -0.3822912 0.99860024 -0.14385748 0.6919607
000390 9a 4a 12 bf 88 1d 45 be 76 fc 34 3f 37 2d bc 3e
       -0.5714508 -0.19249547 0.70697725 0.36753246
0003a0 28 9f 11 bf f0 a4 2f 3e 2e 8c 06 bf d2 05 4c 3e
       -0.5688348 0.17152762 -0.5255765 0.19924095
0003b0 80 56 5f bf e0 11 73 bd f0 b0 f2 3d d0 f3 7e be
       -0.87241364 -0.05934322 0.118501544 -0.24897695
0003c0 a0 86 42 3e 30 d0 b0 bd be 77 02 3f 90 7f 37 3f
       0.18996668 -0.086334586 0.5096396 0.7167902
0003d0 98 77 5a 3f 40 85 89 3d 80 d8 ec bd eb 1f a1 3f
       0.85338736 0.067148685 -0.115647316 1.2587866
0003e0 00 51 17 3d 66 d7 3b bf 10 dc db be 82 02 4b 3f
       0.036942482 -0.73375547 -0.42941332 0.793007
0003f0 96 0f 15 3f b2 20 68 3f c0 64 94 bc 0b 6a a0 3f
       0.5822691 0.9067489 -0.018114448 1.2532362
