experiments/SlidingSphere/SdfSamples/slidingspheremodel_sphere_0.07.npz (npz, 40897 bytes, 2 tensors)

pos f4 [270, 4]
0	0x3ef7a284	0.48366177
1	0x3c243400	0.010022163
2	0x3b772400	0.0037710667
3	0x3c356fc0	0.011074007
4	0xbdd53d40	-0.10412073
5	0xbe99df3c	-0.30053127
6	0xbe142798	-0.14468229
7	0xbcb817b0	-0.022472233
8	0xbcb49480	-0.022043467
9	0x3e668068	0.2250992
10	0xbe9ddb34	-0.308313
11	0xbbda94c0	-0.0066705644
12	0x3ef4fdac	0.47849786
13	0xbbf63800	-0.007514
14	0x3e81ec18	0.25375438
15	0x3da10eb4	0.078641325
16	0xbe3e4d10	-0.18584085
17	0x3e5ce1e0	0.2157054
18	0x3eba6148	0.36402345
19	0x3dc45dfc	0.095882386
20	0xbe95629c	-0.29176795
21	0x3dae0860	0.08497691
22	0xbe8c6d00	-0.2742691
23	0x3d831574	0.06400576
24	0x3d98c3c0	0.07459211
25	0xbec49580	-0.3839531
26	0x3db3d7c0	0.087813854
27	0xbbc8d200	-0.0061285496
28	0xbe51c498	-0.20485151
29	0xbe28fa30	-0.16501689
30	0xbdd59c60	-0.10430217
31	0xbd786a80	-0.06064844
32	0x3e3af1b0	0.18256259
33	0x3e94a264	0.29030144
34	0x3e930184	0.28712094
35	0x3cbaf200	0.022820473
36	0xbd827100	-0.06369209
37	0x3dc7a350	0.09747946
38	0x3e836814	0.25665343
39	0xbdbf59ac	-0.093432754
40	0xbe193f60	-0.14965582
41	0x3e62f7a0	0.22164774
42	0x3d7b6d20	0.061383367
43	0xbda4001c	-0.08007833
44	0x3e6a9b78	0.22910869
45	0x3e881558	0.26578784
46	0xbd7fc780	-0.062446117
47	0xbdaed1a0	-0.085360765
48	0x3eb273f8	0.34854102
49	0x3e9c5618	0.30534434
50	0xbe7f7a68	-0.24949038
51	0x3da64c68	0.08120042
52	0xbe3ba5f8	-0.18325031
53	0xbe468eb0	-0.19390368
54	0xbe930e70	-0.28721952
55	0x3cfc9840	0.030834317
56	0x3e10ce70	0.1414125
57	0xbe974ae8	-0.29549336
58	0x3d6b7340	0.057482958
59	0xbdbad758	-0.09123105
60	0xbdfbaac0	-0.12288427
61	0xbeba1b00	-0.36348724
62	0x3e489548	0.19588196
63	0x3d690ed0	0.056898892
64	0xbe0d3308	-0.13788998
65	0xbed53e7c	-0.41649234
66	0xbdbaa620	-0.09113717
67	0x3d9ab0f4	0.075532824
68	0xbd6abf80	-0.057311535
69	0xbe0aabb0	-0.13542056
70	0x3e903c1c	0.2817086
71	0xbd7bbeb0	-0.06146115
72	0x3ea8e6b0	0.329885
73	0xbe291c80	-0.16514778
74	0x3a8ce000	0.001074791
75	0xbdc1490c	-0.09437761
76	0x3d52d9a0	0.051477075
77	0x3e96f114	0.29480803
78	0x3e639a20	0.22226763
79	0xbcf73db0	-0.030180782
80	0x3d24fac0	0.040278196
81	0x3eacd92c	0.3375944
82	0xbea777b8	-0.32708526
83	0x3d91c534	0.07117692
84	0xbe6ec310	-0.23316598
85	0xbda7dda0	-0.081965685
86	0xbddf4760	-0.109022856
87	0xbd8545d4	-0.06507459
88	0xbda1e980	-0.07905865
89	0xbd3fd0c0	-0.04682994
90	0x3eca0d58	0.39463305
91	0x3cd018d0	0.025402457
92	0x3e81f4cc	0.25382078
93	0x3e9e8248	0.30958772
94	0x3e5aa408	0.21351635
95	0x3c8e9940	0.01740706
96	0x3db35d50	0.08758032
97	0xbec78a28	-0.38972592
98	0xbe18ef58	-0.14935052
99	0x3c9066f0	0.01762721
100	0x3ee1a74c	0.4407295
101	0x3e7292e8	0.23688853
102	0xbe5907a0	-0.21194315
103	0x3db0b00c	0.08627328
104	0x3ed199c0	0.40937614
105	0x3dcd3df0	0.10021579
106	0xbe7077a0	-0.23483133
107	0x3cb87790	0.02251795
108	0x3e04c780	0.12966728
109	0x3ea14314	0.3149649
110	0x3e4602e8	0.19337046
111	0xbcd56ad0	-0.026051909
112	0xbe8c5f18	-0.274163
113	0x3e567098	0.20941389
114	0xbe5e6428	-0.21717894
115	0x3d74a9c8	0.05973223
116	0xbd13a5c0	-0.036046743
117	0xbd7d6360	-0.06186235
118	0x3ebacd4c	0.36484754
119	0xbc6a1f40	-0.014289677
120	0x3db0b490	0.086281896
121	0xbe558b60	-0.20853949
122	0xbe9fb8c0	-0.3119564
123	0xbcc8d300	-0.024514675
124	0xbe064310	-0.1311152
125	0x3ea2cca4	0.31796753
126	0x3e448998	0.19193113
127	0x3cc1deb0	0.023665756
128	0xbd9155f0	-0.070964694
129	0xbe434918	-0.19070852
130	0x3e3df6c8	0.18551171
131	0xbdc7eeb0	-0.09762323
132	0xbdbf2270	-0.0933274
133	0x3e0314d0	0.12800908
134	0x3ed44ec4	0.41466343
135	0x3d846af0	0.06465709
136	0x3e44dd28	0.1922499
137	0x3e1db1e0	0.15399885
138	0x3e858918	0.26081157
139	0xbd985818	-0.074386775
140	0x3d4c7e40	0.04992509
141	0x3e7824a0	0.24232721
142	0x3ea01214	0.31263793
143	0xbb782c00	-0.0037868023
144	0xbde1fcd0	-0.11034548
145	0xbeac5f90	-0.33666658
146	0xbd9e4d80	-0.07729626
147	0xbc146d00	-0.009059191
148	0xbe4fbbb8	-0.20286453
149	0xbe7f1558	-0.24910486
150	0xbe9b40e4	-0.30322945
151	0x3da2e254	0.07953325
152	0x3ec57240	0.38563728
153	0xbc83b900	-0.016079426
154	0x3b55d600	0.0032628775
155	0xbdb17adc	-0.08666012
156	0x3e73c9a0	0.23807383
157	0x3ea56e2c	0.32310617
158	0x3e3e5bb8	0.18589675
159	0x3bff5800	0.007792473
160	0x3eb31ad8	0.34981418
161	0xbe9170e8	-0.28406453
162	0x3e7be5d0	0.24599385
163	0x3d88fba8	0.066886246
164	0xbce79c00	-0.028272629
165	0x3e9d14dc	0.30679977
166	0xbcfea440	-0.03108418
167	0xbd9aa55c	-0.07551071
168	0x3ee9f014	0.45690978
169	0xbba64a00	-0.0050747395
170	0xbdf9c490	-0.121956944
171	0x3b4ba300	0.0031072497
172	0xbe7190a8	-0.23590338
173	0x3deff550	0.117167115
174	0x3e85ab98	0.26107478
175	0x3cab0f30	0.020881265
176	0x3e898778	0.26861167
177	0xbe077d28	-0.13231337
178	0x3eb48a64	0.35261834
179	0x3cc8de20	0.02451998
180	0x3e3f0d88	0.18657506
181	0x3e8a1450	0.26968622
182	0x3e016138	0.12634742
183	0xbda639ec	-0.081165165
184	0x3e5b5020	0.21417284
185	0x3e85faa0	0.26167774
186	0xbd805770	-0.062666774
187	0xbdc4a180	-0.09601116
188	0x3ec0a6bc	0.37627208
189	0x3d3d3380	0.046191692
190	0xbd70bfa0	-0.058776498
191	0xbdb2f730	-0.087385535
192	0x3ef2efe0	0.47448635
193	0xbd6b4f60	-0.057448745
194	0xbe148588	-0.14504063
195	0x3cfdd2e0	0.030984342
196	0x3e499768	0.19686663
197	0x3ea597cc	0.32342374
198	0xbe305a70	-0.17221999
199	0xbc570520	-0.0131237805
200	0x3ca1f6c0	0.01977098
201	0x3e4fce90	0.20293641
202	0xbed52650	-0.41630793
203	0x3d877be8	0.0661543
204	0x3ac8a000	0.0015306473
205	0x3ea93840	0.33050728
206	0xbe8d232c	-0.27565897
207	0x3d146038	0.036224574
208	0x3d88ecb0	0.066857696
209	0x3e58b088	0.21161091
210	0x3ea23d1c	0.31687248
211	0xbc9afe90	-0.018920213
212	0x3cd62300	0.026139736
213	0x3e307988	0.1723386
214	0x3ee21590	0.44157076
215	0x3d9c3fe4	0.07629374
216	0x3ecbaf0c	0.39781988
217	0x3e969b5c	0.29415405
218	0x3e701538	0.23445594
219	0x3dc702d8	0.09717339
220	0x3cd4ea00	0.025990486
221	0xbefc0d64	-0.49228966
222	0xbbd0b400	-0.006369114
223	0x3dc1a068	0.09454423
224	0xbe2c61b0	-0.1683414
225	0x3ed71b54	0.42013037
226	0x3be4f200	0.0069868565
227	0x3dace9a4	0.08443001
228	0xbea2af10	-0.31774187
229	0xbbad4300	-0.005287528
230	0xbdeb3b40	-0.114859104
231	0x3be6e4c0	0.007046312
232	0xbe336328	-0.17518294
233	0x3e295210	0.1653521
234	0x3ecbdca0	0.3981676
235	0x3dc75588	0.09733111
236	0x3e85049c	0.2598008
237	0xbea8a454	-0.32937872
238	0xbe78a6b0	-0.24282336
239	0x3d4c9298	0.04994449
240	0xbe846940	-0.2586155
241	0x3dbbc430	0.09168279
242	0xbe468de0	-0.19390059
243	0xbbad8ac0	-0.0052960813
244	0x3e791a50	0.24326444
245	0xbd9d77e0	-0.0768888
246	0xbe8c8d4c	-0.2745155
247	0xbd8add50	-0.06780493
248	0xbe229f18	-0.15881002
249	0xbc062480	-0.008187413
250	0x3ed850ac	0.42249048
251	0x3da79e70	0.081845164
252	0xbeb2909c	-0.34875953
253	0xbe1bc6a0	-0.15212488
254	0x3ce33480	0.027734995
255	0x3d488710	0.04895693

neg f4 [2500, 4]
0	0xbec68a80	-0.38777542
1	0x3f008cf8	0.502151
2	0x3f659f58	0.89696264
3	0x3f39f4de	0.7263926
4	0x3f695918	0.9115157
5	0xbf518412	-0.8184215
6	0x3ed7cc64	0.42148125
7	0x3f586c44	0.845402
8	0xbf39041c	-0.72271895
9	0x3eb5b1c4	0.35487187
10	0x3f086d38	0.53291655
11	0x3f1f012c	0.62111163
12	0xbf6ef694	-0.93345
13	0x3eb2378c	0.34808004
14	0x3f324448	0.6963544
15	0x3f5f47b4	0.87218785
16	0xbdbd1360	-0.09232211
17	0xbe05bff8	-0.13061512
18	0xbdd007f0	-0.10157764
19	0xbe2a4859	-0.16629161
20	0x3cbbe0c0	0.022934318
21	0xbeadd808	-0.3395388
22	0x3f044ba8	0.5167794
23	0x3e61a1e6	0.22034416
24	0x3f5377c2	0.8260461
25	0x3e44f230	0.19233012
26	0x3f0048bc	0.50110984
27	0x3f066534	0.52498174
28	0xbf11e412	-0.5698863
29	0x3e6c8308	0.2309686
30	0x3f547054	0.829839
31	0x3f2cb7a8	0.6746774
32	0xbf1556d0	-0.5833559
33	0xbf683c6a	-0.90717185
34	0xbf788638	-0.970798
35	0x3f8a79ca	1.0818417
36	0xbf2c8c02	-0.67401135
37	0xbf20f2f4	-0.6287072
38	0x3f04df66	0.5190338
39	0x3f34a04e	0.70557106
40	0xbf51db16	-0.81974924
41	0xbed1a460	-0.4094572
42	0x3f09b758	0.53795385
43	0x3f383974	0.71962667
44	0x3ed226d8	0.4104526
45	0x3e6da9d0	0.2320931
46	0xbf7e4520	-0.99324226
47	0x3f2ca928	0.6744561
48	0xbce34b00	-0.027745724
49	0xbf009b32	-0.5023681
50	0x3e50dd80	0.20396996
51	0x3e1b0fce	0.15142748
52	0xbf2faeb6	-0.6862596
53	0x3dadcb70	0.08486068
54	0x3e665c28	0.22496092
55	0x3ecad569	0.39615944
56	0xbeee5488	-0.46548867
57	0xbf193c92	-0.5985805
58	0x3f71d06c	0.9445865
59	0x3f574f6a	0.8410555
60	0xbf168a02	-0.58804333
61	0x3e32c230	0.17456889
62	0x3c07aa00	0.008280277
63	0x3e9125cd	0.28349152
64	0xbf4f0122	-0.80861104
65	0x3f35e622	0.7105428
66	0x3db89e10	0.09014523
67	0x3f3c551a	0.73567355
68	0xbeec6724	-0.4617244
69	0x3f46d930	0.7767515
70	0x3f6856e2	0.9075757
71	0x3f68a00e	0.90869224
72	0x3f2c99d6	0.67422235
73	0xbf3199f8	-0.6937556
74	0x3f69c1dc	0.9131143
75	0x3f651ad2	0.8949405
76	0xbedab980	-0.4271965
77	0xbf41c2a2	-0.7568761
78	0x3e9b5438	0.3033769
79	0x3f0e7468	0.5564637
80	0x3f3e7418	0.74395895
81	0xbe394410	-0.1809237
82	0xbf435738	-0.7630496
83	0x3f21dad2	0.6322452
84	0xbf10a0a0	-0.56495094
85	0x3e8eb8ec	0.2787546
86	0x3edc49d8	0.43025088
87	0x3ed61e7d	0.41820136
88	0xbf71c92e	-0.944476
89	0x3ec2289c	0.37921607
90	0xbf28d660	-0.6595211
91	0x3f5ec72c	0.8702266
92	0x3f618880	0.8809891
93	0x3f5abb30	0.85441875
94	0xbf67144c	-0.90265346
95	0x3f8a92a1	1.0825998
96	0x3f29dd9c	0.66353774
97	0x3e6f3cd0	0.23363042
98	0xbf1fb22a	-0.6238123
99	0x3efb137d	0.49038306
100	0x3ea915d0	0.33024454
101	0x3f6abca8	0.91694117
102	0xbedc4b78	-0.43026328
103	0x3f2524ec	0.64509463
104	0xbe8a18e8	-0.26972127
105	0xbf659eea	-0.8969561
106	0xbed4f9d0	-0.41596842
107	0x3f2576a8	0.6463418
108	0x3f25b0fc	0.6472318
109	0xbdaaeea0	-0.08346295
110	0xbf3c052c	-0.7344539
111	0x3f09437c	0.536186
112	0xbefba628	-0.49150205
113	0x3f0f2c36	0.55926836
114	0xbf23e26e	-0.6401738
115	0x3f1eca42	0.6202737
116	0xbe8e7310	-0.2782216
117	0x3e250100	0.16113663
118	0xbf1eeafa	-0.62077296
119	0x3ea98453	0.33108768
120	0x3e193d70	0.14964843
121	0x3f164de0	0.5871258
122	0xba93a800	-0.0011265278
123	0x3e44c176	0.19214424
124	0xbf6ed088	-0.93286943
125	0xbcb70a40	-0.022343755
126	0x3f2b7e08	0.66989183
127	0x3f4efa0c	0.8085029
128	0x3db0e750	0.08637869
129	0x3f127f1e	0.57225215
130	0x3e12a8d8	0.14322221
131	0x3e429f3e	0.19006059
132	0xbe57aa90	-0.21061158
133	0xbf5a595c	-0.852926
134	0x3edd5cc4	0.43234837
135	0x3f18eb54	0.5973408
136	0xbf767e72	-0.9628669
137	0x3e4cedc8	0.20012581
138	0xbec2a568	-0.3801682
139	0x3f389eee	0.7211751
140	0x3e076210	0.13221002
141	0x3e8d7dd4	0.27635062
142	0x3ef1c058	0.4721706
143	0x3e19edae	0.15032074
144	0x3a892400	0.0010462999
145	0x3f7bc246	0.9834331
146	0x3ecb4350	0.39699793
147	0x3f29b7d2	0.6629611
148	0x3f4d4fda	0.8019997
149	0xbea39fe8	-0.31957936
150	0x3c5f7980	0.013639808
151	0x3ecaece7	0.39633867
152	0x3f64237c	0.89116645
153	0xbf789380	-0.9710007
154	0x3f1656b4	0.5872605
155	0x3f7fc6de	0.9991282
156	0xbf26915c	-0.6506555
157	0x3eee551c	0.46549308
158	0x3edb7f40	0.42870522
159	0x3f0fa5aa	0.5611216
160	0x3eb75018	0.35803294
161	0x3e798b50	0.2436955
162	0x3f1f1d44	0.6215403
163	0x3ea6eb91	0.32601598
164	0xbf4a305a	-0.7898003
165	0x3e646620	0.22304583
166	0xbec585a4	-0.38578522
167	0x3f1222ac	0.57084155
168	0x3e0bdd68	0.13658679
169	0x3e2088d0	0.1567719
170	0x3f5d37e4	0.8641341
171	0x3ef60bc1	0.48055843
172	0xbe71a138	-0.23596656
173	0xbf2df0f4	-0.6794579
174	0xbed197fc	-0.40936267
175	0x3ee70303	0.45119485
176	0xbe91d778	-0.28484702
177	0xbf3cab88	-0.73699236
178	0x3e3970c0	0.18109417
179	0x3ee0bc1b	0.43893513
180	0xbe256540	-0.16151905
181	0x3f142ba8	0.57879114
182	0xbf2eba52	-0.6825305
183	0x3f0669b6	0.5250505
184	0xbedcde1c	-0.43138206
185	0x3eee2ffc	0.46520984
186	0xbea38858	-0.3193996
187	0x3eb69e93	0.35667858
188	0xbf1c333e	-0.6101569
189	0x3df4cfa0	0.11953664
190	0x3f2700e8	0.6523576
191	0x3f0d4bf4	0.5519402
192	0x3dca6940	0.09883356
193	0xbf7dc6ee	-0.9913167
194	0x3ee3c2c0	0.4448452
195	0x3f2fd672	0.6868659
196	0x3f0f0c2a	0.55877936
197	0xbf57d144	-0.8430369
198	0x3edb8d50	0.4288125
199	0x3f29d528	0.66340876
200	0xbef77df0	-0.4833827
201	0x3e9c4074	0.30517924
202	0x3f661aa8	0.89884424
203	0x3f333c8c	0.7001426
204	0xbf28453a	-0.6573063
205	0xbf13327e	-0.5749892
206	0x3f692eac	0.9108684
207	0x3f66b81a	0.90124667
208	0x3f5d3a34	0.86416936
209	0xbed26eec	-0.41100252
210	0x3f21d014	0.6320813
211	0x3f316de4	0.69308305
212	0x3e6e6258	0.23279703
213	0xbef76de4	-0.48326027
214	0xbe9db248	-0.3080008
215	0x3e47ae96	0.19500193
216	0xbdd39b50	-0.10332358
217	0x3f04361a	0.5164505
218	0xbeda1ed8	-0.42601657
219	0x3e95a153	0.29224643
220	0x3e9695e4	0.29411232
221	0xbf5626c8	-0.83652925
222	0x3e183238	0.14862907
223	0x3ef4bc59	0.47799948
224	0xbf5cf0e6	-0.8630508
225	0x3f14ade8	0.5807786
226	0x3f1ba364	0.6079619
227	0x3f5ba6e2	0.8580152
228	0xbf2a57bc	-0.6654012
229	0x3e7609b0	0.24027133
230	0x3ee21480	0.44156265
231	0x3efc7149	0.4930518
232	0xbe823e24	-0.25438035
233	0xbf2605a4	-0.64852357
234	0xbe8245a0	-0.25443745
235	0x3ebd3f51	0.3696237
236	0x3f7bdaa0	0.9838047
237	0xbf0d653a	-0.55232584
238	0xbf4a1586	-0.7893909
239	0x3f6d0e0a	0.92599547
240	0x3ebf5198	0.3736694
241	0x3f7cab24	0.9869864
242	0xbf12745c	-0.572088
243	0x3f47a2c6	0.7798275
244	0xbea0d0ec	-0.31409395
245	0x3e1e5d00	0.15465164
246	0xbf29d1c4	-0.663357
247	0x3ec44287	0.38332006
248	0x3f21a92e	0.6314877
249	0xbf2b0d8a	-0.66817534
250	0x3e8036f0	0.25041914
251	0x3f019cee	0.5063008
252	0x3f507f14	0.81443906
253	0x3d268c40	0.040661097
254	0xbf611f90	-0.87938786
255	0x3f404a6a	0.75113547
