experiments/SlidingSphere/ModelParameters/42.pth (torch, 340709 bytes, 19 tensors)

lin0.bias f4 [128]
0	0xbef5bcf8	-0.47995734
1	0xbe8997e3	-0.26873693
2	0x3ef7a51c	0.48368156
3	0x3efc46df	0.4927282
4	0x3db83cea	0.089959934
5	0xbe184101	-0.14868547
6	0xbedd5047	-0.4322531
7	0x3ecf2dab	0.4046453
8	0x3eb2bf6d	0.3491167
9	0xbed7aa76	-0.4212224
10	0xbeee74b0	-0.465734
11	0x3edb6b20	0.42855167
12	0xbe70ca26	-0.23514614
13	0xbeee1ea8	-0.46507764
14	0x3e7b0c72	0.24516466
15	0xbea003d2	-0.31252915
16	0xbe81a36e	-0.2532
17	0xbef3b34b	-0.47597727
18	0x3eb0ab2e	0.345056
19	0xbe1a9913	-0.15097456
20	0xbe3185ac	-0.17336148
21	0x3ea85b54	0.32882178
22	0xbe962754	-0.2932688
23	0xbe690dc7	-0.22759162
24	0x3eaa0856	0.33209485
25	0x3cb49b56	0.022046726
26	0xbeed7683	-0.4637948
27	0x3e9c80e0	0.30567074
28	0x3ea3bc5f	0.31979653
29	0x3d96e3ab	0.07367643
30	0xbdcc994a	-0.09990175
31	0xbdb14c5a	-0.08657141
32	0x3e49118d	0.19635601
33	0x3ee08325	0.43850055
34	0xbed5f441	-0.41787913
35	0xbe2fffcf	-0.17187427
36	0x3ee0e01d	0.43920985
37	0xbec91d91	-0.3928037
38	0xbe6778d9	-0.22604693
39	0x3e40f70d	0.18844242
40	0xbbf434ad	-0.0074525685
41	0x3ee40b66	0.44539946
42	0xbebfd138	-0.3746431
43	0x3eb61b92	0.3556791
44	0x3e0cd73e	0.13753983
45	0x3e97f5ad	0.29679623
46	0x3eb38eda	0.35069925
47	0x3eb6b574	0.35685313
48	0x39941112	0.00028241478
49	0x3e45e9dd	0.19327493
50	0xbe98c371	-0.2983661
51	0xbe31f6bc	-0.17379278
52	0xbebca154	-0.36841834
53	0xbef806bc	-0.48442638
54	0x3bc20278	0.0059207045
55	0xbded17a5	-0.115767755
56	0xbedb1533	-0.4278961
57	0x3e8a5f3c	0.27025783
58	0xbe5312c3	-0.20612626
59	0x3db1243d	0.0864949
60	0x3da415c3	0.08011963
61	0xbd11ae4e	-0.03556662
62	0xbd50ae75	-0.050947625
63	0x3d030579	0.03198764
64	0x3e282d22	0.16423467
65	0x3e9c1ff3	0.30493125
66	0xbdb65463	-0.08902814
67	0xbe3563bc	-0.17713827
68	0xbe843157	-0.25818893
69	0xbccd86cd	-0.025088692
70	0x3ef7a8f0	0.48371077
71	0xbe9cce05	-0.3062593
72	0x3ed5da4e	0.41768116
73	0x3eef1286	0.4669382
74	0x3ec15547	0.37760374
75	0x3dc8c351	0.09802879
76	0x3efa55c4	0.4889356
77	0xbea7cd09	-0.32773617
78	0x3eadabf8	0.33920264
79	0x3ea796ce	0.32732242
80	0x3e89c931	0.2691131
81	0xbf023dc6	-0.5087551
82	0xbef755c8	-0.48307633
83	0x3ddb2bab	0.107016884
84	0x3ebe8168	0.37208104
85	0xbe666ff1	-0.2250364
86	0xbe64d81f	-0.22348069
87	0xbd8bd6a5	-0.068280496
88	0x3e5d743c	0.21626371
89	0x3e994b6c	0.29940355
90	0xbefc6399	-0.49294737
91	0x3eb56d8a	0.35435134
92	0xbd7c168e	-0.061544947
93	0xbe9ce25b	-0.30641446
94	0x3e85b539	0.26114824
95	0xbe9ee55c	-0.31034362
96	0xbe1a89c2	-0.15091613
97	0x3e081549	0.1328937
98	0xbd2f082c	-0.042732403
99	0xbd974128	-0.073854744
100	0xbe006ca0	-0.12541437
101	0xbe9351e8	-0.28773427
102	0xbe6d0ce7	-0.23149453
103	0xbc98f7ed	-0.018672908
104	0x3e84baf4	0.25923884
105	0xbe19e544	-0.15028864
106	0xbcc65c90	-0.02421406
107	0xbeda9930	-0.42694998
108	0x3e4baa80	0.1988926
109	0x3e14ecaf	0.14543413
110	0xbef8d928	-0.48603177
111	0xbea70f41	-0.32628825
112	0xbcb1014b	-0.021607062
113	0xbe7c652a	-0.24647966
114	0x3d908b4b	0.07057818
115	0xbdbc183d	-0.091843106
116	0xbdc8ed43	-0.09810879
117	0xbeae4318	-0.34035563
118	0xbd513d2c	-0.05108373
119	0x3e971717	0.29509804
120	0x3ea8cd5a	0.3296917
121	0xbee6ebca	-0.45101768
122	0xbe2fe921	-0.17178775
123	0xbe27b3c7	-0.16377173
124	0x3ca39c96	0.019972127
125	0xbed31c4d	-0.4123253
126	0x3eaa013d	0.3320407
127	0x3ca04d36	0.019568067

lin0.parametrizations.weight.original0 f4 [128, 1]
0	0x3f1406dc	0.57822967
1	0x3eb8a663	0.36064443
2	0x3f112636	0.5669893
3	0x3ede2ce8	0.43393636
4	0x3f1a49d2	0.6026889
5	0x3f4a8bdf	0.79119676
6	0x3f015834	0.5052521
7	0x3f367bd2	0.71282685
8	0x3f383b86	0.71965826
9	0x3f3adef1	0.7299643
10	0x3f2f94cc	0.6858642
11	0x3f3e38ed	0.7430561
12	0x3f05a393	0.5220272
13	0x3f335048	0.70044374
14	0x3efe8289	0.49708965
15	0x3ee58d86	0.44834536
16	0x3f295b3b	0.6615483
17	0x3f18f6ac	0.5975139
18	0x3f13da16	0.5775465
19	0x3f1783ff	0.59185785
20	0x3f279c2f	0.6547269
21	0x3e805473	0.2506443
22	0x3eef5a11	0.46748403
23	0x3f0f0a59	0.55875164
24	0x3ec5a3dd	0.3860158
25	0x3f2b07a5	0.6680854
26	0x3f025a56	0.5091909
27	0x3f22e96a	0.6363741
28	0x3ec70529	0.38871124
29	0x3f1a001c	0.60156417
30	0x3f3d2810	0.73889256
31	0x3eccb9bd	0.39985457
32	0x3eb82bab	0.35970816
33	0x3eadd886	0.33954257
34	0x3f10740f	0.5642709
35	0x3f25d3f6	0.6477655
36	0x3f1fb497	0.62384933
37	0x3ea2f650	0.31828547
38	0x3f0f7e2a	0.56051886
39	0x3f3b559c	0.73177505
40	0x3ef92e7c	0.48668277
41	0x3f21b7a3	0.6317083
42	0x3eec6c23	0.46176252
43	0x3f039ba8	0.5140939
44	0x3f6502a2	0.8945714
45	0x3f00f399	0.503717
46	0x3eb34abc	0.35017955
47	0x3f615bff	0.88031
48	0x3eadced8	0.33946872
49	0x3f0bfd66	0.5468353
50	0x3f3e797d	0.74404126
51	0x3ee3a6d0	0.44463205
52	0x3f11cd11	0.5695353
53	0x3f36898c	0.7130363
54	0x3f31c9c0	0.6944847
55	0x3f34c07f	0.70606226
56	0x3efab7e2	0.48968416
57	0x3f26d58a	0.65169585
58	0x3f13738c	0.57598186
59	0x3e89dcc8	0.26926255
60	0x3f086830	0.5328398
61	0x3f16c1fd	0.5888975
62	0x3f35b343	0.70976657
63	0x3f1c2d40	0.61006546
64	0x3eb4e0c5	0.35327736
65	0x3ee3b249	0.44471958
66	0x3f48f903	0.7850496
67	0x3f1928ae	0.598277
68	0x3f254900	0.64564514
69	0x3f13847f	0.5762405
70	0x3eed1291	0.46303228
71	0x3f088c03	0.5333864
72	0x3f1acf48	0.60472536
73	0x3f0751a9	0.5285898
74	0x3f10d956	0.5658163
75	0x3f0cbf86	0.5497974
76	0x3f3e7592	0.7439815
77	0x3f2144b5	0.62995464
78	0x3f323b06	0.6962131
79	0x3f46b006	0.7761234
80	0x3f028f6d	0.510001
81	0x3eb89d57	0.3605754
82	0x3f2aec0d	0.66766435
83	0x3f418153	0.7558796
84	0x3f0f7cd4	0.5604985
85	0x3f1faafd	0.6237028
86	0x3f0013d6	0.5003027
87	0x3f0f7599	0.56038815
88	0x3f02bc13	0.5106823
89	0x3f2c378a	0.67272246
90	0x3f293e53	0.66110724
91	0x3f22c087	0.63575023
92	0x3f2ee5c9	0.68319374
93	0x3e9c5783	0.30535516
94	0x3ebe6150	0.3718362
95	0x3eea2244	0.45729268
96	0x3ecebdb2	0.403791
97	0x3efed74f	0.49773642
98	0x3f35af7e	0.70970905
99	0x3e93ebf3	0.28890952
100	0x3f1680ec	0.5879047
101	0x3f3fc7ab	0.74914044
102	0x3ee790db	0.45227703
103	0x3f2b5720	0.6692982
104	0x3f5d501f	0.8645038
105	0x3ecc6bae	0.39925903
106	0x3eb7aa42	0.35872084
107	0x3f402d30	0.7506895
108	0x3f14e65a	0.5816399
109	0x3f2fb663	0.68637675
110	0x3f1e9474	0.6194527
111	0x3f23f851	0.64050776
112	0x3f12b347	0.57304806
113	0x3f0aa3a7	0.54155964
114	0x3f0bfbcd	0.5468109
115	0x3f17856c	0.5918796
116	0x3f085aee	0.5326375
117	0x3f00c23c	0.5029638
118	0x3f2b5848	0.6693158
119	0x3f1be03a	0.6088902
120	0x3f00d5d0	0.5032625
121	0x3eafc575	0.34330335
122	0x3f140a4b	0.57828206
123	0x3f216fa5	0.6306098
124	0x3f146c52	0.57977784
125	0x3f190d3b	0.59785813
126	0x3f1c388f	0.610238
127	0x3f19d9a2	0.60097706

lin0.parametrizations.weight.original1 f4 [128, 4]
0	0xbcac0381	-0.020997765
1	0xbebcbba1	-0.368619
2	0x3ed453fc	0.41470325
3	0x3dedb61e	0.11607002
4	0xbe1bff61	-0.15234138
5	0x3e86498f	0.26227996
6	0xbcec4da1	-0.02884561
7	0xbe62df31	-0.22155453
8	0x3d871961	0.065966375
9	0xbeb6df8a	-0.35717422
10	0x3d4f8e34	0.050672725
11	0x3ed41588	0.41422677
12	0xbeb6e7dc	-0.3572377
13	0x3d6bf676	0.05760809
14	0x3de3e4ed	0.111276485
15	0x3e4a296a	0.1974236
16	0x3df0a0f8	0.11749452
17	0xbea49faa	-0.32153064
18	0xbeed1eea	-0.46312648
19	0x3e1ce219	0.15320624
20	0xbee6b52d	-0.450601
21	0xbe92e23b	-0.28688225
22	0x3eaf4fda	0.3424061
23	0xbee75c55	-0.4518763
24	0xbe2758b8	-0.16342437
25	0x3e02dbdd	0.12779184
26	0xbde0a67f	-0.109692566
27	0xbedc6f8c	-0.43053854
28	0xbeecb4b2	-0.4623161
29	0xbe4c3a2d	-0.19944067
30	0xbd19b305	-0.037524242
31	0xbef9caa7	-0.48787424
32	0x3ea78fca	0.3272689
33	0x3ebf5653	0.37370548
34	0x3e60f6f2	0.21969202
35	0x3ee50363	0.44729146
36	0x3ea56c0c	0.32308996
37	0xbeaad149	-0.33362797
38	0x3efc82f4	0.4931866
39	0x3e72104a	0.23639026
40	0x3d6ecd61	0.058301333
41	0x3eadf537	0.33976147
42	0x3eeb18cd	0.4591736
43	0x3eab8813	0.33502254
44	0xbe8ba85e	-0.2727689
45	0xbe9e09db	-0.30866894
46	0xbee2e9c9	-0.4431899
47	0x3ee32502	0.44364172
48	0x3c4303d9	0.011902773
49	0x3e21a48e	0.15785429
50	0x3eccf090	0.40027285
51	0x3e95da17	0.29267952
52	0xbe244ade	-0.16044185
53	0xbec367ab	-0.3816503
54	0xbe8577ab	-0.26067862
55	0x3ef33b4b	0.47506174
56	0xbe26fd13	-0.16307478
57	0x3edfc0d6	0.4370181
58	0x3e0c699c	0.13712162
59	0x3d8ebdf6	0.06969826
60	0x3dad2aed	0.08455453
61	0x3e495ea7	0.19665013
62	0xbea8ae53	-0.329455
63	0x3e40be5a	0.18822613
64	0xbefdbf74	-0.4956013
65	0xbea23704	-0.316826
66	0xbe748ec2	-0.23882583
67	0xbe3921e0	-0.18079329
68	0xbdcd7d83	-0.10033705
69	0xbef1a2b3	-0.47194442
70	0x3e81e932	0.25373226
71	0xbe88c20b	-0.26710543
72	0x3d63b2d0	0.05559045
73	0xbeb8b43b	-0.36075005
74	0xbe623e75	-0.22094138
75	0xbebb98ac	-0.36639917
76	0x3e317715	0.17330582
77	0xbeab158c	-0.33414876
78	0xbed4ae7b	-0.41539368
79	0x3e2fef35	0.17181094
80	0x3ea95d3d	0.33078948
81	0xbea82680	-0.32841873
82	0xbea4c6c7	-0.32182905
83	0x3e96236c	0.293239
84	0xbd4c98ef	-0.049950536
85	0x3e1b2665	0.15151365
86	0xbe53b983	-0.20676236
87	0x3cbd0715	0.023074666
88	0x3dfdd83a	0.123947576
89	0x3e86469d	0.2622575
90	0xbdd5cd03	-0.104394935
91	0xbebabec4	-0.36473668
92	0x3e9ad44d	0.30240098
93	0x3ee36a21	0.44416907
94	0xbdfb14bb	-0.122598134
95	0x3d5835ae	0.052785568
96	0x3eb1186b	0.34588942
97	0xbd6328e4	-0.05545892
98	0xbd9c58cb	-0.076341234
99	0x3e1544fb	0.14577095
100	0xbea9f525	-0.33194843
101	0x3e0b8e40	0.13628483
102	0xbe97ac96	-0.2962386
103	0xbef8c767	-0.48589632
104	0xbebd7ad7	-0.37007782
105	0xbe6d895d	-0.23196931
106	0xbe008b6a	-0.12553182
107	0xbe580b18	-0.21097982
108	0xbeb305b2	-0.34965283
109	0x3e128802	0.14309695
110	0x3eff6ccf	0.49887702
111	0x3d7a31bc	0.061082587
112	0xbe842018	-0.25805736
113	0xbe62be63	-0.2214294
114	0x3e41eecd	0.18938752
115	0xbdbb2bc9	-0.09139211
116	0xbedd41e7	-0.43214342
117	0xbec9b11f	-0.39392945
118	0xbcf61853	-0.030040896
119	0xbdb31a5c	-0.08745262
120	0xbd8fe24a	-0.07025583
121	0xbeeef263	-0.466693
122	0x3ecea900	0.40363312
123	0xbecb23d3	-0.3967577
124	0xbe883949	-0.26606205
125	0x3d963d0d	0.07335863
126	0xbd31a015	-0.043365557
127	0xbe893516	-0.26798314
128	0x3e328aff	0.17435835
129	0x3e4f3200	0.20233917
130	0x3e6e03ab	0.23243587
131	0xbd2e1853	-0.042503666
132	0x3e85b39b	0.2611359
133	0x3d7818cc	0.060570523
134	0x3e1e0108	0.15430081
135	0x3ddb8bca	0.10720022
136	0xbec9069d	-0.39262858
137	0xbe7093b8	-0.2349385
138	0xbe385393	-0.18000631
139	0xbe8b2cdb	-0.2718266
140	0x3ee8f393	0.45498332
141	0xbe91639b	-0.28396305
142	0x3e81bcce	0.2533936
143	0xbe6c5bad	-0.23081847
144	0xbe2945ff	-0.16530608
145	0x3e62a4b8	0.22133148
146	0xbed8499a	-0.42243654
147	0x3eb995d8	0.36247134
148	0xbdb6d916	-0.089281246
149	0x3c984935	0.018589595
150	0xbe6eb2eb	-0.2331044
151	0x3e42070a	0.18947998
152	0xbe8f9489	-0.2804301
153	0xbeeadfb0	-0.45873785
154	0xbd8c6263	-0.06854703
155	0x3db04273	0.08606424
156	0x3ee9d33f	0.4566898
157	0xbee91359	-0.45522574
158	0x3e54614c	0.20740241
159	0xbe83805d	-0.2568387
160	0x3dd2f4dc	0.103006095
161	0xbee3efa8	-0.4451878
162	0x3e2933ce	0.16523668
163	0x3dcb276c	0.099196285
164	0xbd8e0ee4	-0.06936434
165	0x3e83c61e	0.2573709
166	0xbef2364a	-0.47307044
167	0x3e9eccf7	0.3101575
168	0x3e9e5fd8	0.30932498
169	0x3e4bbffc	0.19897455
170	0x3df0efd3	0.11764493
171	0xbe805754	-0.25066626
172	0xbd3a9a45	-0.04555728
173	0xbe7bd189	-0.2459165
174	0xbe1471cb	-0.14496534
175	0x3ed3786e	0.41302818
176	0x3ede5e2c	0.43431222
177	0xbed4b54e	-0.41544574
178	0x3ef39830	0.47577047
179	0xbed80a06	-0.42195147
180	0xbe297e31	-0.16552044
181	0x3ed2009a	0.41016084
182	0x3e0a23c5	0.13490207
183	0xbe231ba0	-0.15928507
184	0xbe3074f7	-0.17232119
185	0x3dce81c6	0.10083346
186	0x3d005755	0.031333286
187	0xbe8a0487	-0.2695658
188	0x3ef8a619	0.48564222
189	0xbef1ce95	-0.47227922
190	0x3e83a08a	0.2570842
191	0x3f01be9a	0.5068146
192	0x3dfe9d8d	0.12432394
193	0xbcbfdb99	-0.023420142
194	0x3e6f09c8	0.23343575
195	0x3e43df0f	0.19128059
196	0x3e20484e	0.15652582
197	0x3ed30e5b	0.4122189
198	0xbe9c9b83	-0.30587396
199	0x3d91f7e5	0.0712736
200	0x3ee2f8b9	0.44330385
201	0x3ba6681d	0.0050783292
202	0xbebe68c5	-0.37189308
203	0xbee1f5e1	-0.44132903
204	0xbea9f393	-0.33193645
205	0x3e2bdf3a	0.16784373
206	0xbdc9ec5e	-0.098595366
207	0x3e75e582	0.24013332
208	0x3ea26eb0	0.31725073
209	0x3e82628d	0.25465813
210	0x3e47d903	0.19516377
211	0x3eb1a471	0.3469577
212	0xbeea3e69	-0.4575074
213	0xbe82acf3	-0.25522575
214	0x3dcb42e5	0.099248685
215	0x3ee731d8	0.45155215
216	0xbe009fe3	-0.12560992
217	0xbe143306	-0.14472589
218	0xbeedc9f6	-0.46443146
219	0x3eef305f	0.46716592
220	0x3e99dc12	0.30050713
221	0xbef27ced	-0.47360936
222	0xbdd2b0b6	-0.10287611
223	0xbec78466	-0.389682
224	0xbe871ba1	-0.26388267
225	0x3e461a8a	0.19346061
226	0xbd4c9b6e	-0.049952917
227	0xbec5fba9	-0.38668564
228	0xbe3ac072	-0.18237475
229	0x3eb55b31	0.35421136
230	0x3e1075ce	0.14107439
231	0x3ef38cdc	0.47568405
232	0xbe39ef04	-0.18157583
233	0x3e8e2b8e	0.27767605
234	0xbd42139a	-0.047381975
235	0x3ee6a346	0.45046443
236	0xbcbeacb5	-0.023275713
237	0x3ddeae49	0.10873086
238	0xbe34c766	-0.1765419
239	0xbe1e50ed	-0.15460558
240	0xbe1d082d	-0.1533515
241	0xbe9f1b4f	-0.31075522
242	0xbeb4eb97	-0.3533599
243	0xbe5435de	-0.20723674
244	0x3c2afd35	0.010436346
245	0xbeb32de0	-0.34995937
246	0x3e9bb5a7	0.30412027
247	0xbeb4994c	-0.35273206
248	0xbe6da0e7	-0.2320591
249	0xbeb84039	-0.35986498
250	0xbe90d131	-0.282846
251	0xbef8cdcc	-0.4859451
252	0xbe9f7619	-0.3114479
253	0x3d348df1	0.04408068
254	0xbf01cd1e	-0.5070361
255	0xbde9b9a8	-0.11412364

lin1.bias f4 [124]
0	0xbd2c23e4	-0.042026415
1	0xbc8e2c24	-0.017355032
2	0xbd524345	-0.051333684
3	0xbd84a7c9	-0.06477315
4	0x3c7f841d	0.015595463
5	0xbd385998	-0.04500732
6	0xbd5acccc	-0.053417966
7	0x3da2b128	0.07943946
8	0xbd0147fd	-0.031562794
9	0x3db66dba	0.089076474
10	0x3d0168b2	0.031593986
11	0x3da1edbf	0.079066746
12	0xbd9819a3	-0.07426765
13	0x3d0c3641	0.034231428
14	0x3cc046bb	0.023471227
15	0xbca48df6	-0.020087224
16	0x3d68d0d5	0.056839783
17	0xbd9da521	-0.076975115
18	0x3d90b37d	0.07065485
19	0xbd5428ef	-0.05179685
20	0x3db90653	0.090344094
21	0xbca969a1	-0.02068025
22	0xbd3a38b6	-0.04546424
23	0x3d43566f	0.04768985
24	0x3d1f87e7	0.038947966
25	0x3d4f6747	0.050635602
26	0xbd793964	-0.060845748
27	0xbd02a261	-0.031893138
28	0xbd728bb9	-0.05921528
29	0x3bf97c17	0.0076136696
30	0xbd441a72	-0.047876783
31	0x3cb806c0	0.022464156
32	0xbd578bb2	-0.05262346
33	0xbd3aca43	-0.045603048
34	0xbb06d344	-0.0020572701
35	0x3d980862	0.07423474
36	0xbb49525b	-0.0030719254
37	0xbca353c7	-0.01993741
38	0xbc968afd	-0.018376822
39	0xbaf2ebb9	-0.0018533386
40	0xbbf61bcd	-0.0075106383
41	0xbd27e48f	-0.040989455
42	0xbc7ecc0a	-0.015551576
43	0x3da805a9	0.082042046
44	0xbb2b344f	-0.0026123708
45	0xbcfdfe98	-0.031005189
46	0xbc9e10dd	-0.01929515
47	0xbdc3a8af	-0.09553658
48	0xbd396d21	-0.04527009
49	0xbd3e81c3	-0.04651047
50	0x3da40b63	0.08009984
51	0xbcb7f471	-0.022455426
52	0x3d2b7c3f	0.041866537
53	0x3bf8e96e	0.0075961864
54	0x3d81dda8	0.06341106
55	0xbd1493ac	-0.036273643
56	0x3bfc6615	0.007702599
57	0x3d658011	0.056030337
58	0x3d7cdb84	0.061732784
59	0xbd91e3c5	-0.07123522
60	0x3d87cd20	0.06630921
61	0x3dca460b	0.09876641
62	0x3c6b99c1	0.0143799195
63	0x3d28806f	0.04113811
64	0x3d6261a9	0.055268917
65	0x3d3818ad	0.044945408
66	0xbd412b60	-0.047160506
67	0x3cafbed9	0.021453308
68	0x3d8b97dc	0.06816074
69	0xbd1cd87f	-0.038292404
70	0x3d49d3a3	0.049274098
71	0xbd5f3f1f	-0.054503556
72	0xbb3c0e0f	-0.0028694903
73	0xbd700a83	-0.058603775
74	0xbbc3d004	-0.005975725
75	0xbd651148	-0.055924684
76	0x3c334624	0.010942016
77	0xbc2623a0	-0.01014033
78	0x3d840c1c	0.06447622
79	0x3cbdd800	0.023174286
80	0xbd3ccefa	-0.046095826
81	0x3d6ead84	0.058270946
82	0xbd773e87	-0.060362365
83	0xbd9fbd54	-0.07799783
84	0x3d0298f4	0.03188415
85	0xbd8d625c	-0.06903526
86	0xbbe97c72	-0.0071254307
87	0xbd1cff22	-0.03832925
88	0xbd4805d9	-0.0488337
89	0x3ca7fc49	0.020506041
90	0xbd3aa083	-0.045563232
91	0xbd19dd7f	-0.03756475
92	0xbd09272b	-0.03348462
93	0xbc24e95a	-0.010065401
94	0x3cf144e2	0.029451791
95	0xbd608ee6	-0.05482378
96	0x3d56321b	0.052293878
97	0xbbc9e6d9	-0.0061615524
98	0xbdabe7ad	-0.08393798
99	0xbd619083	-0.055069458
100	0x3d072822	0.032997258
101	0xbd38843e	-0.04504799
102	0x3d99c42e	0.075081214
103	0x3d8afedb	0.06786891
104	0xbc8d8348	-0.017274514
105	0xbb7aef88	-0.0038289744
106	0x3cc3de9a	0.023909856
107	0x3bc53147	0.006017837
108	0x3c67e53b	0.014153774
109	0x3c6c78e6	0.014433121
110	0xbc99aa4c	-0.018757962
111	0xbc8a2472	-0.016863082
112	0xbd8f8936	-0.07008593
113	0x3d0fd11c	0.03511153
114	0x3d0fb48a	0.035084285
115	0x3da72cae	0.08162819
116	0x3c5fcece	0.013660146
117	0x3b98ccb3	0.004663074
118	0x3ccb55c4	0.02482117
119	0x3d8698f3	0.065721415
120	0x3d4d296c	0.05008833
121	0x3da6993b	0.08134695
122	0x3ab03390	0.0013443101
123	0x3d6f50e7	0.058426764

lin1.parametrizations.weight.original0 f4 [124, 1]
0	0x3f0f9e28	0.561007
1	0x3f0da576	0.553306
2	0x3f0fe099	0.56202084
3	0x3f0f87fb	0.56066865
4	0x3f100032	0.562503
5	0x3f1cd783	0.61266345
6	0x3f10f90f	0.56630033
7	0x3f173688	0.59067583
8	0x3f0d9fa5	0.55321723
9	0x3f13802f	0.5761747
10	0x3f200e21	0.6252156
11	0x3f087855	0.5330861
12	0x3f1ff9a4	0.62490296
13	0x3f0fbeda	0.5615059
14	0x3f099710	0.5374613
15	0x3f207c60	0.6268978
16	0x3f0c982a	0.54919684
17	0x3f1fe733	0.62462157
18	0x3f106c78	0.5641551
19	0x3f1c0c67	0.60956424
20	0x3f1d28e2	0.6139051
21	0x3f09a44e	0.53766334
22	0x3f12430a	0.57133543
23	0x3f152b15	0.5826886
24	0x3f188ed7	0.59592956
25	0x3f0e6587	0.5562367
26	0x3f093648	0.5359845
27	0x3f0aebb2	0.5426589
28	0x3f13e724	0.5777457
29	0x3f0ade73	0.5424568
30	0x3f15b827	0.5848412
31	0x3f10dfab	0.5659129
32	0x3f1a2163	0.60207194
33	0x3f164845	0.58704025
34	0x3f0a56d0	0.54038715
35	0x3f16135a	0.5862328
36	0x3f18e162	0.59718907
37	0x3f20c24e	0.62796485
38	0x3f20049c	0.62507033
39	0x3f1b1512	0.60579026
40	0x3f12102d	0.5705593
41	0x3f157605	0.5838321
42	0x3f1a876e	0.603629
43	0x3f196f6a	0.5993563
44	0x3f1e1b02	0.6175996
45	0x3f18a0b4	0.59620214
46	0x3f0ad3f7	0.5422968
47	0x3f1d43e9	0.6143175
48	0x3f185886	0.59510076
49	0x3f1020d2	0.5630008
50	0x3f1ad2b1	0.6047774
51	0x3f176c3a	0.59149516
52	0x3f1eb737	0.61998314
53	0x3f132c1a	0.5748917
54	0x3f173b09	0.59074455
55	0x3f139120	0.5764332
56	0x3f138508	0.57624865
57	0x3f12e54d	0.57381135
58	0x3f199ad4	0.60001874
59	0x3f09b394	0.5378964
60	0x3f1c1879	0.6097484
61	0x3f1a47b1	0.6026564
62	0x3f12462d	0.5713833
63	0x3f14cdca	0.5812651
64	0x3f15292c	0.5826595
65	0x3f1784c6	0.5918697
66	0x3f09c88e	0.5382165
67	0x3f0eafe5	0.55737144
68	0x3f18f983	0.59755725
69	0x3f17639c	0.59136367
70	0x3f1689ab	0.58803815
71	0x3f0e5d6c	0.556113
72	0x3f141a5b	0.57852715
73	0x3f1bbe1b	0.6083695
74	0x3f1c481d	0.61047536
75	0x3f16bfec	0.588866
76	0x3f0e9b64	0.5570586
77	0x3f18c071	0.5966864
78	0x3f17fbdc	0.5936868
79	0x3f18ee59	0.5973869
80	0x3f12a1c5	0.5727809
81	0x3f148ebb	0.5803029
82	0x3f131eeb	0.5746905
83	0x3f1188f0	0.56849575
84	0x3f13e150	0.57765675
85	0x3f19154c	0.5979812
86	0x3f064264	0.52445054
87	0x3f1381dc	0.57620025
88	0x3f10be12	0.56540024
89	0x3f18680c	0.5953376
90	0x3f12e397	0.57378525
91	0x3f18b03f	0.5964393
92	0x3f17268d	0.590432
93	0x3f146b8c	0.57976604
94	0x3f11c9b0	0.56948376
95	0x3f046f48	0.517323
96	0x3f1ac87f	0.6046218
97	0x3f11d987	0.56972545
98	0x3f0ec16b	0.5576388
99	0x3f1219d2	0.5707065
100	0x3f0e4e74	0.5558846
101	0x3f0b9fa4	0.5454047
102	0x3f127550	0.57210255
103	0x3f1d00b4	0.613292
104	0x3f11a705	0.56895477
105	0x3f18728e	0.59549797
106	0x3f1a2052	0.60205567
107	0x3f1e755f	0.61897844
108	0x3f149411	0.5803843
109	0x3f14f3ff	0.5818481
110	0x3f153878	0.5828929
111	0x3f100aab	0.5626628
112	0x3f12080c	0.5704353
113	0x3f1958ba	0.5990101
114	0x3f0913da	0.53545916
115	0x3f139308	0.57646227
116	0x3f1179d1	0.568265
117	0x3f20f0bf	0.6286735
118	0x3f05927e	0.52176654
119	0x3f13dd84	0.5775988
120	0x3f0ce2e1	0.5503369
121	0x3f19b966	0.6004852
122	0x3f16a114	0.58839536
123	0x3f104bd8	0.5636573

lin1.parametrizations.weight.original1 f4 [124, 128]
0	0xbc66116f	-0.014042242
1	0xbd6b46bf	-0.057440516
2	0xbc831d1f	-0.016005097
3	0xbcbea73f	-0.023273109
4	0xbda3f289	-0.08005244
5	0x3d8ae90b	0.06782731
6	0xbdc0d2f4	-0.09415236
7	0x3cb5c206	0.022187244
8	0x3c624e50	0.0138126165
9	0xbd3f44dd	-0.046696533
10	0x3baad12c	0.0052129235
11	0xbc2e22f9	-0.010628455
12	0x3d505316	0.050860487
13	0xbce3909f	-0.027778922
14	0xbd09043e	-0.03345131
15	0x3da692c7	0.08133464
16	0xbd1f9714	-0.03896244
17	0x3b4580fc	0.0030136695
18	0xbdc33585	-0.095316924
19	0x3d39ea72	0.0453896
20	0x3c842df1	0.016135188
21	0xbd4dc690	-0.050238192
22	0x3cca27e0	0.024677217
23	0x3c0b0cc7	0.008486933
24	0x3d9f2827	0.0777133
25	0x3aff9ef1	0.0019502324
26	0x3d6fd3b0	0.05855149
27	0x3d618b53	0.05506451
28	0xbd298cf6	-0.041394196
29	0xbd80a9a0	-0.062823534
30	0x3cf0763c	0.029353254
31	0x3d95df9d	0.073180415
32	0xbc8e6093	-0.017380035
33	0xbc355423	-0.011067423
34	0x3dc2223d	0.09479187
35	0xbd979168	-0.07400781
36	0xbdba7847	-0.09104972
37	0xbd83f3c9	-0.06442983
38	0xbda3dff5	-0.08001701
39	0xbcca8ab9	-0.024724351
40	0x3c37531f	0.011189251
41	0xbce2ffc1	-0.027709844
42	0x3d9905e5	0.074718274
43	0xbd8577a5	-0.06516961
44	0xbd9723f3	-0.07379904
45	0x3d6da7cc	0.05802135
46	0xbda9d0e8	-0.08291799
47	0xbcb9146b	-0.022592744
48	0x3c25915d	0.010105458
49	0xbd7588c3	-0.05994488
50	0xbd92542a	-0.07144959
51	0x3c2ffef4	0.010741938
52	0xbdab423a	-0.08362241
53	0x3d7d141c	0.061786756
54	0x3c478ae1	0.012179107
55	0x3c11e41e	0.008904485
56	0xbdc4bc2c	-0.096062034
57	0xbc1d545d	-0.009602633
58	0xbc75facb	-0.015013407
59	0xbdab1a37	-0.083546095
60	0x3c3fc0e8	0.011703707
61	0x3d350af6	0.044199906
62	0xbd507a6d	-0.050898004
63	0x3d8b18b6	0.067918226
64	0x3d32c7a0	0.04364741
65	0x3c66adb7	0.014079503
66	0xbdc880cd	-0.09790192
67	0xbdb28d93	-0.087184094
68	0x3d95f992	0.073229924
69	0x3d96ec1d	0.07369254
70	0xbdbd876d	-0.09254346
71	0xbc3e019a	-0.0115970615
72	0xbd847827	-0.0646823
73	0xbb9c6ff4	-0.004774088
74	0x3d675ae5	0.05648317
75	0x3d78237f	0.060580727
76	0x3cf7ff8d	0.030273223
77	0x3d37c3a2	0.044864304
78	0xbce779c4	-0.028256305
79	0xbd8b9a85	-0.06816582
80	0x3d279392	0.04091222
81	0x3d9a7200	0.07541275
82	0x3d868c7d	0.06569765
83	0xbc08283e	-0.008310376
84	0x3d99d0a1	0.07510496
85	0xbdaa0a34	-0.08302727
86	0xbc0c4592	-0.008561509
87	0x3ca13f44	0.019683488
88	0xbc9ef239	-0.01940261
89	0xbcfc62e2	-0.03080887
90	0x3d6360b1	0.055512134
91	0xbc2a0bfb	-0.010378833
92	0xbcf615ee	-0.030039754
93	0xbc06e792	-0.008233922
94	0x3d2fe085	0.042938728
95	0x3b933a31	0.004493021
96	0x3c35beca	0.011092851
97	0x3d578e29	0.05262581
98	0xbd02c821	-0.03192914
99	0x3d795e02	0.06088067
100	0xbd540d7d	-0.051770676
101	0x3cd6c72b	0.026218018
102	0x3d7cb7c8	0.061698705
103	0xbd6ca461	-0.05777395
104	0x3cab0965	0.020878503
105	0xbd2798d4	-0.040917233
106	0xbd707408	-0.058704406
107	0xbd2143d4	-0.039371327
108	0xbda515d6	-0.080608055
109	0x3b90247c	0.0043988805
110	0x3cb49b1e	0.022046622
111	0x3d20db5c	0.039271697
112	0x3c29e2f8	0.010369055
113	0xbdbdcd16	-0.09267633
114	0xbd6b81cb	-0.057496827
115	0x3cd1fbc3	0.025632745
116	0x3d66b3c1	0.05632377
117	0xbd03bae9	-0.032160673
118	0xbd1d213b	-0.03836177
119	0x3c24e985	0.010065441
120	0xbd2574bb	-0.040394526
121	0xbd905570	-0.07047546
122	0xbdba1d0d	-0.09087572
123	0xbbfe17a9	-0.0077542854
124	0x3d2e14ad	0.042500187
125	0x3dad6e8f	0.08468353
126	0x3d18e647	0.037328985
127	0xbccb1872	-0.02479193
128	0x3d4ad031	0.049514953
129	0x3d8ed16e	0.06973539
130	0xbda2924b	-0.079380594
131	0x3d2e8e80	0.042616367
132	0x3d6feb3a	0.05857394
133	0xbbe62013	-0.0070228665
134	0xbd268b10	-0.040659964
135	0xbd9cc9fe	-0.076557145
136	0xbcdc203d	-0.026870841
137	0xbda4aef5	-0.08041183
138	0x3d5e1ec7	0.05422857
139	0x3d250085	0.0402837
140	0x3d9e9ad1	0.07744373
141	0x3d0a4d6e	0.03376525
142	0x3d7b3cf5	0.06133743
143	0xbda44e42	-0.08022739
144	0x3da2bd66	0.07946281
145	0x3cc6eab5	0.024281839
146	0x3cb46aa9	0.022023516
147	0xbda69403	-0.081337
148	0xbc4081ef	-0.011749729
149	0xbd8542d9	-0.06506891
150	0xbdb584c7	-0.08863216
151	0x3d200b34	0.039073184
152	0x3c715380	0.014729381
153	0xbd29f87d	-0.041496743
154	0x3da41b9f	0.08013081
155	0x3cd85f3d	0.0264126
156	0xbcc414ce	-0.023935702
157	0x3a87b748	0.0010354305
158	0xbc9d142e	-0.019174661
159	0xbd513a8e	-0.051081233
160	0xbcc38678	-0.02386783
161	0xbd2ac504	-0.041691795
162	0x3d587bfa	0.05285261
163	0xbd0bafe0	-0.034103274
164	0xbd3c3b3a	-0.04595492
165	0xbd26d8ee	-0.040734224
166	0x3db730cc	0.08944854
167	0xbbcdcc43	-0.0062804534
168	0x3d07dfd9	0.033172462
169	0xbd2da64e	-0.04239493
170	0xbdac9c6d	-0.08428273
171	0x3ccaea30	0.024769872
172	0xbd25e75a	-0.040503837
173	0x3c97fc2b	0.01855286
174	0xbdadf525	-0.08494023
175	0xbdaf0d87	-0.08547502
176	0xbd396302	-0.045260437
177	0xbd73168b	-0.05934767
178	0x3d3e8f54	0.046523407
179	0xbcbe541b	-0.023233464
180	0xbd7ba19e	-0.061433427
181	0x3ccc4626	0.024935793
182	0x3db93503	0.09043314
183	0x3d83f5e1	0.06443382
184	0xbcf3298c	-0.029682897
185	0xbcdc476a	-0.026889522
186	0xbccdd845	-0.02512754
187	0x3d916255	0.070988335
188	0xbc0192e5	-0.007908558
189	0x3b6ca75f	0.0036110503
190	0xbdb577af	-0.088607185
191	0xbcbc74e3	-0.023004955
192	0xbc29fe44	-0.010375563
193	0x3bbb3461	0.005713031
194	0xbc3b17a5	-0.0114192115
195	0x3d510bca	0.051036634
196	0xbdb79cd4	-0.089654595
197	0xbd84fe08	-0.06493765
198	0xbd89b06e	-0.067231044
199	0x3d46ed8d	0.04856639
200	0x3dc177ef	0.09446704
201	0x3d99d6cd	0.07511673
202	0xbc883364	-0.016626067
203	0x3c75efb0	0.015010759
204	0xbcf6964e	-0.030100968
205	0x3ce2cb03	0.027684694
206	0xbdc782a7	-0.09741717
207	0x3b7e081e	0.0038762162
208	0x3d3801cc	0.04492359
209	0xbc63b32b	-0.013897697
210	0x3d311724	0.04323496
211	0xbd982bac	-0.07430205
212	0x3d295eae	0.04135006
213	0xbd3a4704	-0.045477882
214	0xbcb45d64	-0.022017188
215	0x3d84b9cd	0.06480751
216	0x3d7007ab	0.058601063
217	0x3d854a6d	0.06508336
218	0xbd30784c	-0.043083474
219	0xbdaf31f3	-0.08554449
220	0x3d345a93	0.04403169
221	0xbd7a3d72	-0.061093755
222	0x3c9cb426	0.01912887
223	0x3c922379	0.01783918
224	0x3da50fbc	0.08059642
225	0x3cc98d59	0.024603533
226	0xbcb41a3f	-0.021985171
227	0xbc9dec2d	-0.019277656
228	0x3d027e17	0.03185853
229	0x3d2f62fd	0.042819012
230	0x3d526401	0.051364902
231	0xbcaa108b	-0.020759841
232	0xbda666b7	-0.0812506
233	0x3cd7dace	0.026349451
234	0xbcc76198	-0.024338529
235	0xbdad654c	-0.084665865
236	0x3c1b86f5	0.0094926255
237	0xb9c3ce40	-0.00037346967
238	0xbd88bd2b	-0.06676706
239	0xbd126256	-0.03573831
240	0x3d923c4d	0.07140408
241	0xb815ba54	-3.56979e-05
242	0xbd9bb2c5	-0.07602457
243	0x3dbfe8db	0.093705855
244	0x3db03dee	0.08605562
245	0x3be9351e	0.0071169278
246	0x3d6400e1	0.0556649
247	0x3d749e7b	0.05972145
248	0xbd786e39	-0.06065199
249	0xbda447ea	-0.08021529
250	0xbcc207de	-0.023685392
251	0x3d4f2069	0.050568018
252	0xbd8d7c5e	-0.06908487
253	0x3d4c2987	0.04984429
254	0xbd18b5b1	-0.03728265
255	0x3c109cc7	0.008826441

lin2.bias f4 [128]
0	0x3d5d8ef5	0.054091413
1	0x3c14179d	0.009038833
2	0x3d736a8c	0.059427783
3	0xbd079fbd	-0.033111323
4	0x3d4a9d98	0.0494667
5	0x3b839738	0.0040158294
6	0xbda8e64a	-0.08247049
7	0xbd9173cc	-0.071021646
8	0x3c67b1b1	0.014141486
9	0x3d498fdc	0.04920946
10	0x3dc1a2b5	0.09454862
11	0x3aa86774	0.0012848214
12	0x3db0055c	0.08594772
13	0x3d9243f2	0.07141866
14	0xbd16e39a	-0.03683815
15	0x3d41cd02	0.04731465
16	0xbd5b7d1e	-0.053586118
17	0x3da791ef	0.081821315
18	0xbccfa964	-0.025349326
19	0xbd53775d	-0.051627506
20	0x3d1ed716	0.03877934
21	0x3d75c5b4	0.060002998
22	0xbd8a4c2e	-0.06752811
23	0xbdbca5df	-0.09211325
24	0x3d8d0911	0.06886495
25	0x3d061851	0.032738034
26	0x3d3d876d	0.04627173
27	0x3cffbe7f	0.031218765
28	0xbd8d9ea5	-0.06915025
29	0xbc883864	-0.016628452
30	0x3d16ca8a	0.03681425
31	0x3d7318ec	0.05934994
32	0x3d53f25f	0.051744815
33	0xbd671023	-0.056411874
34	0xbdaae813	-0.08345046
35	0x3a30b34b	0.0006740584
36	0x3d6ffd18	0.05859098
37	0x3da5f9f8	0.081043184
38	0x3d70e3cb	0.05881099
39	0xbd132143	-0.035920393
40	0xbd14961e	-0.036275975
41	0xbc8ed3cf	-0.017434983
42	0x3d064ba5	0.032786984
43	0x3d087159	0.03331122
44	0x3a655903	0.00087489205
45	0xbc40e05a	-0.01177224
46	0xbd7bf900	-0.06151676
47	0x3d9b3ff3	0.07580557
48	0xbd3a2c77	-0.04545256
49	0xbcbc8484	-0.023012407
50	0x3d04d733	0.032431792
51	0xbca150a1	-0.019691767
52	0xbd8c8b0f	-0.06862461
53	0xbd1ce2fa	-0.0383024
54	0x3c62e465	0.013848399
55	0xbc605932	-0.013693141
56	0xbd16c58a	-0.03680948
57	0x3db875e3	0.0900686
58	0x3d2aa617	0.041662302
59	0x3db2c653	0.087292336
60	0x3d8c9833	0.06864967
61	0xbd53bb34	-0.051692203
62	0xbd8ba83b	-0.06819197
63	0xbcd37a05	-0.02581502
64	0x3ca3844e	0.019960549
65	0xbd6df150	-0.05809146
66	0xbd4702d2	-0.048586674
67	0x3bd737fc	0.006567953
68	0xbd962d0b	-0.0733281
69	0x3da58a65	0.08083037
70	0x3cfa4323	0.030549591
71	0xbd90e969	-0.070757695
72	0xbdae34a1	-0.08506132
73	0x3ca0a8b8	0.019611701
74	0x3b4dab8b	0.0031382765
75	0x3d963f63	0.07336309
76	0x3d177d97	0.036985006
77	0xbd9f7cdc	-0.07787487
78	0xbdb01c7a	-0.085991815
79	0xbd420403	-0.047367107
80	0x3d5a14dd	0.053242553
81	0xbc9ee655	-0.01939694
82	0xba9bc148	-0.0011883164
83	0x3da7dc74	0.08196345
84	0xbda09cc5	-0.078424014
85	0xbd58695f	-0.052834865
86	0x3d629bd6	0.055324398
87	0xbc6f1bb8	-0.014594011
88	0xbc4beb3c	-0.012446221
89	0xbd31d136	-0.04341241
90	0xbcd8a353	-0.026445067
91	0xbd7f94b5	-0.062397677
92	0x3d2011c2	0.039079435
93	0x3d863fee	0.06555162
94	0x3d91156b	0.07084163
95	0x3d583ff8	0.05279538
96	0x3c0656f9	0.008199447
97	0xbc954f0b	-0.018226167
98	0xba219e1c	-0.0006165223
99	0x3d82cb79	0.063864656
100	0x3d917c2e	0.071037635
101	0x3d87f2dc	0.066381186
102	0xbcdbe899	-0.02684431
103	0x3d81d0bb	0.0633864
104	0xbd332d76	-0.043744527
105	0xbd159773	-0.036521386
106	0xbd8bb385	-0.0682135
107	0x3d9125ea	0.0708731
108	0xbd58f533	-0.052968215
109	0x3cb70f2a	0.022346098
110	0xbcd93512	-0.026514564
111	0x3cc8f1d6	0.024529379
112	0xbc83df3e	-0.016097661
113	0x3bf66d25	0.0075203353
114	0xbc48687c	-0.012231942
115	0x3d541c72	0.05178494
116	0x3d93dd2f	0.07219922
117	0xbd62a01c	-0.055328473
118	0xbbe2cf6a	-0.0069216983
119	0xbd2d2092	-0.04226739
120	0xbc370d54	-0.011172611
121	0x3c93cc23	0.018041676
122	0xbb46f4ef	-0.0030358394
123	0xbb95d5fa	-0.004572627
124	0xbd9b7b4a	-0.07591875
125	0x3b8b513e	0.004251628
126	0x38ab5261	8.16926e-05
127	0xbd120ef1	-0.03565878

lin2.parametrizations.weight.original0 f4 [128, 1]
0	0x3f1db60b	0.616059
1	0x3f1b469a	0.60654604
2	0x3f1655cb	0.5872466
3	0x3f107d48	0.56441164
4	0x3f0f120d	0.5588692
5	0x3f18b4af	0.596507
6	0x3f124a08	0.5714421
7	0x3f18c792	0.5967952
8	0x3f1763a9	0.59136444
9	0x3f087a55	0.53311664
10	0x3f113767	0.5672516
11	0x3f11a0e4	0.56886125
12	0x3f20b39d	0.6277407
13	0x3f207cfe	0.6269072
14	0x3f1d750f	0.6150674
15	0x3f13ce68	0.57736826
16	0x3f17023e	0.58987796
17	0x3f11cac0	0.56949997
18	0x3f16f471	0.5896674
19	0x3f16cdaa	0.5890757
20	0x3f154016	0.5830091
21	0x3f11bda2	0.5692998
22	0x3f167da7	0.5878548
23	0x3f13c020	0.57715034
24	0x3f0f627e	0.5600966
25	0x3f1c8a65	0.61148673
26	0x3f17a30a	0.5923315
27	0x3f1a76e8	0.60337687
28	0x3f14fbfa	0.58196986
29	0x3f1c611e	0.6108569
30	0x3f143658	0.5789542
31	0x3f1a2587	0.6021351
32	0x3f1b23eb	0.6060168
33	0x3f10fe79	0.56638294
34	0x3f0cabc9	0.54949623
35	0x3f1a1221	0.6018391
36	0x3f15231d	0.58256704
37	0x3f0d87fa	0.5528561
38	0x3f091a6f	0.5355596
39	0x3f16f58c	0.58968425
40	0x3f1381c4	0.5761988
41	0x3f13a83e	0.5767859
42	0x3f1c48c6	0.61048543
43	0x3f19e2d5	0.60111743
44	0x3f1d75dc	0.61507964
45	0x3f155d41	0.5834542
46	0x3f1652c8	0.58720064
47	0x3f0fc441	0.56158835
48	0x3f0fcdf6	0.56173646
49	0x3f134ea6	0.57541883
50	0x3f12cdf6	0.5734552
51	0x3f1941ad	0.5986584
52	0x3f17924d	0.5920761
53	0x3f1355f9	0.5755306
54	0x3f0a113c	0.5393255
55	0x3f16888e	0.58802116
56	0x3f1b731a	0.60722506
57	0x3f1b7b7b	0.6073529
58	0x3f1e8524	0.61921906
59	0x3f1b9ee8	0.60789347
60	0x3f1e6bc5	0.61883193
61	0x3f0db439	0.5535312
62	0x3f0c862b	0.54892224
63	0x3f124dd6	0.5715002
64	0x3f0dfa5f	0.5546016
65	0x3f1092ec	0.56474185
66	0x3f18c019	0.5966812
67	0x3f13fe74	0.5781014
68	0x3f1cd3f2	0.612609
69	0x3f16caeb	0.5890338
70	0x3f04f41d	0.5193499
71	0x3f1a5a00	0.6029358
72	0x3f0ded54	0.5544026
73	0x3f1225ae	0.57088745
74	0x3f108fe8	0.56469584
75	0x3f16aefe	0.58860767
76	0x3f0ea858	0.5572562
77	0x3f1023a7	0.563044
78	0x3f092ce5	0.5358413
79	0x3f1fee07	0.62472576
80	0x3f222801	0.6334229
81	0x3f144772	0.57921517
82	0x3f18f2b3	0.5974533
83	0x3f11285d	0.56702214
84	0x3f191937	0.598041
85	0x3f143334	0.5789063
86	0x3f0cef49	0.5505262
87	0x3f0a635b	0.54057854
88	0x3f188689	0.59580284
89	0x3f13f115	0.57789737
90	0x3f19833e	0.59965885
91	0x3f0d68d3	0.55238074
92	0x3f173ebf	0.5908012
93	0x3f193431	0.5984526
94	0x3f0d8995	0.5528806
95	0x3f1b986a	0.6077944
96	0x3f14d53a	0.5813786
97	0x3f13ca87	0.5773091
98	0x3f1ac7d3	0.6046116
99	0x3f168160	0.5879116
100	0x3f140b5b	0.5782983
101	0x3f19a631	0.6001921
102	0x3f183712	0.5945903
103	0x3f168430	0.5879545
104	0x3f1b21fb	0.60598725
105	0x3f17a412	0.59234726
106	0x3f0f41e3	0.5595991
107	0x3f1206cb	0.57041615
108	0x3f11a0cb	0.56885976
109	0x3f188b04	0.5958712
110	0x3f14b7b5	0.58092815
111	0x3f114706	0.56749
112	0x3f152707	0.58262676
113	0x3f19dd16	0.60102975
114	0x3f11c64c	0.569432
115	0x3f18c031	0.5966826
116	0x3f096433	0.53668517
117	0x3f14972c	0.5804317
118	0x3f1e20c6	0.6176876
119	0x3f16f1b6	0.5896257
120	0x3f1b2cdd	0.6061533
121	0x3f077c8a	0.52924407
122	0x3f119111	0.5686198
123	0x3f12eec4	0.5739558
124	0x3f111469	0.5667177
125	0x3f1bfc4e	0.6093186
126	0x3f1d489c	0.6143892
127	0x3f14c5ee	0.58114517

lin2.parametrizations.weight.original1 f4 [128, 128]
0	0x3ae49e1a	0.0017442137
1	0x3d751723	0.059836518
2	0x3d841ee7	0.06451207
3	0x3d166c37	0.036724295
4	0xbd3a47a8	-0.045478493
5	0x3d1d3f0d	0.038390208
6	0x3d13ff6d	0.036132265
7	0x3db5693d	0.08857963
8	0xbd57c568	-0.052678496
9	0x3cab4afd	0.02090978
10	0x3cd68abc	0.0261892
11	0xbd931f89	-0.07183749
12	0x3b94c9ca	0.0045406567
13	0xbd5db596	-0.054128252
14	0x3d3a467b	0.04547737
15	0x3cee1e84	0.029067285
16	0x3bb7c1e3	0.00560783
17	0x3c3f2c6e	0.011668308
18	0x3d1a92f8	0.037737817
19	0xbc8ae8e4	-0.016956754
20	0xbcb60cbd	-0.022222871
21	0x3d7ed89b	0.06221829
22	0xbd165923	-0.0367061
23	0x3d9718c7	0.07377773
24	0x3b53d667	0.0032323839
25	0x3db16e01	0.0866356
26	0x3d87e09e	0.06634639
27	0x3c478973	0.012178767
28	0x3d350f37	0.044203963
29	0xbd946769	-0.072462864
30	0xbc8e528e	-0.01737335
31	0x3d58cd16	0.05292996
32	0xbd902780	-0.07038784
33	0xbd7a48b5	-0.061104495
34	0xbd0f28ee	-0.034951143
35	0x3d5a3753	0.053275418
36	0xbd5eb33b	-0.054370146
37	0x3d6b9139	0.057511542
38	0xbd6b15e1	-0.057393912
39	0x3da7fe50	0.08202803
40	0xbc586442	-0.013207497
41	0xbcf00f71	-0.029304238
42	0x3dbf8c0e	0.09352885
43	0x3d8f9158	0.07010144
44	0x3d43c172	0.047791906
45	0x3d8d2a9a	0.06892891
46	0xb89a682a	-7.362694e-05
47	0x3d55fcfe	0.052243225
48	0xbb80aee2	-0.0039270977
49	0xbc6efc7f	-0.014586567
50	0x3c7311ae	0.014835758
51	0x3d6aefb7	0.057357516
52	0xbd26965f	-0.04067075
53	0x3bd8a0cb	0.006610965
54	0xbd958205	-0.0730019
55	0xbcc0ff8c	-0.023559354
56	0x3d387f3d	0.04504322
57	0x3c8bb990	0.017056257
58	0x3d93ac4c	0.072105974
59	0x393ee40b	0.00018204765
60	0xbd4bfc3b	-0.049801093
61	0xbd419ff0	-0.04727167
62	0x3da235b4	0.07920399
63	0x3db6ad16	0.08919732
64	0xbb4fceb5	-0.00317089
65	0xbc0644d8	-0.008195125
66	0xbd8c8411	-0.06861127
67	0x3d0a4b41	0.033763174
68	0x3d8cacd2	0.068689
69	0xbd19bb02	-0.03753186
70	0xbc2b3fe0	-0.010452241
71	0x3d5d0208	0.053957015
72	0xbca7a9f1	-0.020466777
73	0xbc76a38e	-0.015053643
74	0x3d96b183	0.073580764
75	0x3d919d27	0.071100526
76	0xbd9ba828	-0.07600433
77	0xbd84f770	-0.064925075
78	0xbd25c928	-0.04047504
79	0x3cf929ef	0.030415503
80	0xbd06c62e	-0.032903843
81	0x3d6d04ae	0.05786579
82	0x3d345d55	0.04403432
83	0x3d564022	0.052307256
84	0xbced73eb	-0.028985938
85	0xbd584af5	-0.05280586
86	0x3be7058c	0.007050222
87	0xbd95aad8	-0.073079765
88	0xbd5fc632	-0.054632373
89	0x3d02229a	0.03177128
90	0x3d9325f3	0.071849726
91	0x3d2759d5	0.040857155
92	0x3d6170ff	0.055039402
93	0xbbd47bf3	-0.0064845025
94	0x3d8f193e	0.069872364
95	0xbbf9b1b5	-0.0076200613
96	0xbd0b7511	-0.03404719
97	0x3d2f2aea	0.042765535
98	0x3d94d155	0.072664894
99	0xbd8afdea	-0.067867115
100	0xbd2fc1f9	-0.042909596
101	0x3da5ddc7	0.08098941
102	0x3d8642e7	0.06555729
103	0x3db162fd	0.08661459
104	0xbd38cc34	-0.04511662
105	0x3d24e74b	0.04025964
106	0x3c189de5	0.009314989
107	0x3da72ea6	0.08163194
108	0x3d2bcf51	0.04194576
109	0xbd2d0fac	-0.042251274
110	0x3d515791	0.0511089
111	0xbd838b1c	-0.064230174
112	0xbd91d18c	-0.07120046
113	0x3cc6e433	0.024278736
114	0x3c5c3aa6	0.013441717
115	0x3db7fdfc	0.089839906
116	0xbd659620	-0.056051373
117	0xbd4e7211	-0.05040175
118	0x3d2b82d2	0.041872807
119	0x3db5cc16	0.08876817
120	0x3d6f061b	0.058355432
121	0x3d94d4d0	0.07267153
122	0xb943c7e6	-0.00018671117
123	0x3da0dd07	0.078546576
124	0x3dc379e9	0.09544737
125	0xbd943ca2	-0.07238127
126	0x3d12047e	0.035648815
127	0x3d17fa09	0.037103686
128	0x3c240b56	0.010012468
129	0x3d8c9339	0.06864018
130	0xbab0fc29	-0.0013502884
131	0x3d5d0774	0.053962186
132	0x3bf7b303	0.0075591817
133	0xbd7ca804	-0.06168367
134	0xbd8e8d26	-0.06960516
135	0xbd3fa794	-0.046790674
136	0x3d78bad6	0.060725056
137	0x3ccbb25c	0.024865322
138	0x3cc30018	0.023803756
139	0x3d640173	0.055665445
140	0x3a1d65d8	0.00060042506
141	0x3d0b1ce3	0.033963095
142	0xbd742679	-0.059607003
143	0xba6ed325	-0.00091104425
144	0x3d953a51	0.072865136
145	0x3c7f5507	0.015584237
146	0xbd54c4a0	-0.05194533
147	0x3d93423f	0.0719037
148	0xbd08b8da	-0.033379413
149	0x3d720c16	0.059093557
150	0xbd9779b5	-0.07396261
151	0x3d3b1555	0.04567464
152	0xbd7cf7ef	-0.061759885
153	0xbc90d6a2	-0.01768047
154	0x3d8a37a9	0.067488976
155	0xbda75b14	-0.08171669
156	0x3ba44c13	0.0050139516
157	0x3ca40268	0.020020679
158	0xbd99ba73	-0.075062655
159	0x3d9985cf	0.07496225
160	0x3d527be7	0.051387694
161	0x3db17b2b	0.086660706
162	0x3d97e35a	0.07416411
163	0xbd0e131d	-0.034686197
164	0x3c8f960e	0.017527606
165	0x3d059cf7	0.032620396
166	0x3d50a317	0.050936785
167	0x3dbae003	0.09124758
168	0x3c9d9d2d	0.019239986
169	0x3daf101b	0.08547994
170	0xb9aa49b6	-0.00032479846
171	0x3cef5392	0.029214654
172	0xbd76899f	-0.06018984
173	0x3c8600a4	0.016357727
174	0x3d155c98	0.036465257
175	0xbba0b117	-0.0049039233
176	0x3d28320c	0.041063353
177	0x3cad77a0	0.021175206
178	0x3b6e679d	0.0036377676
179	0x3c813fa8	0.015777424
180	0x3da776c7	0.08176952
181	0x3d5c84b8	0.053837508
182	0x3dbb52ba	0.09146638
183	0x3d225ce1	0.039639357
184	0x3c1889f3	0.009310233
185	0x3d447674	0.04796453
186	0xbd846f75	-0.06466571
187	0x3cf8f68c	0.030391
188	0x3dbb1e94	0.09136692
189	0xbd481343	-0.048846494
190	0x3c7d37a5	0.015455161
191	0x3c105f43	0.008811775
192	0xbc1c2445	-0.009530132
193	0xbcd1dc0c	-0.025617622
194	0x3baa7526	0.0052019535
195	0x3da244db	0.079232894
196	0xbd48105c	-0.048843727
197	0x3d8fc143	0.070192836
198	0x3daff30f	0.085912816
199	0xbd81acc5	-0.06331781
200	0xbda1cbbb	-0.07900187
201	0xbd935502	-0.07193948
202	0x3d118c98	0.03553447
203	0xbd7e97a4	-0.062156335
204	0xbbcdae38	-0.006276872
205	0xbd08385a	-0.033256866
206	0x3c7d84d3	0.015473562
207	0xbd72fab4	-0.05932112
208	0x3b6b6991	0.0035921077
209	0xbd4495db	-0.047994476
210	0xbc588fe3	-0.013217899
211	0x3ca95925	0.02067239
212	0xbd047288	-0.032335788
213	0xbd416437	-0.047214713
214	0x3dae911e	0.08523773
215	0x3d386570	0.045018613
216	0xbb83ab45	-0.0040182197
217	0x3d157105	0.036484737
218	0x3d38aa8a	0.045084514
219	0x3d881d15	0.06646172
220	0x3daa6f03	0.08321955
221	0x3dab0328	0.083502114
222	0xbd953409	-0.072853155
223	0x3d9137c3	0.07090714
224	0x3b60b5d8	0.0034288075
225	0xbc8cb66f	-0.017176835
226	0x3dcb11e5	0.099155225
227	0xbda24e20	-0.079250574
228	0x3c5c209e	0.013435511
229	0x3ccd4d7e	0.025061365
230	0x3d8e4e51	0.069485314
231	0x3d8df519	0.06931514
232	0xbbe1ca27	-0.0068905535
233	0xbd123804	-0.035697952
234	0x3d9851b1	0.074374564
235	0x3daa8c24	0.08327511
236	0x3d9b243c	0.075752705
237	0x3dba2388	0.09088808
238	0x3d2e8552	0.042607613
239	0x3cb238d4	0.021755613
240	0x3d9f004f	0.07763731
241	0xbd0971a3	-0.033555638
242	0x3d83e61f	0.064403765
243	0x3da35b5a	0.07976408
244	0x3d8b6ac9	0.06807477
245	0xbd16f323	-0.036852967
246	0x3d0ebc06	0.034847282
247	0x3c095e6b	0.008384327
248	0xbd983191	-0.07431329
249	0xbd9e9b50	-0.07744467
250	0xbc8f2e18	-0.017478034
251	0x3cd38683	0.025820976
252	0x3dbac702	0.09119989
253	0xbd95d8d6	-0.07316749
254	0xbc8460f5	-0.016159514
255	0x3d371d87	0.044705894

lin3.bias f4 [128]
0	0xbd08f19d	-0.033433545
1	0x3b8b40c7	0.0042496654
2	0xbdbeeb26	-0.09322195
3	0xbd190916	-0.03736218
4	0x3bd6b73e	0.006552606
5	0x3da78d00	0.081811905
6	0x3c9cdc17	0.019147916
7	0xbd9d9894	-0.076951176
8	0xbd064bf6	-0.032787286
9	0x3d5c08ef	0.053719457
10	0xbcfc1133	-0.03076992
11	0xbd958913	-0.073015355
12	0xbcfea762	-0.031085674
13	0xbcd06c5f	-0.0254423
14	0x3c9320ca	0.017959971
15	0xbd2c3750	-0.042044938
16	0x3dba9a4f	0.09111463
17	0xbd91831e	-0.07105087
18	0x3d33e3f3	0.04391856
19	0xbdcb369d	-0.09922526
20	0x3d96b85c	0.073593825
21	0x3d67a1b8	0.05655071
22	0x3d90746e	0.07053457
23	0xbc460a7e	-0.0120874625
24	0xbda1bf2d	-0.07897792
25	0xbd8b13a8	-0.067908585
26	0xb9d5d825	-0.00040787566
27	0x3ba23883	0.0049505844
28	0xbdb9657b	-0.09052559
29	0xbda0a045	-0.07843069
30	0xbb762c72	-0.0037563113
31	0xbd99c877	-0.07508939
32	0xbd4070a9	-0.04698244
33	0x3db325d0	0.087474465
34	0x3ca76090	0.020431787
35	0xbd6b7136	-0.057481013
36	0xbc09f557	-0.00842031
37	0xbd6f59d0	-0.05843526
38	0x3cf5e502	0.030016426
39	0x3d730bcf	0.059337433
40	0x3bce9aec	0.006305089
41	0x3d88b4cd	0.0667511
42	0x3d3c409b	0.04596005
43	0x3dc0d5d3	0.09415784
44	0x3c574a81	0.013140322
45	0xbbfc2458	-0.007694762
46	0x3d86e91f	0.06587433
47	0xbd93bb6d	-0.07213483
48	0xbd4017eb	-0.04689781
49	0x3c448057	0.011993489
50	0x3c58eda2	0.01324025
51	0x3da9cc00	0.08290863
52	0xbdb592c4	-0.08865884
53	0x3d80f2ad	0.06296287
54	0xbd7a2509	-0.061070476
55	0xbd96902a	-0.07351716
56	0xbcd3f817	-0.025875134
57	0xbd90ac45	-0.07064108
58	0xbbeb955d	-0.0071894364
59	0xbbd2fb54	-0.006438652
60	0xbd99d3c7	-0.075110964
61	0xbd0fc267	-0.035097506
62	0xbdaaf536	-0.083475515
63	0xbd7b584b	-0.0613635
64	0xbd9a5c18	-0.07537097
65	0x3d2bf44d	0.04198103
66	0x3dae0bbc	0.08498332
67	0x3d0ad9ad	0.033898998
68	0x3d672e69	0.056440745
69	0x3c87bbac	0.016568981
70	0x3c4a3d18	0.012343667
71	0x3dac8f28	0.084257424
72	0x3d3273a7	0.043567326
73	0x3caf7bf1	0.021421405
74	0x3c719452	0.014744835
75	0xbd27d100	-0.040970802
76	0xbd04dca3	-0.032436978
77	0x3ba329fb	0.0049793697
78	0xbd8aac6e	-0.067711696
79	0xbdb6c0a8	-0.08923465
80	0xbd661d91	-0.05618054
81	0x3bd1a6f6	0.006398077
82	0xba3ebc5b	-0.0007275992
83	0x3cf45ef8	0.02983044
84	0x3cbfbdff	0.023406027
85	0x3dc31132	0.09524764
86	0xbd1015e7	-0.035177138
87	0x3dc1856d	0.09449277
88	0x3da279c8	0.07933384
89	0x3d525045	0.051346082
90	0x3ca8ceea	0.020606477
91	0x3c14209b	0.009040977
92	0x3d72795e	0.059197776
93	0xb815f162	-3.5749174e-05
94	0x3d86764b	0.06565531
95	0xba54ae7c	-0.00081131584
96	0x3d6b7b08	0.05749038
97	0x3d9461b1	0.07245196
98	0x3d41194f	0.047143277
99	0xbdafdc01	-0.08586884
100	0xbd6bbc14	-0.057552412
101	0xbd95e9c6	-0.07319979
102	0xbb8739d5	-0.004126767
103	0xbb896513	-0.004192957
104	0xbcd6adc9	-0.026205914
105	0xbd872e36	-0.06600611
106	0xbb91c8d0	-0.0044489875
107	0xbcdd4b58	-0.027013466
108	0x3d5137dc	0.051078662
109	0xbc13452c	-0.00898866
110	0x3c1e340f	0.009655966
111	0x3d9ce26c	0.07660374
112	0x3d0549a8	0.032540947
113	0x3d847805	0.064682044
114	0xbd524c24	-0.051342145
115	0xbbf0b0f4	-0.007345313
116	0x3c7e892a	0.015535632
117	0x3ce958ba	0.028484691
118	0xbb9d88bf	-0.004807561
119	0xbd00deff	-0.031462666
120	0xbdaef7ae	-0.08543335
121	0xbd922532	-0.07136001
122	0xbcd85406	-0.026407253
123	0xbd437330	-0.047717273
124	0x3cc78970	0.024357527
125	0x3bf354b4	0.007425869
126	0x3d876d06	0.066125914
127	0xbd6565af	-0.056005176

lin3.parametrizations.weight.original0 f4 [128, 1]
0	0x3f1d0143	0.6133005
1	0x3f108500	0.5645294
2	0x3f0df99c	0.55459
3	0x3f110041	0.5664101
4	0x3f131c85	0.5746539
5	0x3f1cef54	0.61302686
6	0x3f099d72	0.5375587
7	0x3f0f97bc	0.56090903
8	0x3f13b83d	0.57703
9	0x3f1aeca9	0.60517365
10	0x3f1aa456	0.60407007
11	0x3f0e3733	0.5555298
12	0x3f172503	0.5904085
13	0x3f12b95a	0.57314074
14	0x3f127d03	0.57222
15	0x3f112d56	0.567098
16	0x3f150e1c	0.58224654
17	0x3f159b48	0.58440065
18	0x3f16580d	0.58728105
19	0x3f08b2eb	0.5339801
20	0x3f0de906	0.5543369
21	0x3f15e72c	0.58555865
22	0x3f137988	0.57607317
23	0x3f0f491a	0.5597092
24	0x3f17266a	0.5904299
25	0x3f155671	0.58335024
26	0x3f0c29e6	0.5475143
27	0x3f14a912	0.5807048
28	0x3f0d04e5	0.55085593
29	0x3f10d551	0.56575495
30	0x3f138a29	0.5763269
31	0x3f1d698d	0.6148918
32	0x3f1a0a72	0.6017219
33	0x3f12d7fc	0.57360816
34	0x3f130092	0.57422745
35	0x3f0cbfd4	0.54980206
36	0x3f159b00	0.58439636
37	0x3f16d3f5	0.5891717
38	0x3f10f911	0.56630045
39	0x3f174fad	0.5910595
40	0x3f16c687	0.5889668
41	0x3f16cf5c	0.58910155
42	0x3f1c0b1a	0.6095444
43	0x3f1aca2f	0.6046476
44	0x3f1acb31	0.60466295
45	0x3f176eb6	0.59153306
46	0x3f15c62e	0.58505523
47	0x3f0e7822	0.5565206
48	0x3f1d5016	0.61450326
49	0x3f17842e	0.59186065
50	0x3f0cde35	0.5502656
51	0x3f0f24de	0.5591563
52	0x3f0d7fda	0.5527321
53	0x3f10f8fd	0.56629926
54	0x3f12605f	0.571783
55	0x3f1937cc	0.59850764
56	0x3f164865	0.58704215
57	0x3f126e47	0.5719952
58	0x3f1f739d	0.62285787
59	0x3f14695f	0.57973284
60	0x3f227e58	0.63474035
61	0x3f1af335	0.60527354
62	0x3f15281c	0.5826433
63	0x3f176d54	0.59151196
64	0x3f1cc203	0.6123354
65	0x3f126392	0.5718318
66	0x3f11f69c	0.5701692
67	0x3f19adb2	0.60030663
68	0x3f15125f	0.5823116
69	0x3f130fb0	0.5744581
70	0x3f14208f	0.5786218
71	0x3f0cc142	0.5498239
72	0x3f105e36	0.56393754
73	0x3f0c613a	0.54835856
74	0x3f122f62	0.5710355
75	0x3f113dae	0.5673474
76	0x3f0f37f6	0.55944765
77	0x3f113002	0.5671388
78	0x3f156de2	0.5837079
79	0x3f178b49	0.5919691
80	0x3f1dccaf	0.6164045
81	0x3f100c76	0.56269014
82	0x3f05fec6	0.5234188
83	0x3f17e2f8	0.593307
84	0x3f09f6cb	0.538922
85	0x3f0f76bf	0.5604057
86	0x3f0b5924	0.5443289
87	0x3f0c7927	0.54872364
88	0x3f12d458	0.5735526
89	0x3f1b285b	0.6060845
90	0x3f181270	0.59403133
91	0x3f1268b4	0.57191014
92	0x3f11ac4a	0.5690352
93	0x3f188d49	0.59590584
94	0x3eff0376	0.49807328
95	0x3f16a8d4	0.5885136
96	0x3f0739e7	0.52822727
97	0x3f164f10	0.5871439
98	0x3f109fa5	0.564936
99	0x3f114afa	0.5675503
100	0x3f0de544	0.55427957
101	0x3f1748f4	0.5909569
102	0x3f1b8d79	0.60762745
103	0x3f16b204	0.5886538
104	0x3f175a23	0.5912191
105	0x3f184c06	0.59491
106	0x3f1a3f2d	0.6025265
107	0x3f18393e	0.59462345
108	0x3f16b319	0.5886703
109	0x3f157d9b	0.58394784
110	0x3f1c9fb5	0.61181194
111	0x3f10bd0b	0.56538457
112	0x3f1575ae	0.5838269
113	0x3f1859a2	0.5951177
114	0x3f0e1f5d	0.55516607
115	0x3f1445b9	0.5791889
116	0x3f1ca61a	0.6119095
117	0x3f0a3790	0.5399103
118	0x3f134df9	0.5754085
119	0x3f16cb4d	0.5890396
120	0x3f0e8177	0.556663
121	0x3f0e6540	0.55623245
122	0x3f130327	0.57426685
123	0x3f1807ef	0.59387106
124	0x3f183141	0.59450155
125	0x3f21e016	0.63232553
126	0x3f10660f	0.5640573
127	0x3f0f9a45	0.5609477
