experiments/SlidingSphere2D/SdfSamples/slidingspheremodel2d_sphere_0.22.npz (npz, 42485 bytes, 2 tensors)

pos f4 [381, 4]
-0.1430422 -0.42988145 -0.16971397 0.086586475 -0.12942076 0.12267399 0.3425591 0.0032128692
0.72902036 0.13973367 0.00087201595 0.029605746 -0.2868054 0.045995235 0.026385546 0.0077635646
-0.25444996 -0.045586586 -0.061383486 -0.021223575 -0.023734331 0.30842578 -0.3432926 0.021056354
0.23318791 -0.39411497 -0.15158308 -0.077472806 -0.23209596 -0.20570707 -0.3226366 0.0908975
0.66212213 0.057395935 0.21142042 -0.004948616 0.75609255 0.10224736 -0.10399008 0.057329655
0.033269644 0.53103673 -0.0012991428 0.06231147 0.3547696 0.020609379 0.4617833 -0.017999202
0.5874628 -0.3960936 -0.017954826 0.041831076 0.17664886 0.5136781 -0.10773492 0.02649498
0.32319498 -0.44572628 0.18197942 -0.0072361827 0.12719321 0.22777927 -0.3273852 -0.09092376
0.76171434 0.01647973 0.008931875 0.043855608 0.08252895 -0.5700097 -0.12481964 0.09907657
0.5452279 0.0027799606 0.35837436 -0.0148206055 0.28111863 0.077459455 0.54978275 0.05876839
-0.20372224 0.27376103 -0.1988213 0.040812373 0.21679878 -0.3444637 0.31648278 -0.03221959
0.18960011 -0.4108535 0.213462 -0.03612119 -0.24690843 0.12958407 -0.12847304 -0.0003938675
0.5396738 -0.42974377 -0.03894949 0.03810209 0.26724088 0.43521535 -0.39170825 0.08758366
0.6522753 0.17842722 0.29203856 0.052774787 0.06475842 0.27326548 0.40536773 0.012382448
0.69243634 -0.16476417 -0.21999979 0.048146427 0.19876564 0.07107079 0.42694163 -0.06674811
0.6482196 -0.14213884 -0.2892145 0.037383437 -0.2201556 -0.2680415 0.12162721 0.027995408
0.45940185 -0.104129314 -0.44747722 0.018908381 0.04713869 -0.096571445 0.40502727 -0.04985681
-0.22439003 0.14534831 -0.17518568 -0.0023193955 0.27628386 0.1917181 0.5139133 0.051578224
0.15895092 0.41417587 -0.081974626 -0.07365531 0.3556763 -0.45520842 -0.22074986 0.024261355
-0.075947165 -0.4240445 -0.2510059 0.07387239 0.6277827 0.20061553 -0.3650627 0.08420056
-0.0005059242 -0.21125841 0.42207778 0.0201962 0.21401441 0.25925827 -0.47480476 0.040991485
0.107536316 -0.15803206 0.5599476 0.0922482 0.21001065 -0.025984287 0.5259663 0.026671171
-0.014415145 0.13149273 -0.44378316 0.018010795 0.019151688 0.4348482 -0.12404907 -0.0059411824
0.1620909 0.1445818 0.4349811 -0.038200647 -0.19775379 0.05016291 -0.08351219 -0.072808
0.59638107 0.15556729 0.0013324022 -0.09105304 -0.18489993 0.414755 0.011171699 0.07846475
0.42145872 -0.017412663 0.4168049 -0.035940707 0.03643012 -0.2875278 -0.35561657 -0.0078932345
-0.26308024 0.011258602 -0.29793072 0.066129506 -0.2958008 0.19098389 0.117396355 0.06074494
0.53257334 -0.015442014 -0.32160807 -0.049986392 0.3287294 -0.47156334 -0.25443542 0.047110677
-0.15685296 -0.022647738 0.33633983 0.0042702556 -0.03252387 -0.4931754 0.20893562 0.091379225
0.23653996 -0.5754789 0.05696082 0.078582406 0.18765056 0.39877713 0.40188086 0.06697756
0.2944827 -0.24737906 0.38730514 -0.034142196 -0.21945393 0.016806006 -0.101706386 -0.050387204
-0.18956828 -0.18175781 0.36290383 0.07532185 0.4729513 -0.4340366 -0.28081965 0.07632887
00000000: a879 12be 6c19 dcbe 80c9 2dbe 4054 b13d
00000010: e086 04be 803c fb3d e863 af3e 008f 523b
00000020: 14a1 3a3f 5816 0f3e 0098 643a c087 f23c
00000030: 28d8 92be 8065 3c3d 8026 d83c 8065 fe3b
00000040: 4447 82be 00b9 3abd 406d 7bbd 10dd adbc
00000050: 806e c2bc fce9 9d3e 0cc4 afbe 607e ac3c
00000060: d0c8 6e3e 70c9 c9be 9838 1bbe 10aa 9ebd
00000070: 90aa 6dbe e0a4 52be a030 a5be 7828 ba3d
00000080: d680 293f 0018 6b3d 987e 583e 0028 a2bb
00000090: 488f 413f 1067 d13d c0f8 d4bd 80d2 6a3d
000000a0: c045 083d 06f2 073f 0048 aaba 503a 7f3d
000000b0: 5ca4 b53e 00d5 a83c dc6e ec3e 1073 93bc
000000c0: f663 163f c8cc cabe 0016 93bc 1057 2b3d
000000d0: 70e3 343e 6880 033f 20a4 dcbd 000c d93c
000000e0: d079 a53e 3c36 e4be d058 3a3e 801d edbb
000000f0: f03e 023e f83e 693e 089f a7be 3c36 babd
00000100: b6ff 423f 8000 873c 0057 123c f0a1 333d
00000110: f004 a93d 28ec 11bf 70a1 ffbd a8e8 ca3d
00000120: 0e94 0b3f 0030 363b d87c b73e 20d2 72bc
00000130: c8ee 8f3e 10a3 9e3d 90be 0c3f 20b7 703d
00000140: 909c 50be 682a 8c3e d097 4bbe e02a 273d
00000150: 8000 5e3e 8c5d b0be 080a a23e b0f8 03bd
00000160: 8826 423e 645b d2be c895 5a3e d0f3 13bd
00000170: 90d5 7cbe b0b1 043e 708e 03be 0080 ceb9
00000180: 1028 0a3f 6007 dcbe 8089 1fbd f010 1c3d
00000190: ccd3 883e 8cd4 de3e fc8d c8be 105f b33d
000001a0: 84fb 263f a0b5 363e 1486 953e 602a 583d
000001b0: 10a0 843d 74e9 8b3e 5c8c cf3e c0df 4a3c
000001c0: 8243 313f f0b7 28be a047 61be 3035 453d
000001d0: 3889 4b3e 908d 913d 1898 da3e 3cb3 88bd
000001e0: b8f1 253f d88c 11be ec13 94be 601f 193d
000001f0: 7870 61be bc3c 89be b017 f93d a056 e53c
00000200: b836 eb3e c041 d5bd bc1b e5be c0e5 9a3c
00000210: 8014 413d 40c7 c5bd bc5f cf3e a836 4cbd
00000220: 80c6 65be 30d6 143e e063 33be 0001 18bb
00000230: 1475 8d3e c051 443e d28f 033f b043 533d
00000240: 08c4 223e dc0e d43e 50e2 a7bd 98d8 96bd
00000250: 341b b63e 1411 e9be 400c 62be c0bf c63c
00000260: 308a 9bbd 5c1c d9be d883 80be 684a 973d
00000270: 5eb6 203f 286e 4d3e 80e9 babe 5871 ac3d
00000280: 00a0 04ba 2054 58be 941a d83e 8072 a53c
00000290: 9826 5b3e 80bd 843e 9c19 f3be b0e6 273d
000002a0: 003c dc3d 28d3 21be ba58 0f3f a0ec bc3d
000002b0: 080d 573e 00dd d4bc baa5 063f 807d da3c
000002c0: 802d 6cbc 08a6 063e 8c37 e3be 608b 933c
000002d0: 00e4 9c3c 6ca4 de3e 700d febd 40ae c2bb
000002e0: 28fb 253e 400d 143e d8b5 de3e 4878 1cbd
000002f0: f87f 4abe a077 4d3d 7008 abbd 5c1c 95bd
00000300: 6eac 183f 084d 1f3e 00a4 ae3a 047a babd
00000310: 6856 3dbe c45a d43e 8009 373c 20b2 a03d
00000320: 70c9 d73e 00a5 8ebc 7467 d53e 9036 13bd
00000330: c037 153d d836 93be 6013 b6be a052 01bc
00000340: 74b2 86be 0076 383c 608a 98be e86e 873d
00000350: 3473 97be 4891 433e 806d f03d b0cf 783d
00000360: ba56 083f 8000 7dbc d0a9 a4be 88be 4cbd
00000370: 384f a83e c070 f1be 5c45 82be 20f7 403d
00000380: 109e 20be c087 b9bc bc34 ac3e 80ed 8b3b
00000390: c037 05bd 7c81 fcbe 38f3 553e 0825 bb3d
000003a0: 8837 723e 9652 13bf c04f 693d d0ef a03d
000003b0: 7827 403e 842c cc3e 54c3 cd3e 882b 893d
000003c0: 70c6 963e f050 7dbe dc4c c63e b0d8 0bbd
000003d0: 88b8 60be c0ac 893c 704b d0bd d062 4ebd
000003e0: 301e 42be b81e 3abe 88ce b93e 5842 9a3d
000003f0: ac26 f23e 0c3a debe 98c7 8fbe 5052 9c3d

neg f4 [2500, 4]
-0.059423566 0.18565238 0.97719586 0.5326874 0.09774327 -0.0010670424 0.98200095 0.48935962
0.9480593 -0.22495568 0.08866453 0.26888722 -0.28330863 0.38551843 -0.64287555 0.40189028
-0.3960961 -0.54614973 -0.12095559 0.33081114 0.75304353 0.833462 0.84309983 0.8005973
0.48308384 -0.21881974 0.10702777 -0.14012489 -0.6357807 0.0127027035 -0.121228695 0.36261797
0.1920675 0.9718137 -0.16549397 0.4861501 0.98838377 0.8258331 0.55158913 0.75676644
-0.6129416 -0.011965275 0.40797424 0.42593324 -0.5735183 0.005646825 0.31072485 0.35051215
-0.6402252 0.7696785 -0.9801495 1.0132616 -0.32235467 0.8104508 -0.47955573 0.5858103
-0.298375 0.5528469 -0.04536426 0.25797665 0.6021801 0.51005685 0.8221847 0.54096127
-0.43835354 -0.0009212494 0.3254031 0.23275286 0.12347484 0.87394845 -0.601725 0.5652832
-0.07932639 -0.9440347 0.1867249 0.50726306 -0.56791687 -0.11682868 0.2622615 0.33688784
0.15083969 -0.22648478 0.75576174 0.29183716 0.35094166 -0.6348151 -0.08159387 0.15366119
-0.94438004 0.47607505 -0.15649962 0.7659738 0.31188428 -0.6723056 -0.3373084 0.25799203
-0.8347107 0.6520777 -0.052823305 0.7395879 -0.5720123 -0.15792668 -0.99729276 0.7821624
0.43858206 0.36975372 -0.5482341 0.19703275 -0.97275615 -0.033691168 0.5946648 0.831576
0.22760546 -0.6916746 -0.45228505 0.32647705 -0.77624595 0.024514675 0.4339546 0.58526695
-0.95709753 -0.20944214 0.4043424 0.7604128 0.17385864 -0.709025 0.5738001 0.41319638
-0.75192666 -0.4250518 -0.49325383 0.66836596 0.5230366 0.27350116 -0.9265684 0.513049
-0.3178984 0.9240409 0.71309936 0.7844237 0.409348 -0.960883 -0.20891523 0.50174165
0.6423719 -0.1727252 0.93665934 0.54264176 0.95164204 0.17586589 0.33856702 0.3267529
0.8408804 -0.72543645 -0.8982698 0.81183076 -0.52285826 -0.2805829 -0.42652547 0.399884
0.012991905 0.10715711 0.24010158 -0.16648191 -0.33592737 -0.09798503 -0.8615308 0.5290158
-0.9865657 -0.78224623 -0.5984427 1.056104 0.7301208 -0.9662267 0.0536561 0.5947851
0.13536751 0.2351805 0.8031211 0.34093493 0.7533001 0.5737796 0.10256028 0.29126042
0.27174175 0.61815965 -0.061152577 0.12348187 0.349864 -0.04922068 -0.74647355 0.2595957
0.9930446 -0.49864197 0.763733 0.69680583 -0.57057047 -0.22817671 0.4188465 0.4217522
-0.79419434 0.1327244 -0.29508328 0.56282437 0.19254875 0.20509708 0.976416 0.49805313
-0.59719634 -0.235376 0.25877213 0.38724655 0.39542627 -0.73455083 -0.801599 0.60160863
0.2853421 -0.6871779 0.7115166 0.4914534 -0.29092908 -0.18753839 -0.4294361 0.19193923
0.16058159 -0.6568612 0.5989715 0.3908149 -0.66286147 -0.8236451 -0.0174824 0.70620656
0.9499723 -0.31844974 -0.26822507 0.34194547 -0.91756713 -0.91641283 -0.9090278 1.2193224
-0.19077492 -0.99716675 0.8490032 0.87200356 0.7459092 -0.42753577 0.43691635 0.30757594
-0.15616548 -0.69434047 -0.38600504 0.3782053 0.1121968 -0.6607772 0.50384736 0.3376882
00000000: 2066 73bd a81b 3e3e 8229 7a3f 345e 083f
00000010: a02d c83d 00dc 8bba 6a64 7b3f 588d fa3e
00000020: 04b4 723f c85a 66be c095 b53d 96ab 893e
00000030: d40d 91be ac62 c53e 7e93 24bf 90c4 cd3e
00000040: 1ccd cabe 78d0 0bbf 90b7 f7bd 1460 a93e
00000050: 76c7 403f c45d 553f 64d5 573f f2f3 4c3f
00000060: c456 f73e 4812 60be 6031 db3d e67c 0fbe
00000070: 86c2 22bf 001f 503c c046 f8bd 10a9 b93e
00000080: 58ad 443e c8c8 783f 4077 29be aae8 f83e
00000090: b806 7d3f cc69 533f f234 0d3f 72bb 413f
000000a0: bee9 1cbf 000a 44bc 00e2 d03e ec13 da3e
000000b0: 18d2 12bf 0009 b93b 5417 9f3e 5476 b33e
000000c0: cce5 23bf a609 453f 14eb 7abf 8eb2 813f
000000d0: ac0b a5be b479 4f3f 5488 f5be aaf7 153f
000000e0: 9cc4 98be 6087 0d3f e0cf 39bd 8415 843e
000000f0: 7a28 1a3f 1693 023f b27a 523f 707c 0a3f
00000100: e06f e0be 0080 71ba 3c9b a63e c456 6e3e
00000110: 60e0 fc3d 16bb 5f3f a60a 1abf 66b6 103f
00000120: e075 a2bd 42ac 71bf d034 3f3e fedb 013f
00000130: 0063 11bf e043 efbd 2447 863e 907c ac3e
00000140: b875 1a3e a0eb 67be 9a79 413f ae6b 953e
00000150: a0ae b33e 3e83 22bf b01a a7bd 5c59 1d3e
00000160: e4c2 71bf 1cc0 f33e 7041 20be dc16 443f
00000170: 4caf 9f3e 381c 2cbf b0b3 acbe 8817 843e
00000180: 9aaf 55bf 90ee 263f 405d 58bd a255 3d3f
00000190: 666f 12bf 88b7 21be 944e 7fbf cc3b 483f
000001a0: d48d e03e 5c50 bd3e 1259 0cbf f4c2 493e
000001b0: 8c06 79bf c0ff 09bd f43b 183f 2ae2 543f
000001c0: 6811 693e 9611 31bf e891 e7be 0028 a73e
000001d0: 0eb8 46bf 00d3 c83c 4c2f de3e 0ed4 153f
000001e0: 5804 75bf 0078 56be f805 cf3e 6aaa 423f
000001f0: 0008 323e aa82 35bf 90e4 123f 7a8e d33e
00000200: 447e 40bf 64a0 d9be c48b fcbe 081a 2b3f
00000210: bae5 053f 5808 8c3e 9633 6dbf 2e57 033f
00000220: 94c3 a2be f28d 6c3f ae8d 363f fecf 483f
00000230: 1096 d13e 6efc 75bf e0ed 55be 2472 003f
00000240: 7c72 243f e0de 30be e8c8 6f3f 92ea 0a3f
00000250: d09e 733f 3016 343e a858 ad3e 284c a73e
00000260: f043 573f 34b6 39bf 02f5 65bf 24d4 4f3f
00000270: 0ada 05bf 90a8 8fbe 8c61 dabe 98bd cc3e
00000280: 00dc 543c 3075 db3d 30dd 753e 3c7a 2abe
00000290: acfe abbe 60ac c8bd 488d 5cbf 946d 073f
000002a0: 928f 7cbf 4a41 48bf 8a33 19bf 6a2e 873f
000002b0: 32e9 3a3f a25a 77bf 80c6 5b3d d643 183f
000002c0: c89d 0a3e 28d3 703e 5899 4d3f 068f ae3e
000002d0: 46d8 403f 38e3 123f 200b d23d 1620 953e
000002e0: bc21 8b3e b63f 1e3f 207b 7abd 10e4 fc3d
000002f0: 6021 b33e a09b 49bd e418 3fbf bae9 843e
00000300: 2c38 7e3f 004e ffbe 0284 433f de61 323f
00000310: e810 12bf 28a7 69be 0c73 d63e e8ef d73e
00000320: 5250 4bbf e8e8 073e 2815 97be 4215 103f
00000330: 802b 453e f804 523e 66f6 793f d200 ff3e
00000340: dce1 18bf 6806 71be c87d 843e 2e45 c63e
00000350: 5075 ca3e 860b 3cbf 9835 4dbf 0603 1a3f
00000360: 5c18 923e e4ea 2fbf f425 363f c89f fb3e
00000370: a8f4 94be 100a 40be 0cdf dbbe b88b 443e
00000380: 806f 243e 0e28 28bf 3256 193f e418 c83e
00000390: 4ab1 29bf 68da 52bf 4037 8fbc f4c9 343f
000003a0: 6231 733f d80b a3be cc54 89be 7a13 af3e
000003b0: aee5 6abf 089a 6abf 0cb6 68bf c212 9c3f
000003c0: 805a 43be 5246 7fbf 4658 593f a03b 5f3f
000003d0: e8f3 3e3f f8e5 dabe 80b3 df3e 987a 9d3e
000003e0: d8e9 1fbe 4cc0 31bf 74a2 c5be 20a4 c13e
000003f0: 70c7 e53d b228 29bf 24fc 003f 78e5 ac3e
