experiments/SlidingSphere2D/SdfSamples/slidingspheremodel2d_sphere_0.36.npz (npz, 738615 bytes, 2 tensors)

pos f4 [25000, 4]
00000000: 1ddb a53e 6f50 803b 284e 02bf 801c 2d3c
00000010: 9b28 4f3f 6f50 803b 6fa6 79be 80e9 013c
00000020: 4e4f 603f 6f50 803b 541e 23be 409c 163d
00000030: c5f2 5c3f 6f50 803b 89c8 433d 001c e43a
00000040: fe0e 5d3f 6f50 803b 7ffe 1a3e 80b2 b63c
00000050: 0c70 523f 6f50 803b c979 bf3e f898 bb3d
00000060: c053 1d3f 6f50 803b 2c36 ef3e 6090 f83c
00000070: 6358 093f 6f50 803b 0cea 0b3f 38ff 953d
00000080: c5af dd3e 6f50 803b e9c7 143f 88b7 ae3d
00000090: 1ddb a53e 6750 803b 17ab 05bf 00da c13c
000000a0: b2bc d83e 48a0 af3c 65bf 0abf f01a 3b3d
000000b0: 3d2c 593f 3863 c53d 46dc 88be f051 7d3d
000000c0: 3fae 713f 6ff5 e73d 5ad9 77bd 2076 c13d
000000d0: f0d3 573f 8a7d c33d da5f 173e 4087 2f3c
000000e0: d0dc 303f 7786 8c3d e127 d03e e01a d83c
000000f0: 1ddb a53e 6650 803b 0211 083f b02f 073d
00000100: b10b 583f 37d0 453e fc2e 8ebe 6021 b33d
00000110: a13d 533f 65d1 3e3e e04b 53bd 00e8 cb39
00000120: 9c8a 053f df64 9b3d ec7a 0a3f 188d 8c3d
00000130: 1ddb a53e 5c50 803b c5ce 173f d834 c13d
00000140: 0f29 fb3e 9905 cd3d e45d ffbe 8015 c73c
00000150: ca25 4f3f 0171 913e f774 25be 2035 573d
00000160: 472f 553f 9469 983e 1526 563d 60c3 6d3d
00000170: f474 ef3e bf0d ff3d 751d f9be c06a 533c
00000180: 28b3 1c3f 199e 7b3e 1f62 d4be 809f 2d3d
00000190: ec0b 2e3f 8deb 9a3e 4fc1 b4be 9038 7f3d
000001a0: 8641 433f 8183 be3e edab 243e 00fe 8c3d
000001b0: 1ddb a53e 4c50 803b 156f 153f 7842 ae3d
000001c0: 5867 c73e 3ef1 a73d df26 0cbf 40e9 5d3d
000001d0: 7975 003f 6f0e 5d3e 00e8 e5be 2087 8b3c
000001e0: 4a35 103f 1511 943e e142 d2be 10ed 253d
000001f0: 05d3 1b3f fdc0 af3e 2b63 acbe 8080 223d
00000200: 88b6 2b3f ef9f d53e 95a2 55bd a090 a93c
00000210: 00a0 263f 577f c93e 3491 803e 4022 453d
00000220: 1edb a53e 4050 803b c91b 16bf e8a4 b33d
00000230: 998a dd3e f2e8 443e 394b 10bf 80da cb3d
00000240: 20fa 0b3f f5a0 c73e 936e adbe e09d 443d
00000250: 14b8 143f 74e9 e53e 7525 84be 309c 7c3d
00000260: ea4a 1c3f e412 003f 5834 29be f89d a73d
00000270: 2880 113f 50c3 da3e 99e7 bb3e 085f cb3d
00000280: b4f1 bf3e a4c3 bc3d ba01 0b3f 9064 503d
00000290: 508e e83e fe42 b93e c607 d7be 40c1 7c3d
000002a0: d775 043f 6e17 093f e908 27be 38f5 a43d
000002b0: e494 073f cdaa 113f 9318 6dbd 90ad c33d
000002c0: acfd fd3e 6527 f43e 8e6a 7e3e 1044 5c3d
000002d0: 0879 e53e 75ca b03e 0dee ca3e a0c8 043d
000002e0: 0e15 c73e 4296 3a3e f6a8 f93e c056 ad3c
000002f0: 2512 af3e dd0f d93d 837e 0ebf 3849 893d
00000300: 564f b63e e7a3 3e3e 40b2 f5be 4025 723c
00000310: 6ee2 cf3e 605c f03e 8d3f 73be e00c e43c
00000320: c1f1 d53e 305d 093f 8bcc 1fbe 20a3 7b3d
00000330: 2ed7 d63e c1e7 0b3f c844 483d f016 533d
00000340: 3caf d83e 5722 113f bd5a 243e e8db bc3d
00000350: ee44 d03e 048b f23e 9457 b73e 505f c33d
00000360: 4863 be3e da21 8d3e 050f e33e 4011 b63c
00000370: 1edb a53e 4c27 443e 9b18 f9be a0aa c73c
00000380: 1ddb a53e 0711 063f 573a 153e 607f 383d
00000390: 1ddb a53e 234d 063f d5a4 833e 4845 af3d
000003a0: 1edb a53e 1460 9d3e 68d3 f93e 50d8 9f3d
000003b0: 5abe 693e 5fe7 0b3f efbb 22be 401c ae3d
000003c0: fe64 6c3e 2e25 083f a39b 423d c09c 4d3d
000003d0: 5876 723e 9f15 ff3e 3806 103e c02b 073d
000003e0: e262 863e 6a7a b43e a3b0 c53e 702d 053d
000003f0: 9a3d 943e f5cf 4b3e 9e5f 023f f019 543d
0.32393733 0.0039158384 -0.50900507 0.010565877 0.80921334 0.0039158384 -0.24379896 0.007929206
0.8762101 0.0039158384 -0.15929538 0.036770105 0.86307937 0.0039158384 0.047798667 0.0017403364
0.86351 0.0039158384 0.15136145 0.022301912 0.8220222 0.0039158384 0.37397602 0.09160036
0.6145592 0.0039158384 0.46721017 0.03034228 0.5365049 0.0039158384 0.54654 0.0732407
0.43298164 0.0039158384 0.5811754 0.085310996 0.32393733 0.0039158347 -0.5221419 0.02366352
0.42331463 0.021438733 -0.54198295 0.045679986 0.8483313 0.09638065 -0.26730555 0.06184572
0.94406503 0.113261096 -0.060510017 0.09446359 0.84307766 0.09545429 0.14782658 0.010713398
0.69086933 0.06861585 0.40655425 0.026380002 0.32393733 0.0039158342 0.5315095 0.033004463
0.8439284 0.19317709 -0.2777022 0.087466 0.82515913 0.18634565 -0.051586032 0.0003889203
0.52164626 0.07587599 0.54093814 0.06862849 0.32393733 0.0039158296 0.5929988 0.09433907
0.49054763 0.10010833 -0.4987632 0.024302244 0.80917037 0.28406528 -0.161579 0.0525409
0.83275265 0.2976805 0.05228241 0.058047652 0.46768916 0.12453794 -0.48655286 0.012903869
0.6121087 0.24572028 -0.4148111 0.04238844 0.6798694 0.30257836 -0.35303733 0.0623098
0.76271856 0.37209705 0.1608121 0.06884384 0.32393733 0.003915822 0.5837262 0.08508772
0.38946033 0.0820031 -0.5474681 0.054177523 0.5017925 0.21587537 -0.44903564 0.017032206
0.5633131 0.28919283 -0.4106665 0.040509284 0.60868865 0.34326926 -0.3366941 0.03967333
0.67075396 0.41723582 -0.052157003 0.020698845 0.6508789 0.39354965 0.2511078 0.048128366
0.32393736 0.0039158165 -0.58636147 0.08771688 0.43269804 0.19229487 -0.5636478 0.09953785
0.54678535 0.38989988 -0.33873424 0.048002124 0.5809338 0.44904673 -0.25809827 0.06167239
0.6105181 0.50028825 -0.16523874 0.08184427 0.56836176 0.42727137 0.36700132 0.09930235
0.37489092 0.09217003 0.5429951 0.050877154 0.45421076 0.36183923 -0.41998118 0.061707735
0.5174231 0.53551376 -0.16311993 0.08054584 0.52961564 0.56901246 -0.057884764 0.09554589
0.496076 0.47686306 0.24845335 0.053775847 0.44818902 0.34529462 0.39634743 0.032417893
0.3888325 0.18221381 0.4876172 0.02115953 0.3419353 0.10598729 -0.5566179 0.067034185
0.35607404 0.18617211 -0.47987556 0.014779389 0.4060244 0.46945477 -0.23754711 0.02783817
0.41786006 0.5365782 -0.1560537 0.061434865 0.41961044 0.54650503 0.04889372 0.051535547
0.42321193 0.56693023 0.16050239 0.09221631 0.4067759 0.47371686 0.35809004 0.09539664
0.3718512 0.2756489 0.44347396 0.022225022 0.32393736 0.19155616 -0.48651585 0.024373353
0.32393733 0.5236973 0.14573036 0.04504335 0.32393733 0.5246145 0.25711694 0.08558136
0.32393736 0.30737364 0.48794103 0.0780493 0.2282652 0.5464992 -0.15892003 0.08501482
0.230854 0.5318173 0.047511708 0.050198317 0.23677957 0.49821183 0.14064872 0.033000708
0.26247317 0.35249645 0.38611326 0.032514036 0.28953248 0.19903548 0.5092715 0.05178255

neg f4 [25000, 4]
00000000: 5a58 f83e 6f50 803b 0709 d6be f071 84bd
00000010: a494 2c3f 6f50 803b 6ecb c5be 0078 8ebb
00000020: 40bb 2f3f 6f50 803b 1a45 8dbe 0c40 9abd
00000030: 1844 583f 6f50 803b ae89 4ebd 90ae 84bc
00000040: 7d73 403f 6f50 803b a3ee 573e 90ae 6ebd
00000050: 1ddb a53e 6f50 803b 90a3 fc3e 405b a2bb
00000060: 9ef6 f03e 5af9 f33c b5f8 c5be 4018 c8bd
00000070: f456 213f c041 6d3d 72c9 afbe c8c9 7bbd
00000080: d2c8 533f 63c9 bd3d 3020 17be 4086 99bb
00000090: 3d1a 573f 9777 c23d a823 3e3d c08c 41bc
000000a0: 683a 433f 9e6e a63d f6e9 603e e810 19bd
000000b0: 9063 103f 546f 3d3d 767b c83e 8865 6cbd
000000c0: 8683 013f f777 133d 971b f33e 00ad 45bb
000000d0: 19e8 d23e 532d 9f3c a39c f33e 50f4 aebc
000000e0: 52a0 d13e ee7c 0f3d ac48 fabe c0cf febb
000000f0: 7a34 463f e7d6 2b3e 4c08 2d3d 20ea 5ebd
00000100: 756c 383f 85c6 173e 366d f13d 10c7 c4bd
00000110: 4456 273f 71cc fd3d a98f 863e 0437 b7bd
00000120: 9967 103f 7306 bb3d fd36 d23e e88d 0bbd
00000130: 3ecd d03e 5316 0d3d c360 f33e e000 afbc
00000140: f948 ce3e ffc5 4a3d 4bd7 fabe 4036 c5bb
00000150: 5bfc 213f 0396 3a3e 2efb 8abe 74c5 9cbd
00000160: 9a86 383f d2a3 6e3e 3ce0 6bbe c095 7abc
00000170: 13df 403f e6f4 803e 7f45 0e3e a04f 7fbc
00000180: 9cac 2a3f b4a6 4e3e 4398 473e 1030 b2bd
00000190: 7c1c 1b3f c5b5 2a3e 63c1 b53e f8d1 1fbd
000001a0: 13ab 0e3f 5ff9 0d3e c8b6 dd3e c09b bdbb
000001b0: 2a0d ef3e b10e b13d f90f d93e 88fd 61bd
000001c0: 1ddb a53e 5850 803b 1904 fc3e c017 cabb
000001d0: 1ddb a53e 5350 803b b2a4 f2be 10fa c7bc
000001e0: 04bd c63e b8c5 6c3d ffbb e6be e04a 38bd
000001f0: 3718 293f 159c 923e 6e3a 02be 3001 8cbd
00000200: cc07 283f e7d2 903e 490f 5b3e 1870 24bd
00000210: c606 153f dadc 613e a636 813e 8496 ccbd
00000220: 0005 083f cc34 363e abc2 de3e 00c6 72ba
00000230: c8fe e73e 7202 e63d 90c2 dd3e 20f6 32bd
00000240: 86ee 153f 7bb5 a13e 0dd5 51be fcd9 80bd
00000250: 714f 053f ea2e 743e 92da aa3e 7004 79bd
00000260: 9ede bb3e eb88 a03d b1a1 ecbe 10bb ffbc
00000270: 52c1 de3e 541d 493e 9ce5 b8be 907e a9bd
00000280: 4e41 0c3f 8797 c83e 3dd6 32bd a8d8 84bd
00000290: 81bb 0f3f 47a3 d43e 9473 2b3d 58ff 1bbd
000002a0: 145d fc3e 31d7 973e cbae bc3e 20b8 1dbc
000002b0: c0f6 e23e a8b1 573e 8b47 c43e 28e2 62bd
000002c0: 450c cf3e feb3 123e 3a8d d33e 98fa 78bd
000002d0: 1edb a53e 4e50 803b d011 cf3e c4b3 bfbd
000002e0: 6843 b43e fc5a a63d 9573 e2be 287b 4dbd
000002f0: 9624 f13e b3da d03e 166e 5dbe f0f3 d4bc
00000300: f8e2 f43e d723 db3e 4572 223d 38cf 61bd
00000310: e208 e53e 5596 af3e d063 8a3e 98e5 62bd
00000320: 2ea3 cb3e 169e 533e 644d b13e 2c28 c3bd
00000330: 07ad ba3e 5e29 703e 3cbf c2be d0a8 59bd
00000340: 37a8 ca3e fab6 d23e 3cd8 503e 4008 22bd
00000350: 1edb a53e 4650 803b 5ab3 dfbe 98f3 7abd
00000360: 1edb a53e a729 aa3d 0cf4 d9be c005 84bd
00000370: 1edb a53e 4716 a03e 8c83 aebe d87c 12bd
00000380: 1ddb a53e 5b37 fd3e da12 43bd 0039 cdba
00000390: 1ddb a53e 9f14 b63e 7be1 863e 48f2 63bd
000003a0: 1edb a53e 4563 373e 7068 e63e 40ee 65bc
000003b0: 1edb a53e 4746 bf3d cff9 f33e a0af 51bc
000003c0: 1edb a53e 4850 803b 9ef0 d23e 5c4b b0bd
000003d0: ff38 9e3e 762e b53d 1f43 ecbe 500d ddbc
000003e0: 80d7 763e 6eaa f23e 3001 3ebd e042 07bc
000003f0: bf78 843e 1956 bf3e 7913 903e f095 a8bc
0.48504907 0.0039158384 -0.41803762 -0.06467044 0.6741431 0.0039158384 -0.38631767 -0.004347801
0.68645096 0.0039158384 -0.27591783 -0.07531747 0.844789 0.0039158384 -0.05042427 -0.01619652
0.7517622 0.0039158384 0.21087126 -0.058271945 0.32393733 0.0039158384 0.49343538 -0.0049547255
0.47063154 0.029781986 -0.3866631 -0.0977025 0.63023305 0.057924032 -0.34333378 -0.06147173
0.827283 0.09266927 -0.14758372 -0.0046851933 0.8402441 0.09495466 0.046420723 -0.011813343
0.76260996 0.08126567 0.21964249 -0.03736964 0.5640192 0.04624875 0.39156693 -0.057714015
0.50591314 0.03600308 0.47481987 -0.003016293 0.411927 0.019430792 0.47580442 -0.021356732
0.40942627 0.03503125 -0.4888357 -0.0077762306 0.7742382 0.16781197 0.04224424 -0.054422498
0.7204049 0.14821823 0.117884085 -0.09608281 0.65366006 0.1239251 0.2628148 -0.0894604
0.5640808 0.091320895 0.41057578 -0.03407088 0.40781587 0.03444512 0.4753476 -0.021362722
0.4029005 0.04950523 -0.4899238 -0.00601843 0.6327569 0.18221287 -0.2714476 -0.07654849
0.72080386 0.2330468 -0.23034757 -0.015294492 0.75340384 0.25186843 0.13893698 -0.015582949
0.6666963 0.2018078 0.19491677 -0.087005734 0.6059034 0.16670902 0.35499105 -0.0390186
0.5572979 0.13864659 0.43303514 -0.005786389 0.4668973 0.0864538 0.42395 -0.055173427
0.32393733 0.0039158277 0.49221876 -0.006167382 0.32393733 0.0039158254 -0.47391278 -0.024411231
0.38816082 0.057805747 -0.45065305 -0.04499328 0.66052574 0.28634706 -0.12717602 -0.06836164
0.656369 0.28285906 0.2139255 -0.040145963 0.5821346 0.22056904 0.25237006 -0.09989646
0.5313263 0.17793578 0.43507895 -0.00092610717 0.4531157 0.11230935 0.43312502 -0.043691754
0.5856708 0.3158377 -0.20491429 -0.06291577 0.5207434 0.23846021 0.3336988 -0.060795248
0.3669328 0.07838615 -0.4621711 -0.031217128 0.43506867 0.19640094 -0.36112678 -0.08276093
0.5478715 0.39178106 -0.043661345 -0.064866364 0.56145483 0.4153082 0.04185827 -0.03808531
0.49289763 0.29656366 0.36852106 -0.009626418 0.4432888 0.21063864 0.38335833 -0.05539146
0.40439048 0.14326474 0.41318685 -0.06078586 0.32393736 0.003915823 0.40443277 -0.093604594
0.35207677 0.08122823 -0.44228807 -0.05016628 0.47098225 0.40791854 -0.21624026 -0.025995225
0.47829413 0.4280078 0.039659757 -0.05512926 0.4473334 0.34294382 0.27029276 -0.05539474
0.39772934 0.20665774 0.34629357 -0.095291466 0.36460134 0.2345328 -0.38036525 -0.053139508
0.39581463 0.41155225 0.20394987 -0.03955865 0.32393736 0.0039158193 -0.43691522 -0.061267465
0.32393736 0.08308726 -0.42569005 -0.06446409 0.32393736 0.31266996 -0.34084737 -0.03576359
0.32393733 0.49456295 -0.0476254 -0.0015657246 0.32393733 0.35562608 0.26343903 -0.05565098
0.32393736 0.17908962 0.45001554 -0.014033854 0.32393736 0.09339576 0.47651526 -0.01279822
0.32393736 0.0039158203 0.411992 -0.08608124 0.3090286 0.08846752 -0.4614496 -0.026983887
0.24105644 0.47395653 -0.04638785 -0.00825569 0.25873372 0.37370375 0.28139856 -0.020579308
