experiments/SlidingSphere2D/SdfSamples/slidingspheremodel2d_sphere_-0.80.npz (npz, 736025 bytes, 2 tensors)

pos f4 [25000, 4]
000000 9f f2 bd be 1a 21 c3 bb 43 a3 9a be 20 4b ca 3c
       -0.37099168 -0.0059548737 -0.30202684 0.024694026
000010 92 1d 85 be 1a 21 c3 bb da 35 82 be c8 81 c6 3d
       -0.25999123 -0.0059548737 -0.2543171 0.096927226
000020 46 29 85 be 1a 21 c3 bb df 80 82 3e 70 d7 c6 3d
       -0.26008052 -0.0059548737 0.25488946 0.0970906
000030 45 27 da be 1a 21 c3 bb a9 12 c2 3e c0 03 05 3d
       -0.42608085 -0.0059548737 0.37904862 0.03247428
000040 90 80 15 bf 1a 21 c3 bb 6c c5 f7 3e c0 9c f5 3c
       -0.58399296 -0.0059548737 0.48392808 0.02998197
000050 13 77 45 bf 1a 21 c3 bb 7c e9 05 3f e0 e2 c3 3c
       -0.7713482 -0.0059548737 0.52309394 0.023911893
000060 a2 c9 02 bf b6 b8 23 3d 55 8a da be 80 ec 8b 3c
       -0.5108892 0.039971076 -0.42683664 0.017080545
000070 63 37 ac be e6 e2 90 3d 56 9f aa be d0 4d 9a 3d
       -0.33636007 0.070745274 -0.3332469 0.07534373
000080 58 0b 8a be f8 fc a8 3d 4c 1b 40 bd a0 f4 1e 3d
       -0.2696178 0.08251375 -0.046901032 0.03880751
000090 ee 40 88 be 4a 40 aa 3d 15 fb 43 3d 60 c8 2d 3d
       -0.26612037 0.083130434 0.047846872 0.04242742
0000a0 ca 30 b3 be a4 f7 8b 3d 3f 7b 5a 3e 00 23 31 3b
       -0.3499816 0.06834343 0.21336077 0.0027028918
0000b0 13 77 45 bf 23 21 c3 bb bc 9b 10 3f 08 6b 86 3d
       -0.7713482 -0.005954878 0.5648763 0.06563383
0000c0 ec 0f 1a bf ea 5d 64 3d 5a 4b ee be c0 37 12 3c
       -0.60180545 0.055753626 -0.46541864 0.008924425
0000d0 bc d4 93 be 98 c6 2d 3e 87 c7 82 be 00 fd c4 3d
       -0.2887324 0.16970289 -0.25542852 0.096185684
0000e0 84 a0 80 be 50 c1 3b 3e 87 58 53 3d c8 aa a5 3d
       -0.25122464 0.18335462 0.051598098 0.080892146
0000f0 bc 64 ce be 50 25 03 3e ef 3e dc 3e f0 08 cb 3d
       -0.4031123 0.12807202 0.43016765 0.09913814
000100 13 77 45 bf 2c 21 c3 bb 33 41 13 3f a0 8f 9b 3d
       -0.7713482 -0.005954882 0.5752136 0.07595754
000110 e8 60 05 bf 65 e7 0d 3e 80 df ee be 40 ce 79 3d
       -0.5210099 0.13857801 -0.46654892 0.06098771
000120 2e bc f4 be 2a 55 27 3e 16 16 be be 20 aa 92 3c
       -0.4779982 0.16341081 -0.37126225 0.017903388
000130 00 d7 c7 be 58 2c 5b 3e 7a f5 a9 be 88 77 8d 3d
       -0.3903122 0.21403635 -0.33195096 0.069075644
000140 95 f3 c6 be f2 32 5c 3e 8f 0c 61 be c0 3c 5f 3c
       -0.38857713 0.21503809 -0.21977447 0.013625324
000150 04 46 cc be be 0d 56 3e 84 8f 5b 3e 00 60 01 3a
       -0.39897168 0.2090368 0.21441466 0.00049352646
000160 f1 71 f2 be 19 fa 29 3e 7e 4d c1 3e 00 04 d5 3c
       -0.47352555 0.16599311 0.37754434 0.026002884
000170 96 90 32 bf 76 5b 65 3d 7c e8 03 bf 60 1d e8 3c
       -0.6975187 0.055995427 -0.5152662 0.02833432
000180 2b 0f 04 bf 31 6e 55 3e e9 28 bb be 80 c2 fd 3b
       -0.51585644 0.20842816 -0.3655465 0.0077441335
000190 13 77 45 bf 43 21 c3 bb 3c 91 11 bf 70 14 8e 3d
       -0.7713482 -0.005954893 -0.56862235 0.06937492
0001a0 22 b0 33 bf c1 4a 9d 3d 84 de 13 bf 18 28 ba 3d
       -0.7019063 0.07680274 -0.57761407 0.090896785
0001b0 b4 43 f4 be f5 81 b0 3e 3a d9 b0 be b8 70 ae 3d
       -0.47707903 0.3447415 -0.3454073 0.08517593
0001c0 66 b5 f9 be 03 05 aa 3e ba ad 60 be 00 5d c1 3b
       -0.4877121 0.3320695 -0.21941271 0.005900979
0001d0 79 82 e3 be aa 79 c4 3e cb 87 14 3e e0 dd 2f 3d
       -0.4443548 0.38374072 0.14504926 0.042936206
0001e0 bd c6 f0 be 26 aa b4 3e 26 43 b5 3e b8 5b ca 3d
       -0.47026625 0.35286063 0.35402793 0.09880775
0001f0 13 77 45 bf 3f 21 c3 bb d9 ea 02 3f 80 6b 48 3c
       -0.7713482 -0.005954891 0.511396 0.012232661
000200 13 77 45 bf 44 21 c3 bb b1 10 04 bf 60 e1 88 3c
       -0.7713482 -0.0059548933 -0.5158797 0.01670903
000210 b6 4b 2d bf 4a 5a 21 3e 51 65 f9 be 40 63 d9 3c
       -0.6769365 0.15757099 -0.4871011 0.026536584
000220 cf a6 17 bf 64 a7 9b 3e c4 dc c8 be 10 9a 1b 3d
       -0.59238905 0.30401146 -0.3923093 0.037988722
000230 cd 78 05 bf 59 a1 da 3e 6f 58 11 be e0 b6 ef 3c
       -0.5213745 0.42701223 -0.14193891 0.029262006
000240 89 2e 0f bf 82 fe b8 3e 24 21 a4 3e d0 7f 22 3d
       -0.5593038 0.36131674 0.32056534 0.039672673
000250 13 77 45 bf 49 21 c3 bb 32 db 12 3f a8 60 98 3d
       -0.7713482 -0.0059548956 0.57365716 0.07440311
000260 13 77 45 bf 47 21 c3 bb b5 55 03 bf 40 17 63 3c
       -0.7713482 -0.0059548947 -0.51302654 0.013860524
000270 60 04 1d bf 1f 36 db 3e 04 75 b2 be e8 89 a9 3d
       -0.613348 0.4281473 -0.348549 0.08278257
000280 7e 4c 3c bf 75 d7 49 3e f6 2d 08 bf 50 4c 91 3d
       -0.7355422 0.19711097 -0.5319513 0.070946336
000290 33 be 2d bf c0 02 05 3f 17 29 1b be c0 d5 5f 3d
       -0.67868346 0.5195732 -0.15152393 0.054647207
0002a0 75 29 2d bf 4c 4e 08 3f 38 3d 4e bd a0 59 48 3d
       -0.67641383 0.5324447 -0.05035135 0.048913598
0002b0 13 77 45 bf 4c 21 c3 bb a4 f8 06 bf 60 ba e5 3c
       -0.7713482 -0.005954897 -0.52723145 0.028042972
0002c0 13 77 45 bf 33 fb 05 3f 04 1b 87 3e e8 d0 b1 3d
       -0.7713482 0.52336425 0.263878 0.08682424
0002d0 13 77 45 bf 4c 21 c3 bb 09 13 09 3f 80 76 14 3d
       -0.7713482 -0.005954897 0.5354467 0.036245823
0002e0 6f e2 49 bf f6 4f bc 3d 3b 11 08 bf 00 e8 21 3d
       -0.78861135 0.09194939 -0.5315129 0.039527893
0002f0 ab 87 4e bf da 89 47 3e 9a ab 06 bf c0 f7 79 3d
       -0.8067576 0.1948618 -0.52605593 0.06102729
000300 b0 ab 54 bf aa 6b a9 3e 5e f3 bf be 00 f6 81 3a
       -0.83074474 0.33089954 -0.37490362 0.0009915233
000310 73 5d 5f bf 70 5c 11 3f e1 65 5e 3d b8 98 99 3d
       -0.8725197 0.56781673 0.054296378 0.07499832
000320 c4 9f 51 bf 5a dd 86 3e 02 55 e2 3e 80 95 74 3c
       -0.8188441 0.26340753 0.4420548 0.014928222
000330 2f 71 4e bf d3 8b 45 3e d0 85 05 3f 60 f7 65 3d
       -0.80641454 0.1929162 0.52157307 0.05614412
000340 0c bb 56 bf 0c a6 37 3e 3e 3a 02 bf e0 0b 27 3d
       -0.8387916 0.17934436 -0.5087012 0.04078281
000350 fe d4 77 bf 7a db 08 3f a4 48 27 be e0 79 ab 3d
       -0.96809375 0.53459895 -0.16336304 0.08372855
000360 f3 6a 77 bf 22 b8 07 3f a4 46 57 bd e0 35 6e 3d
       -0.96647567 0.5301534 -0.052557603 0.058156848
000370 42 6a 7a bf 4a f4 0f 3f 8d cb 66 3d 20 91 bd 3d
       -0.97818387 0.5623213 0.056346465 0.09256196
000380 50 3b 6e bf 23 f6 dc 3e 8b b8 6d 3e 00 23 ea 3b
       -0.93059254 0.43156537 0.23214929 0.0071452856
000390 97 33 56 bf 60 d5 31 3e aa c8 fc 3e 20 00 ca 3c
       -0.8367247 0.17366552 0.49371845 0.024658263
0003a0 7b 11 5f bf 35 49 2b 3e 88 19 04 bf a0 03 41 3d
       -0.8713605 0.16727145 -0.5160146 0.047122598
0003b0 24 21 7c bf 58 50 ba 3e e3 f6 a4 be a0 eb a3 3c
       -0.9848807 0.36389422 -0.3221961 0.020009816
0003c0 53 20 87 bf 14 18 f9 3e d6 5c 25 be 00 2b 95 3d
       -1.055674 0.48651183 -0.16148695 0.07283592
0003d0 62 0e 88 bf 60 89 ff 3e 22 9c 5e 3d 58 ab 88 3d
       -1.0629389 0.49909496 0.05434812 0.06673306
0003e0 90 2d 85 bf 89 98 eb 3e f1 1f 1d 3e f0 83 29 3d
       -1.040453 0.46014813 0.15344216 0.04138559
0003f0 36 32 74 bf ff d4 9e 3e 29 34 cd 3e 20 0d f3 3c
       -0.95389116 0.31021878 0.40078858 0.029669344

neg f4 [25000, 4]
000000 13 77 45 bf 1a 21 c3 bb e3 49 f1 be 30 f2 e3 bc
       -0.7713482 -0.0059548737 -0.47126684 -0.027825445
000010 83 cc 2e bf 1a 21 c3 bb 87 59 f2 be a0 0e 4a bc
       -0.6828081 -0.0059548737 -0.4733393 -0.012332588
000020 80 4c f3 be 1a 21 c3 bb 83 2c a6 be 30 14 27 bd
       -0.47519302 -0.0059548737 -0.32455835 -0.040790737
000030 e1 b8 dc be 1a 21 c3 bb b8 b6 83 3e d8 b1 4d bd
       -0.431098 -0.0059548737 0.2572534 -0.050218433
000040 0c 94 11 bf 1a 21 c3 bb 14 c2 a7 3e f4 7a ca bd
       -0.56866527 -0.0059548737 0.32765257 -0.09886733
000050 13 77 45 bf 21 21 c3 bb 99 65 d3 be 90 4a b0 bd
       -0.7713482 -0.005954877 -0.4128845 -0.08607972
000060 c8 57 32 bf f2 74 ec 3b 93 96 cf be fc f7 a6 bd
       -0.69665194 0.0072160894 -0.40544567 -0.08152768
000070 0c af 1f bf ca 65 a4 3c a3 e6 c5 be a0 06 99 bd
       -0.62376475 0.020068068 -0.38652524 -0.07471967
000080 c0 ea ef be e7 45 42 3d ba 81 ac be 20 fc cc bc
       -0.46858788 0.047429945 -0.33692724 -0.025022566
000090 fa 26 be be 6a 3c 84 3d 6f 05 ec bd 48 ed 52 bd
       -0.37139112 0.064568356 -0.11524474 -0.05149582
0000a0 c9 f3 a9 be b2 7b 92 3d 74 50 02 3e a0 f1 1e bc
       -0.33193806 0.07152499 0.12726003 -0.009701163
0000b0 d7 d8 e1 be cf 1e 56 3d 3b d0 81 3e d0 74 6b bd
       -0.44110748 0.052275475 0.2535418 -0.057484448
0000c0 5b 2d 02 bf 9d 71 25 3d d9 0e 96 3e 04 68 ad bd
       -0.50850457 0.040391553 0.29308203 -0.08467105
0000d0 a3 c3 09 bf fd 09 10 3d 33 f9 c3 3e d0 f9 0e bd
       -0.5381414 0.035165776 0.3827606 -0.03490621
0000e0 b6 fd 19 bf c2 84 c4 3c 30 0f e4 3e e0 c2 40 bc
       -0.6015276 0.023989085 0.44542837 -0.011765212
0000f0 9d 78 31 bf e8 10 00 3c f0 5f d9 3e c8 95 7e bd
       -0.69324666 0.007816531 0.42456007 -0.06215456
000100 ae 18 31 bf 00 74 bc 3c 17 c1 e7 be 70 63 0b bd
       -0.69178283 0.023004532 -0.45264503 -0.034030378
000110 c7 4d 14 bf 52 f3 82 3d 71 d4 a8 be 68 e8 c8 bd
       -0.5793118 0.06394066 -0.3297458 -0.09809953
000120 5c 19 d0 be 7b e7 01 3e 10 20 12 bd e8 02 ae bd
       -0.40644348 0.12685959 -0.03567511 -0.08496648
000130 8d 64 e1 be 7c a1 ea 3d a4 fd 33 3e 10 08 ab bd
       -0.44022027 0.11456582 0.17577225 -0.08351147
000140 34 b5 ee be e5 3e d7 3d e3 67 7b 3e 44 8c 94 bd
       -0.46622622 0.10510043 0.24551348 -0.07253316
000150 8c 85 0c bf 37 9c 99 3d 65 e5 c3 3e d0 7e 14 bd
       -0.54891276 0.07500499 0.38260952 -0.03625375
000160 ce ed 1f bf ae 33 42 3d fc 60 ce 3e 60 2f 6d bd
       -0.62472236 0.047412567 0.40308368 -0.05790651
000170 77 ec 30 bf 02 77 be 3c 63 09 ea 3e 20 eb f1 bc
       -0.69110817 0.023250107 0.45710286 -0.029531062
000180 0b 3e e2 be ae af 3c 3e d4 21 0f bd 64 14 c4 bd
       -0.4418796 0.18426391 -0.03494437 -0.09574202
000190 0c 38 c4 be b3 5a 5f 3e b0 5b 2b 3d 00 5f e3 bc
       -0.3832401 0.21811943 0.041835487 -0.02775526
0001a0 b9 38 18 bf 84 c6 c4 3d 68 e8 a8 3e d0 2a cc bd
       -0.5946155 0.09608176 0.32989812 -0.09969103
0001b0 96 f7 21 bf 3f c3 97 3d 3e c5 d3 3e d8 6f 43 bd
       -0.6326841 0.07410287 0.4136142 -0.047714084
0001c0 f8 99 33 bf 65 a0 0c 3d 83 d9 dc 3e 30 56 66 bd
       -0.7015681 0.03433265 0.43134698 -0.05623454
0001d0 11 d6 15 bf 8d c3 19 3e be ac c8 be 50 e3 e9 bc
       -0.58529764 0.15016003 -0.39194292 -0.028550774
0001e0 3f 65 eb be 12 d1 82 3e 9c 15 4f be d0 ac ec bc
       -0.45975682 0.25550133 -0.20223087 -0.028890997
0001f0 cf 70 ef be 43 d8 7e 3e 62 60 e6 bd 60 05 8f bd
       -0.46765754 0.24887185 -0.11248852 -0.06983447
000200 32 45 f3 be fa 6a 78 3e b1 06 14 3d 84 59 be bd
       -0.4751373 0.24259558 0.036139194 -0.092944175
000210 27 6b fc be b5 10 69 3e 49 a5 8c 3e 80 76 f0 bc
       -0.493005 0.2276028 0.27469853 -0.02935338
000220 3f ae 26 bf 53 74 c2 3d 9b 9f cf 3e 78 56 6c bd
       -0.6510963 0.09494843 0.40551457 -0.05769965
000230 bb cc 33 bf 04 c7 54 3d 51 e2 f6 3e 80 03 ad bb
       -0.7023427 0.05194761 0.4821954 -0.0052799582
000240 56 0a 2a bf dc 45 f9 3d 29 1b dc be 50 4b 07 bd
       -0.6642202 0.12171528 -0.42989472 -0.033030808
000250 65 d1 07 bf 3c e3 8f 3e 59 ab d9 bd 5c 73 c5 bd
       -0.53053886 0.28103054 -0.10628385 -0.09641144
000260 28 00 05 bf 4f 9a 96 3e 61 6d 13 bd 00 61 bc bd
       -0.51953363 0.29414603 -0.035992984 -0.09198189
000270 80 a5 10 bf 80 b0 75 3e d9 6e b4 3e 40 50 58 bc
       -0.5650253 0.2399311 0.3524082 -0.013202727
000280 d1 ca 38 bf 89 41 59 3d 5b 18 d3 3e a0 be 9d bd
       -0.72184473 0.053041015 0.4122952 -0.077023745
000290 b6 1a 1d bf d7 c3 88 3e 47 84 73 be 30 20 c6 bd
       -0.6136888 0.26711914 -0.23780929 -0.09674108
0002a0 94 01 17 bf c6 e3 9d 3e 3b c1 38 be 6c 1d af bd
       -0.58986783 0.3083784 -0.18042462 -0.08550534
0002b0 3c 01 0d bf 10 89 c0 3e ba 27 26 bd d8 bf 40 bd
       -0.5508001 0.3760457 -0.04056523 -0.047057956
0002c0 78 6d 1c bf fa 1b 8b 3e d7 38 b4 3e b0 1c 8a bc
       -0.61104536 0.27169782 0.35199615 -0.016859382
0002d0 aa 7c 29 bf 9c bd 3b 3e 33 e7 b4 3e 44 35 a1 bd
       -0.6620585 0.18334049 0.3533264 -0.07871488
0002e0 29 10 3b bf 60 f0 83 3d cf bd de 3e 38 6b 60 bd
       -0.73071533 0.06442332 0.43504187 -0.05478975
0002f0 6c 87 3e bf 7f 42 8c 3d 86 d1 d8 be 10 12 8a bd
       -0.7442539 0.068486206 -0.42347354 -0.067417264
000300 00 e5 37 bf c0 0a 0f 3e c0 ae cc be 7c bf 8c bd
       -0.718338 0.13968945 -0.39977074 -0.0687246
000310 34 09 31 bf c7 6a 5a 3e 99 c7 c0 be f8 ab 5c bd
       -0.6915467 0.21329795 -0.3765228 -0.05387494
000320 f8 c0 2c bf 2c bd 84 3e 8c 5a 9e be f8 a2 9e bd
       -0.67481947 0.25925577 -0.30928457 -0.077459276
000330 cc ca 22 bf 3f 7a bb 3e 53 1f e6 bd 68 9e aa bd
       -0.63590693 0.36616704 -0.11236443 -0.08330995
000340 70 9d 1f bf a2 ef cc 3e bb 87 fc 3d c8 5d 3a bd
       -0.62349606 0.40026575 0.12330576 -0.045499593
000350 b1 4c 22 bf 32 2f be 3e 7a 1a 4d 3e 60 7b 3e bd
       -0.6339827 0.37145382 0.20029631 -0.04650438
000360 11 f7 24 bf 94 89 af 3e d8 ac 8f 3e 70 3b f9 bc
       -0.64439493 0.3428465 0.28061557 -0.03042385
000370 67 a7 36 bf 1c ad 1c 3e 89 b9 df 3e c0 a9 ed bc
       -0.71349186 0.15300411 0.4369624 -0.029011607
000380 da d9 3e bf ab 2e 85 3d c0 0f cf 3e 88 b9 b1 bd
       -0.74551165 0.06503042 0.40441704 -0.086779654
000390 13 77 45 bf 42 21 c3 bb ed a6 e5 3e a8 e0 4e bd
       -0.7713482 -0.0059548924 0.44853917 -0.050507218
0003a0 13 77 45 bf 43 21 c3 bb 97 86 e3 be 00 da 5f bd
       -0.7713482 -0.005954893 -0.4443862 -0.05465126
0003b0 2b 8c 41 bf 01 8c a5 3d 03 38 f1 be 80 95 a3 bc
       -0.75604504 0.08083344 -0.47113046 -0.019968748
0003c0 eb a4 3b bf f8 b0 58 3e a0 86 b6 be e8 ef a3 bd
       -0.7329852 0.21161258 -0.35649586 -0.08004743
0003d0 e8 0d 38 bf 6b 10 95 3e b7 46 a9 be 00 4b 55 bd
       -0.7189622 0.29114088 -0.33061764 -0.05207348
0003e0 c2 4d 34 bf 01 9b bf 3e 1d 1b 95 be c0 1d 85 bc
       -0.7043115 0.37422946 -0.29122248 -0.016249537
0003f0 74 b2 31 bf ea 2b dd 3e 64 e0 01 3e d8 a2 19 bd
       -0.6941292 0.43197566 0.12683254 -0.037508816
