experiments/SlidingSphere2D/SdfSamples/slidingspheremodel2d_sphere_-0.65.npz (npz, 40535 bytes, 2 tensors)

pos f4 [241, 4]
00000000: 180e 01bf 3016 3d3e 2005 9bbe e01b 72bc
00000010: 2681 4ebf 0081 98bb 3c98 c7be 806e 973c
00000020: 0ebc 39bf 00ba b3bd 9097 bb3e c022 88bc
00000030: 30d9 37bf 448d 873e 34aa a4be a041 af3c
00000040: c4e7 29bf b83c 7fbe 8081 91be 3039 b3bc
00000050: 6829 0fbf a84b 633e bc9d babe 38a8 183d
00000060: 4c41 1cbf 0890 9fbe 80c5 71bc 94dc adbd
00000070: 6883 7ebe e0d0 aabd 00fa dc3c a08a 7b3c
00000080: e019 27bf e866 a33e f018 6e3e 802b a8bb
00000090: 6c1e 2abf a024 61bd 8866 ba3e d0bd 01bd
000000a0: 4837 73bf e88e 943e 206f 5f3e 5c7e 8b3d
000000b0: bccb 07bf 5802 b4be 00e0 473e b0ba aa3c
000000c0: 94bf bbbe 2469 89be 7878 99be 04f5 c13d
000000d0: 4c47 46bf 6800 dcbe c0d0 003d 7078 413d
000000e0: be77 3dbf d831 babe 9c01 8a3e c089 783d
000000f0: 76c8 21bf f08f 30be e0c6 c1be 003e 873c
00000100: b61a 41bf 300b 343e 9490 dc3e 885f 9b3d
00000110: 64c5 abbe e834 573e 54dd 8c3e 1403 913d
00000120: 6ec8 17bf 040d d63e f82b 4b3e bce7 883d
00000130: 3282 28bf 28e8 a8be 0837 9c3e d03a 4a3d
00000140: d24c 75bf e074 b2bd 7094 a2bd 8018 98bd
00000150: 50a0 07bf a026 4e3d 14a7 e8be 1056 973d
00000160: 280d f6be 9019 b83e 30f1 1cbe 6013 e43c
00000170: 2c0e 18bf c0ce 3dbe 68de 9ebe a04b 09bd
00000180: 8c4c 3cbf b406 af3e f03b 0d3e b0ff b8bc
00000190: 006c 14bf c048 ba3c bc82 c8be 00cc 2bba
000001a0: b446 7dbf 400d 26be 60e0 803d b0f1 b9bc
000001b0: d8e0 94be a018 023e d0a0 763e f8cd 5e3d
000001c0: 2805 5bbf eccf 8c3e a0e2 0d3d d0ea 6bbd
000001d0: 7820 e8be d48f bbbe f023 f1bd 8019 0c3d
000001e0: fcfe 7ebf 8054 553d e090 873e 607c 103d
000001f0: 0ae5 4ebf 1865 57be 841c 82be 68d5 13bd
00000200: 5cb4 69bf 909c 97be 789c 743e 784f 753d
00000210: d09b 5cbe 30cf cabd 10fd 5abe 846d c93d
00000220: aa32 02bf 907b a43d 98a2 83be a0c7 bfbd
00000230: 183f 19bf 80b4 943e 6cc9 a3be 7024 123d
00000240: 5c20 52bf 1447 87be c849 3bbe 2071 1cbd
00000250: 78ad 0cbf a040 debe f001 07be 687b 863d
00000260: 007e 71bf 8050 afbd c80b 81be 80b3 edbb
00000270: 5c59 7ebf 0092 db3b 2052 4dbd 9077 6abd
00000280: 38f3 69bf 8889 8c3e ac85 9c3e dcd0 af3d
00000290: b01b c8be 70c5 47be e001 3bbe 9035 c9bc
000002a0: e8b0 2ebf 28ac fabe 006e 183d 60ff bb3d
000002b0: 2211 1fbf b8bb 443e e0eb 893e 242d 8abd
000002c0: 307e 09bf ecf0 93be 1402 8e3e 407b 8e3c
000002d0: e06c e9be 7c87 9b3e 6406 963e 7c1f 883d
000002e0: ae2d 03bf c0f4 77be 60f0 85be d010 85bc
000002f0: e60e 68bf 0494 85be e06d 55bd 589d 09bd
00000300: 5c78 e8be 448f c93e 0006 fcbb d071 2b3d
00000310: 3272 0fbf 80d9 6cbe ac0b bd3e 4872 3b3d
00000320: dc50 55bf 00f1 38be 9c9e d0be 1c3b a43d
00000330: 6c86 b0be a019 823e 7887 623e 1039 6c3d
00000340: 8abd 04bf b0c7 923e 7021 853d 8cd7 9bbd
00000350: 3ed9 50bf c4d0 d33e a0e4 d3bd 200b 653d
00000360: 347b 9abe c0fd c9bd d8f9 a43e 1000 b43d
00000370: 1eed 5dbf e05e 223e 6871 82be 509f 04bd
00000380: 8ca2 b6be 900a a2be 104d 473e 6c06 9c3d
00000390: e619 0fbf 6096 d7be 08d4 453e 7c8e 953d
000003a0: 8427 26bf c8f9 b23e d8f3 82be 50e2 073d
000003b0: 5e53 73bf 80ef 403d 78d3 7a3e 604d 54bc
000003c0: 08be a2be a86a a63e 2803 253e 1474 c23d
000003d0: 34a1 3abf fca1 a33e d000 e4bd a004 5bbd
000003e0: e039 febe e0a0 64bd 78a6 a73e b0c1 03bd
000003f0: 70c2 61bf 0864 033e 30f4 2e3e f842 b4bd
-0.5041213 0.18465495 -0.30277348 -0.014777154 -0.80665815 -0.00465405 -0.38983333 0.018485308
-0.72552574 -0.08775711 0.3663907 -0.016618133 -0.71815777 0.26474965 -0.32161105 0.021393597
-0.6636927 -0.24925506 -0.28419113 -0.021877855 -0.55922556 0.2219683 -0.36448467 0.0372698
-0.61037135 -0.31164575 -0.01475656 -0.084893376 -0.24854815 -0.08340621 0.026974678 0.015352875
-0.6527386 0.3191445 0.232517 -0.0051321387 -0.6645267 -0.05496657 0.3640635 -0.03167516
-0.9500623 0.2901528 0.21819735 0.068112105 -0.5304525 -0.35158038 0.19519043 0.020840973
-0.366696 -0.26838028 -0.29974723 0.09470561 -0.7745254 -0.4296906 0.03144908 0.047234
-0.7401084 -0.36366153 0.26954353 0.060678244 -0.63196504 -0.17242408 -0.37847042 0.016509056
-0.7543138 0.17582393 0.43079054 0.075865805 -0.33549035 0.21016276 0.2751261 0.07080665
-0.59290206 0.41806805 0.19840991 0.06684825 -0.6582366 -0.3298962 0.30510736 0.049372494
-0.95820343 -0.087136984 -0.079384685 -0.07426548 -0.5297899 0.050329804 -0.4543997 0.07389462
-0.48056912 0.35957003 -0.1532638 0.02784127 -0.59396625 -0.185359 -0.31029058 -0.033519387
-0.735543 0.34184802 0.13792396 -0.022582859 -0.57977295 0.022739768 -0.39162242 -0.00065535307
-0.9893601 -0.16215992 0.06292796 -0.022698253 -0.29077792 0.12704706 0.24084783 0.054395646
-0.8555474 0.27502382 0.034639955 -0.05759698 -0.45337272 -0.3663317 -0.11774433 0.034204006
-0.99607825 0.05208254 0.26477718 0.035274863 -0.80818236 -0.21034658 -0.2541238 -0.036092192
-0.9129083 -0.29611635 0.23887813 0.05989024 -0.21543813 -0.09902799 -0.21385598 0.098353416
-0.5085856 0.0803138 -0.25709987 -0.09364247 -0.598619 0.2904396 -0.3198961 0.03567928
-0.82080626 -0.26421416 -0.18289864 -0.038193822 -0.5495219 -0.4340868 -0.13184333 0.065665066
-0.94332886 -0.08560276 -0.252043 -0.007254064 -0.993551 0.006700754 -0.05012715 -0.05724293
-0.9138675 0.27448678 0.30570734 0.08584759 -0.39083624 -0.1950891 -0.18262434 -0.024561673
-0.6823869 -0.4895947 0.03721428 0.09179568 -0.6213552 0.19212234 0.2693777 -0.06746891
-0.5370817 -0.28894746 0.2773596 0.017392755 -0.45590878 0.30376804 0.2930175 0.0664663
-0.51241577 -0.24214458 -0.26159954 -0.016243368 -0.90647733 -0.2608949 -0.052106738 -0.03359732
-0.45404327 0.39367115 -0.007691145 0.041856587 -0.56033623 -0.23129845 0.36922967 0.045763284
-0.83326507 -0.18060684 -0.4074601 0.08019087 -0.34477556 0.25410175 0.2212199 0.057671607
-0.51851714 0.28667974 0.06500518 -0.07609472 -0.81581485 0.41370213 -0.10346341 0.055918813
-0.30172122 -0.09862852 0.32221866 0.087890744 -0.8668994 0.15856504 -0.25477147 -0.032378495
-0.35670888 -0.31648684 0.19462991 0.076184124 -0.5589889 -0.42106915 0.19319165 0.07302567
-0.64904046 0.34956193 -0.25576663 0.033174813 -0.95049083 0.047103405 0.24494731 -0.012957901
-0.31785607 0.32503247 0.16114485 0.094947964 -0.72902226 0.31959522 -0.111329675 -0.053471208
-0.4965353 -0.055817485 0.32744193 -0.032167137 -0.88187313 0.12831128 0.17085338 -0.08801836

neg f4 [2500, 4]
00000000: 4ccd c3be 56b6 0f3f 7211 593f f416 273f
00000010: 9243 13bf d228 0ebf 44f4 af3e 3f04 843e
00000020: ecae 4f3f 9c46 a5be 565c 3b3f dd8a a23f
00000030: 7c5f 2cbf a0c6 40bf ac20 d73e 47d0 ec3e
00000040: e028 42be fe81 033f 7e21 473f ac45 243f
00000050: 74bf bfbe 4ea3 18bf 6072 4a3e 1155 933e
00000060: 2a92 163f 8030 103e 1c80 1ebf fada 7e3f
00000070: e8f7 cfbe d0de 67bf c087 c6bd 7a4e 0b3f
00000080: b425 1ebf c08f a83c f0b7 e1bd 9562 90be
00000090: b004 7e3f f8bc d8be 6428 913e cb72 a93f
000000a0: 8e8c 18bf 40bb 4b3f 1801 b6be 2379 f23e
000000b0: 405e 8c3e 0025 31bc 602b 293e 8e18 0b3f
000000c0: 708d a4bd bc26 133f 7862 ab3e 671b f53e
000000d0: f4ed 75bf e4ee 67bf 7a23 40bf 44cf 503f
000000e0: a44b 3bbf 165d 5f3f e24c 53bf 64b4 4d3f
000000f0: fcee 4b3f 62d9 62bf ca6e 57bf 6fa3 bf3f
00000100: 286b 76be 26e1 4c3f 588e 2b3f de0f 393f
00000110: 209c 7f3e 08ca 053f 5ab1 6bbf 3c02 7e3f
00000120: ccfa ffbe c605 2bbf 00a1 3abd 9d0e 933e
00000130: dc99 eb3e 3452 e43e 5ed7 443f 7d4a 833f
00000140: ece9 e33e 1cd6 c93e a257 573f fd0f 853f
00000150: bc93 593f 94bd 7ebf 0067 60bd dec9 b33f
00000160: 5260 153f 00ff 833d 00e3 8cbb 92f8 563f
00000170: 4865 0cbe 0a4a 54bf b0dd f13d 9ea5 153f
00000180: 54d4 3e3f 3231 0abf b8f3 d6be 983b 943f
00000190: 10d9 babd a082 c7be 88ec 3fbe cbc9 9e3e
000001a0: fc09 203f b06c 9bbd 9478 1c3f ee95 823f
000001b0: 5e1a 453f 9e3d 35bf 92d2 5ebf 26e6 b43f
000001c0: a496 913e 4a55 20bf cc8f c6be b81b 4b3f
000001d0: 90a9 73be 68a0 363f 502b 273e f159 e23e
000001e0: f0a6 c0be 6800 843e 2635 033f 2659 733e
000001f0: 1856 e63e 9053 853d b88c 5f3f 7a35 813f
00000200: c80b a93e c487 51bf 3cc7 813e ecc1 673f
00000210: a063 b43d 48e3 e93e 6858 bfbe ee70 0c3f
00000220: 4cf1 293f 98fa 033f d0a8 afbd 3454 823f
00000230: a2ae 57bf 62f5 70bf ac87 19bf 6c56 3b3f
00000240: 2a81 62bf 0000 b4b9 804d 103c e4a9 2dbe
00000250: 3008 cd3e eaac 5f3f 2cda 29bf 679f 8f3f
00000260: b4d2 a8be 5e4d 743f 6879 e7be 226e 343f
00000270: 68cd 2f3f c6ad 70bf baa9 07bf 8028 a93f
00000280: d294 113f 3e3e 19bf 9cfe 35bf 0170 913f
00000290: e0e0 d53e 0e22 113f aa85 1a3f 9c6e 743f
000002a0: 0eed 1e3f cc3f 783f d44f 5a3f bd1d b53f
000002b0: 30e0 0f3f c0df dbbc d0bb b53e e618 5e3f
000002c0: d025 d4bd 96a2 10bf ee9a 4ebf c08f 3a3f
000002d0: e6d3 593f 9e2d 1bbf 78ab 823e 3315 9f3f
000002e0: 2246 7dbf 2004 aebe 02b3 0b3f f551 a63e
000002f0: b0a2 19be d01b b9be cc4a 413f 72d1 133f
00000300: 80f7 edbd 42f8 143f 7252 4cbf d094 393f
00000310: cc3d 3d3f 10a2 66bf ec18 60bf 98f7 bc3f
00000320: 1cf5 353f 580e b1be a049 40bd e12d 813f
00000330: a87f 023f 5ae8 203f e41c e43e 5402 7f3f
00000340: ea56 4b3f c6e7 633f 3804 7ebe 7ac4 a83f
00000350: 7065 0a3f c423 9b3e a03b 75bf 9fa7 943f
00000360: 98dc 40be ccaa 42bf 1880 ff3e 5c3f 1f3f
00000370: 2ee4 13bf 4c2e 763f febe 27bf d225 443f
00000380: be61 2bbf be15 68bf 42da 4d3f ded8 4f3f
00000390: 54c5 d7be 7490 e43e 36e7 48bf 2c50 083f
000003a0: a8b1 04bf 1caa d0be b868 ec3e 6a4a 6c3e
000003b0: a654 67bf 4a72 543f 1cb2 933e 5c61 033f
000003c0: 7a53 303f 4424 fa3e 503a b63d 2a1e 843f
000003d0: a2a3 2bbf 2cb6 0abf 2433 13bf cdcc c73e
000003e0: 0852 733e 380d 6cbf e403 a63e 3462 6c3f
000003f0: 60e7 30bd 1cb5 bdbe 0831 71be f991 b43e
-0.38242567 0.561376 0.84792244 0.652694 -0.5752498 -0.55531037 0.34366047 0.2578449
0.81126285 -0.32280433 0.7318777 1.2698628 -0.673332 -0.7530308 0.42017114 0.46252653
-0.18960905 0.5137023 0.7778548 0.6416881 -0.37450755 -0.59624183 0.19770193 0.28775838
0.5881678 0.14081001 -0.6191423 0.9955288 -0.40618825 -0.9057436 -0.09693861 0.5441662
-0.6177628 0.020576358 -0.110214114 -0.28200212 0.992259 -0.42331672 0.28351128 1.3238157
-0.5958947 0.79582596 -0.3554771 0.47358045 0.27415657 -0.010812044 0.16520452 0.5433434
-0.080347896 0.5748098 0.33473563 0.4787247 -0.9606621 -0.90598893 -0.7505413 0.8156626
-0.73162293 0.8725141 -0.8253919 0.8035338 0.79661536 -0.8861295 -0.84153426 1.4971751
-0.24064314 0.8003105 0.67014074 0.72289836 0.249619 0.522614 -0.9206749 0.9922216
-0.4999603 -0.66805685 -0.045563698 0.28722087 0.46015823 0.44593966 0.76891124 1.0257107
0.44514406 0.39421165 0.8411809 1.0395504 0.8499105 -0.99508023 -0.05478573 1.404598
0.583501 0.06445122 -0.0042995214 0.8397304 -0.1371051 -0.82925475 0.11809862 0.58455837
0.74542737 -0.53981316 -0.41982818 1.1580687 -0.09123433 -0.38966846 -0.18742573 0.3101333
0.62515235 -0.0758909 0.6112149 1.0202005 0.7699336 -0.70797145 -0.87040055 1.4132736
0.28435242 -0.6263014 -0.38781583 0.7933917 -0.23795152 0.7133851 0.16325116 0.44209245
-0.37627363 0.2578156 0.51252973 0.23764476 0.4498756 0.06510079 0.87324095 1.0094445
0.330168 -0.81847787 0.25347316 0.90530276 0.088080645 0.45681214 -0.37372136 0.5485982
0.66383815 0.5155425 -0.0857712 1.0181947 -0.84250844 -0.94124424 -0.59972644 0.73178744
-0.8847834 -0.00034332275 0.00880754 -0.1695934 0.4004531 0.8737322 -0.6634853 1.1220521
-0.32973254 0.9543055 -0.45209813 0.7048055 0.686728 -0.9401516 -0.5299336 1.3215485
0.56867707 -0.598606 -0.7109163 1.1362306 0.41773129 0.5669259 0.60360205 0.95481277
0.62080467 0.96972346 0.8527806 1.41497 0.5620146 -0.02684009 0.35494852 0.8675674
-0.10358775 -0.56498086 -0.80705154 0.72875595 0.85088956 -0.6061648 0.25521445 1.2428344
-0.9893514 -0.33987522 0.5457002 0.32484403 -0.15003467 -0.36154032 0.75504756 0.57741463
-0.116194725 0.5819131 -0.798133 0.72492695 0.7392242 -0.9009104 -0.8753803 1.476306
0.7107713 -0.34581256 -0.046945214 1.0092126 0.5097604 0.6285454 0.44553292 0.9961293
0.79429495 0.89025533 -0.24806297 1.318496 0.5406103 0.30300725 -0.95794106 1.1613654
-0.1883415 -0.76041865 0.49902415 0.62206054 -0.5777005 0.96164393 -0.65525806 0.7662021
-0.6694602 -0.90658176 0.8041116 0.8119029 -0.42142737 0.4464146 -0.784778 0.5324733
-0.5183358 -0.40754783 0.46173644 0.23075262 -0.9036354 0.8298689 0.28846824 0.51320434
0.68877375 0.48855793 0.08897841 1.0321705 -0.6704656 -0.5418422 -0.5749991 0.39023438
0.23761761 -0.9220767 0.32424843 0.92337346 -0.043189406 -0.37052238 -0.2355386 0.35267618
