experiments/SlidingSphere2D/SdfSamples/slidingspheremodel2d_sphere_0.07.npz (npz, 735568 bytes, 2 tensors)

pos f4 [25000, 4]
00000000: e38a 833d 8363 863a 6dfd 06bf 403f e03c
00000010: da68 2d3e 8363 863a 2128 0fbf 6839 8a3d
00000020: 2f3a 8a3e 8363 863a 8d29 07bf 984b 823d
00000030: 6c72 113f 8363 863a 33c2 7dbe 90f7 5c3d
00000040: 33ef 163f 8363 863a 0188 873e e047 a53d
00000050: 0ed4 f43e 8363 863a 32a5 a13e 0057 633c
00000060: 1874 da3e 8363 863a de26 cd3e a0d3 0d3d
00000070: 3c3e 883e 8363 863a ec31 063f 808e 703d
00000080: 3fcf 243e b01a 943c d3b2 05bf 207d f53c
00000090: 009a d13e 5a7a 7d3d b73e c3be c09c 4b3c
000000a0: 4d73 113f 7814 b83d 59dd 80be 28df 803d
000000b0: 91ba 203f c5a1 cd3d 46f8 653d 280a 893d
000000c0: d282 d53e 107f 813d 69c9 ca3e 0029 ea3c
000000d0: ac7c 233e 4b76 123d 0046 0abf f09f 453d
000000e0: b852 da3e 9009 083e 5be0 d6be a87b 843d
000000f0: 18ba d53e 0db1 043e beb2 d43e 60e7 613d
00000100: 94cb b63e b059 dc3d 409f 013f 287e b93d
00000110: 7227 253e a0e3 143d 593d 0e3f 80ae 823d
00000120: 72ed ed3e d6cf 6d3e 8999 68be c0f8 143c
00000130: 774e 093f 1a16 8c3e f22a 42bd 6092 253d
00000140: a798 083f 2944 8b3e f972 5a3d 00c7 1a3d
00000150: 892b 0c3f 9464 8f3e edc8 253e 50a7 983d
00000160: ec79 963e f5d4 083e 95e3 dc3e 0071 3d3b
00000170: 4856 623e d4c7 073e 3377 06bf 8097 7c3d
00000180: 0481 ca3e 06da 8e3e a69d a5be 300f 113d
00000190: 5834 e53e 8b41 a53e 9108 7cbe 3054 573d
000001a0: df2f 023f 0d69 bf3e f464 4fbd d882 9c3d
000001b0: 6449 e73e d200 a73e 4b91 163e c0ba ad3c
000001c0: b35d 123e 955a 893d 5a80 0d3f a0af 7a3d
000001d0: e48a 833d e562 863a fc12 0cbf f075 413d
000001e0: 4434 093e 525c ac3d 88d3 13bf 20ac b13d
000001f0: 0521 9d3e a997 943e 036f d2be 5021 613d
00000200: 8021 c23e 85b0 c03e fea1 76be 1038 2b3d
00000210: 46df c03e 8330 bf3e 0fd2 103e 0026 f13a
00000220: 908a c03e 8dcb be3e 568b 7a3e 9092 203d
00000230: 269b b83e 9d56 b53e c9d6 b33e 8072 9b3d
00000240: 8277 973e 33d8 8d3e 44f5 cb3e 607d 0b3d
00000250: 20a3 3c3e d079 133e 974b f83e 40a8 933c
00000260: e48a 833d e362 863a 8905 0f3f 509d 703d
00000270: 8f5f 993e 3737 d13e ed61 b4be 10a5 ae3d
00000280: 78bc b43e 0a4e 003f d214 25be b07f c53d
00000290: 718d 943e a9dd c83e 7591 693e 008e 513b
000002a0: 3daa 2a3e 2cbb 363e 812d 083f d814 8d3d
000002b0: f454 e83d 06ac b03d 3197 073f 905a 1c3d
000002c0: e58a 833d bd62 863a 56fa 0ebf 20ea 6f3d
000002d0: 6f89 7a3e 3d58 fe3e af84 16be 60c7 3b3d
000002e0: 0fc8 263e 6049 8b3e 8915 f03e 20fe 4a3d
000002f0: 45a0 0a3e 8137 493e 6842 0a3f e0fb 9f3d
00000300: 5e20 ff3d a8be af3e 1894 c1be 4094 593c
00000310: ca80 233e 25d4 0a3f 96f2 1cbe 48ca 8f3d
00000320: 6c4b 1c3e be9b 003f 9679 34bd 409a 2d3c
00000330: d5b1 1e3e dd02 043f 5818 533d 6089 ca3c
00000340: 2e32 a43d 6b49 bb3d 7b14 fd3e 0095 333b
00000350: e38a 833d 136f 093f 4e03 87be c811 c93d
00000360: e38a 833d 86e6 013f 59ba 163e e0bc e83c
00000370: e38a 833d a821 ec3e c7d2 6d3e 00b1 863c
00000380: e58a 833d 3da5 4b3e 6389 033f 80ff 503d
00000390: cc82 e03c 2fe6 563e 9455 0bbf 0044 ae3d
000003a0: 88b0 343c 6501 9b3e f7bf fbbe 904d a53d
000003b0: ecfd 9dbc 9107 f33e 2150 0f3e 00a1 5b3b
000003c0: 381d 09bc 3654 d33e be3d a33e e0e5 e33c
000003d0: e78a 833d b262 863a 5aa6 113f 9054 8d3d
000003e0: e78a 833d cf62 863a 44e5 01bf 80ff f43b
000003f0: 60b5 79bb 8c79 403e 8fa9 02bf 20ce 493d
0.06422975 0.0010253045 -0.5273045 0.02737391 0.16934529 0.0010253045 -0.55920607 0.067492306
0.26997516 0.0010253045 -0.52797776 0.063620746 0.5681522 0.0010253045 -0.24781112 0.05394703
0.5895874 0.0010253045 0.2647095 0.0807035 0.47818035 0.0010253045 0.31571347 0.013875723
0.42666698 0.0010253045 0.40068716 0.03462565 0.2660998 0.0010253045 0.52419925 0.05872965
0.16094683 0.018079132 -0.5222599 0.02996689 0.40937805 0.06188426 -0.38133785 0.012427509
0.5681656 0.08988279 -0.25168875 0.06292564 0.6278468 0.10040621 0.056144975 0.0669139
0.4170137 0.063230634 0.3960679 0.028584003 0.15965527 0.035757344 -0.5401306 0.04824823
0.42641234 0.13284898 -0.41968045 0.06468898 0.4174354 0.12958165 0.4154262 0.055152297
0.35702193 0.10759294 0.5063362 0.090572655 0.16128328 0.036349893 0.5556236 0.063809395
0.4647022 0.23223814 -0.22714819 0.00909251 0.5363535 0.27360612 -0.047404237 0.040422797
0.5335793 0.2720044 0.053332303 0.037787437 0.5475393 0.28006423 0.16189928 0.07453787
0.29389894 0.13362487 0.4314238 0.0028906465 0.22103226 0.13259822 -0.52525634 0.06166792
0.39551556 0.27900714 -0.3234684 0.035414875 0.44766498 0.32276568 -0.24612643 0.05257052
0.50854295 0.37384835 -0.050633386 0.07642144 0.4517318 0.32617813 0.14703862 0.021207213
0.14293556 0.0670673 0.55273974 0.061202645 0.06422976 0.0010252862 -0.5471647 0.047231615
0.13398844 0.08416046 -0.57744646 0.08675408 0.30689254 0.29021958 -0.4110032 0.05496341
0.37916183 0.37634674 -0.24085233 0.041801512 0.37670344 0.373417 0.14142631 0.0018398166
0.37605715 0.37264672 0.24467215 0.039202273 0.3605587 0.35417643 0.35124806 0.075901985
0.29583365 0.2770401 0.3983556 0.034055114 0.18421602 0.14401937 0.4849517 0.018024564
0.06422976 0.0010252859 0.5586782 0.058743775 0.29955718 0.40862438 -0.3523096 0.08527577
0.3530004 0.5011908 -0.16121224 0.09643495 0.2901416 0.39231613 0.22809394 0.0031975508
0.16666503 0.17844838 0.53194433 0.06888741 0.113443285 0.08626561 0.52965075 0.038172305
0.064229764 0.0010252815 -0.5585073 0.05857289 0.2446649 0.49676695 -0.14699052 0.045844436
0.16287254 0.27204418 0.4689143 0.04955876 0.135377 0.1965008 0.5400758 0.07811713
0.124573454 0.34325147 -0.378083 0.013279974 0.15967098 0.54229957 -0.15326914 0.07021004
0.15263146 0.50237644 -0.044061266 0.010595858 0.15497525 0.5156687 0.051536888 0.024723709
0.080173835 0.09144863 0.49429688 0.0027402043 0.06422975 0.5368511 -0.2636971 0.09817845
0.06422975 0.50742376 0.14719523 0.028410375 0.06422975 0.46119428 0.23224936 0.016441822
0.064229764 0.19887252 0.5138151 0.051024914 0.027406119 0.20986246 -0.54427457 0.08509064
0.011028416 0.302745 -0.49169895 0.080714345 -0.019286118 0.4746671 0.1399541 0.0033512712
-0.008368783 0.41275185 0.31883043 0.027819574 0.06422978 0.0010252802 0.5689446 0.06900895
0.06422978 0.0010252836 -0.50740457 0.007476747 -0.0038102493 0.18796366 -0.51039976 0.04926884

neg f4 [25000, 4]
00000000: 364e a73e 8363 863a 8280 d7be 4030 09bc
00000010: e38a 833d 8363 863a 0b22 df3e c44b 83bd
00000020: e38a 833d 6563 863a d930 edbe 5026 16bd
00000030: f299 da3e 2c16 853d e2d0 8cbe 38e8 3fbd
00000040: a65d e73e e816 8e3d 1600 dfbd 34b2 cbbd
00000050: 9279 0e3f f7e1 b33d d5fd 30bd 401d d1bb
00000060: 04ad dd3e 4c41 873d 565c 923e a007 11bd
00000070: 60e3 8c3e bd8c 1c3d eeb6 b23e 18e9 c1bd
00000080: 2786 643e 1dfb ed3c 06e4 d63e c8e6 59bd
00000090: c9d6 0f3e b50b 6d3c ada0 d53e 3ccb 9dbd
000000a0: e48a 833d 6963 863a 9f12 cf3e 0c86 c3bd
000000b0: 0471 503e 13e9 533d 6e5c c2be d0e1 c2bd
000000c0: 804a e53e 7605 103e 5bf6 4cbe 80b2 55bd
000000d0: f2bd f33e 718a 1a3e c497 19bd 34b5 8abd
000000e0: c86c c53e 42a6 f13d 80d2 853e d4ce 9abd
000000f0: e38a 833d 4763 863a 4fe5 ee3e 3883 08bd
00000100: 77f1 453e 06b8 9a3d 4e62 c3be 64e7 bdbd
00000110: 84a8 b43e dcae 2b3e 0295 b9be 40ba 47bc
00000120: 4a12 d23e 7da5 4d3e 1ae9 98be 8022 d7bb
00000130: 2ec2 4e3e dae5 a43d 6eb5 d33e 3835 73bd
00000140: b9d3 033e b7bf 1c3d 389c cd3e 68e8 bdbd
00000150: 8a65 073e dfe3 6d3d ab83 f1be e033 acbc
00000160: 1f01 7e3e 09ff 1e3e 35d5 c4be 0029 4cbd
00000170: 185c a13e b0a7 583e 6c60 b6be a0af a3bc
00000180: 6e30 c73e f811 8c3e afae 2d3d 941e a3bd
00000190: 940b b33e b755 763e fe32 413e a024 b3bd
000001a0: bab7 aa3e 0c5c 683e d777 893e 3859 7fbd
000001b0: 1e77 8b3e 6ce9 333e 3736 9a3e 5016 c9bd
000001c0: d2b4 833e 06e4 263e 12f0 d13e 5012 b2bc
000001d0: e48a 833d 1f63 863a 10cd d43e 8c9d acbd
000001e0: 88ba 5f3e d34b 3d3e c4d8 c4be e877 49bd
000001f0: e58a 833d ee62 863a 6ef3 e8be 2810 38bd
00000200: 522b d43d d0bf 8d3d 5010 d6be a8ca 99bd
00000210: e342 703e 43a3 973e c15c 853e fcd5 96bd
00000220: 12e8 3b3e 2898 543e 4bd9 c63e d8fd 3bbd
00000230: e58a 833d e962 863a 142b f43e b0ad bcbc
00000240: 7a01 ba3d 7bbc 973d f15e d3be a435 a4bd
00000250: e4ff e93d 92cc 0d3e fdb8 bfbe 94f0 c9bd
00000260: a6ea 103e fe7f 5a3e d645 b9be 5033 98bd
00000270: 3353 3e3e 19a1 ab3e 34e9 87be 4053 6cbd
00000280: 6a57 553e 763f cb3e 5aa8 53be e07e 04bd
00000290: db7f 6b3e eaaf e93e 8930 2bbd 8008 7dbc
000002a0: 5625 243e 7baa 873e 9d59 9f3e 48e3 a7bd
000002b0: 7f12 a03d 56e6 a33d 0622 dabe 6823 88bd
000002c0: e069 c33d 4e2a 363e d1c4 ebbe c0de bebb
000002d0: bd43 d43d ddf2 653e 9c19 babe 7cb4 92bd
000002e0: da93 0b3e 29d0 d13e 403d f83d d02b 8bbd
000002f0: ea7d 053e 668e c03e b660 453e a87e 96bd
00000300: 47d0 fb3d 390c ab3e 5b5a 843e c8ce 98bd
00000310: bb7b d13d dd0f 5e3e fad1 b63e d447 a6bd
00000320: e68a 833d e162 863a a95d e23e d8bb 6cbd
00000330: e68a 833d eb62 863a c531 cdbe 0409 cbbd
00000340: e48a 833d bcd3 873e 49ed d8be 00c0 2cb8
00000350: e48a 833d cf01 b33e 9a30 85be 7858 83bd
00000360: e38a 833d b68d e43e 8a4a 1cbd e892 54bd
00000370: e48a 833d ded4 d83e 4619 2d3d 4c31 98bd
00000380: e58a 833d 0be6 583e bde5 af3e 203f c5bd
00000390: e68a 833d cf62 863a 4c81 f7be 604c 87bc
000003a0: 80f8 5abc 10d6 e13e c259 363d 5835 46bd
000003b0: 0818 7d3c 652c 8e3e 1e5f 9f3e 04b3 a1bd
000003c0: d080 1c3d f629 183e 30a3 c73e b481 a6bd
000003d0: 265b 34bd 69d1 983e 712f b0be b0bd f3bc
000003e0: 3ed7 bdbd f545 dd3e 96dd 083e 802d 96bc
000003f0: a24c a6bd 781a cd3e 95ff 5b3e f079 a4bc
0.32676858 0.0010253045 -0.4209023 -0.00837332 0.06422975 0.0010253045 0.4358066 -0.064109355
0.06422975 0.001025301 -0.4632633 -0.03665763 0.42695576 0.064983696 -0.27503115 -0.04685232
0.45188636 0.06937963 -0.10888688 -0.09946099 0.5565425 0.08783334 -0.043210823 -0.0063816607
0.43296063 0.06604251 0.28586072 -0.035407662 0.27517223 0.038220156 0.3490519 -0.09468287
0.223168 0.029050404 0.41970843 -0.053198606 0.14046778 0.014468123 0.41724148 -0.077047795
0.06422976 0.0010253015 0.40443894 -0.09547052 0.20355612 0.05173595 -0.37961143 -0.095157266
0.447834 0.14064583 -0.20015852 -0.052172184 0.47605854 0.15091874 -0.03749825 -0.06772843
0.38559556 0.11799289 0.2613716 -0.075589806 0.06422975 0.0010252976 0.46659324 -0.033328265
0.19330393 0.07554631 -0.38160938 -0.0927265 0.35284817 0.16765922 -0.36246496 -0.012190402
0.41029578 0.2008266 -0.29865342 -0.006565392 0.20191261 0.08051653 0.41349357 -0.059376925
0.12873735 0.03826877 0.40158248 -0.092728436 0.13222328 0.058078643 -0.47170767 -0.02102083
0.24805115 0.15526976 -0.38443914 -0.04984379 0.31515574 0.21157718 -0.3562044 -0.019981205
0.38904136 0.2735746 0.04240292 -0.07964817 0.3496977 0.24056135 0.18867108 -0.0874722
0.33343297 0.22691363 0.26849243 -0.062340945 0.27239317 0.17569512 0.30119488 -0.09818709
0.25723892 0.16297922 0.41003472 -0.021737248 0.06422976 0.0010252929 0.415627 -0.08428487
0.218485 0.18485956 -0.3844663 -0.049186617 0.064229764 0.0010252872 -0.45498222 -0.044937283
0.10359825 0.06921351 -0.4180932 -0.07509357 0.23463015 0.29616746 0.26047328 -0.07365033
0.18350247 0.20761168 0.38837656 -0.04589638 0.064229764 0.0010252866 0.47689116 -0.02303204
0.09082313 0.07408997 -0.41283372 -0.08018044 0.114257604 0.13847569 -0.37445822 -0.0986034
0.14152011 0.21337888 -0.36186093 -0.07431662 0.18586425 0.33521345 -0.26545107 -0.05769658
0.20834127 0.39696854 -0.2066969 -0.03234756 0.22997992 0.45642024 -0.041794334 -0.015443921
0.16029868 0.26497254 0.31123057 -0.08197647 0.07816028 0.080029175 -0.42604083 -0.06647378
0.095416784 0.17789575 -0.46048597 -0.0058248937 0.103644826 0.22455926 -0.36347663 -0.07163331
0.1363062 0.40979126 0.121210575 -0.06795466 0.13036314 0.3760864 0.19275174 -0.073483765
0.12295585 0.33407763 0.25850186 -0.074613154 0.10228678 0.21685739 0.35707074 -0.08119169
0.06422977 0.0010252857 0.44212082 -0.05779633 0.06422977 0.0010252869 -0.40077034 -0.09913829
0.06422976 0.26528728 -0.42368534 -4.118681e-05 0.06422976 0.34962317 -0.26013643 -0.064133584
0.06422975 0.44639367 -0.038157023 -0.051897913 0.06422976 0.42349905 0.04226043 -0.07431278
0.064229764 0.21181504 0.34354964 -0.09631181 0.06422977 0.0010252836 -0.48340833 -0.01651591
-0.013364911 0.4410863 0.044519193 -0.048390716 0.015447624 0.27768245 0.31127256 -0.07895473
0.038208783 0.14859757 0.3899169 -0.08130208 -0.04403224 0.29847267 -0.34411195 -0.029753536
-0.0926957 0.43217435 0.13365778 -0.018332243 -0.08120085 0.40059257 0.21484216 -0.020077676
