experiments/SlidingSphere2D/SdfSamples/slidingspheremodel2d_sphere_0.22.npz (npz, 40820 bytes, 2 tensors)

pos f4 [262, 4]
0.5289744 -0.23610413 -0.05413878 -0.0059591234 0.4232117 -0.07322121 -0.3694142 0.028795362
0.42463434 0.19247878 0.32789528 0.032649994 -0.053465724 -0.22152865 0.23086238 0.019719869
0.22549951 0.17567754 -0.35424745 -0.004516244 0.17594802 0.27514362 0.3786788 0.069984406
0.5459317 -0.098626375 -0.054357767 -0.053442776 0.07995343 -0.39132655 0.06432676 0.019977957
0.25927114 0.32276964 -0.03515017 -0.07273236 0.13527453 0.036539793 0.48038244 0.08885178
-0.15335155 -0.22085345 0.017984152 0.03259301 0.4465313 0.14103973 0.17966008 -0.0770241
0.19986618 -0.26195347 -0.29033244 -0.008530974 0.28265512 0.35794258 -0.04396355 -0.033649743
-0.05009365 -0.29378474 -0.25661194 0.07342464 0.2736882 -0.29718208 -0.20044589 -0.037264973
0.32731247 -0.15577233 -0.35482812 0.0025885105 0.24060869 0.31230402 -0.032396555 -0.08522025
0.25684154 -0.44877887 0.20407677 0.09451428 0.27369 0.14911163 -0.46522677 0.091682196
0.04380715 -0.29141045 0.34060693 0.08097783 0.49919093 0.1777649 0.16631019 -0.028213024
0.07093072 -0.3870902 0.080949664 0.02198881 0.4969833 0.10973036 0.3583237 0.06708339
-0.13891292 0.23269665 0.1805898 0.06290069 0.3396486 0.2107997 -0.18052864 -0.09704575
0.016495347 0.13289237 0.43402612 0.096705645 0.34597147 -0.20727313 0.42664003 0.09123728
0.4322437 -0.31997085 0.18128288 0.025520056 0.49956834 -0.15796673 0.17822397 -0.031359762
0.6164876 0.0030696392 -0.19011855 0.041363776 0.14713073 -0.09654868 -0.42540884 0.041975766
-0.068801165 -0.13553643 -0.12104595 -0.06032151 0.075185776 0.4675058 -0.020486593 0.08931509
0.27737057 0.47378087 0.0026227236 0.07747096 0.07514465 -0.34961712 -0.08617592 -0.012549281
0.31575298 0.15765965 -0.3017646 -0.045826912 0.5269127 0.2156235 0.11449349 -0.0064050257
-0.043927908 0.10420692 0.13983083 -0.08517745 0.4150468 0.038915753 0.28121376 -0.054527223
0.13875437 -0.228225 0.23484099 -0.06303465 0.10185671 -0.39887846 -0.20107388 0.061591
0.48801243 -0.3524958 -0.15022933 0.06864771 0.31278026 -0.47854865 -0.09335029 0.09666079
0.46522236 -0.35332143 0.0077667236 0.031190634 0.62873805 -0.25608325 -0.060770273 0.0876762
0.48425603 0.13623524 -0.396428 0.09649843 -0.0067323446 -0.04314959 0.36840534 0.033786535
0.023541331 -0.18553579 -0.18671405 -0.07263082 0.40273368 0.16413677 0.23531139 -0.058867007
0.5025679 -0.2758906 0.2752186 0.08242753 0.41959321 -0.2153914 -0.31258607 0.029732525
0.42668474 -0.16744268 -0.1752423 -0.08028078 0.13370097 0.071716785 -0.39194107 0.00730592
0.4497167 0.18211913 0.36124563 0.06612679 0.318169 -0.013741255 0.39864492 0.011222601
0.26321793 0.22062182 0.27136993 -0.04737571 0.009823799 0.36856282 -0.2151494 0.074911445
-0.09450042 0.20107937 0.03153503 -0.02690813 -0.110994816 -0.2553866 0.052451253 0.019917488
0.07454395 0.14772129 0.2893225 -0.044808626 0.50711095 0.35644865 0.16305566 0.0869526
0.38983834 0.27549636 -0.16832769 -0.034352064 0.22022927 0.35397887 0.29710805 0.06214547
00000000: de6a 073f 48c5 71be a0c0 5dbd c044 c3bb
00000010: 34af d83e 00f5 95bd dc23 bdbe 40e4 eb3c
00000020: ac69 d93e 2819 453e e4e1 a73e 00bc 053d
00000030: e0fe 5abd 68d8 62be 3067 6c3e 908b a13c
00000040: 58e9 663e d0e4 333e ec5f b5be 00fd 93bb
00000050: b82b 343e a0df 8c3e 30e2 c13e fc53 8f3d
00000060: 2ec2 0b3f a0fc c9bd 40a6 5ebd d0e6 5abd
00000070: a0be a33d f45b c8be c0bd 833d d0a8 a33c
00000080: 30bf 843e 1042 a53e a0f9 0fbd b4f4 94bd
00000090: 6885 0a3e c0aa 153d b0f4 f53e ecf7 b53d
000000a0: 3008 1dbe 6827 62be 8053 933c 4080 053d
000000b0: c09f e43e b86c 103e d0f8 373e d0be 9dbd
000000c0: b8a9 4c3e c41e 86be 74a6 94be 80c5 0bbc
000000d0: 2cb8 903e 4044 b73e 2013 34bd 50d4 09bd
000000e0: 002f 4dbd f46a 96be a462 83be a85f 963d
000000f0: dc20 8c3e 4028 98be b041 4dbe 28a3 18bd
00000100: 8095 a73e c882 1fbe 08ac b5be 00a4 293b
00000110: 2062 763e 50e6 9f3e 40b2 04bd f487 aebd
00000120: bc80 833e 58c6 e5be 80f9 503e b490 c13d
00000130: 1821 8c3e b8b0 183e 3432 eebe e0c3 bb3d
00000140: 206f 333d c033 95be 0864 ae3e b4d7 a53d
00000150: f495 ff3e 0008 363e 384d 2a3e 001f e7bc
00000160: 2044 913d b030 c6be f0c8 a53d e021 b43c
00000170: 9874 fe3e 50ba e03d 3476 b73e 0463 893d
00000180: 303f 0ebe 0848 6e3e 88ec 383e 14d2 803d
00000190: 6ce6 ad3e e0db 573e 80dc 38be ecbf c6bd
000001a0: 4021 873c f014 083e ac38 de3e 9c0d c63d
000001b0: 2c23 b13e 683f 54be 9070 da3e 9cda ba3d
000001c0: 0c4f dd3e 38d3 a3be 38a2 393e 700f d13c
000001d0: 6cc7 ff3e 08c2 21be 5880 363e 1873 00bd
000001e0: 22d2 1d3f 002c 493b 70ae 42be 106d 293d
000001f0: 70a9 163e 50bb c5bd 30cf d9be c8ee 2b3d
00000200: a0e7 8cbd 10ca 0abe f0e6 f7bd b013 77bd
00000210: 00fb 993d ec5c ef3e 80d3 a7bc d4ea b63d
00000220: 8403 8e3e 6893 f23e 00e2 2b3b 18a9 9e3d
00000230: 70e5 993d 0401 b3be 007d b0bd 809b 4dbc
00000240: 60aa a13e 8871 213e e480 9abe 00b5 3bbd
00000250: c0e3 063f 68cc 5c3e 907b ea3d 40e1 d1bb
00000260: c0ed 33bd 706a d53d d02f 0f3e 8471 aebd
00000270: 0481 d43e 2066 1f3d 40fb 8f3e f057 5fbd
00000280: a015 0e3e d0b3 69be 287a 703e 5018 81bd
00000290: 409a d03d cc39 ccbe 50e6 4dbe d846 7c3d
000002a0: c4dc f93e 547a b4be b8d5 19be 2c97 8c3d
000002b0: bc24 a03e 5404 f5be 702e bfbd 18f6 c53d
000002c0: a031 ee3e 8ce6 b4be 0080 fe3b 8083 ff3c
000002d0: faf4 203f 581d 83be 40ea 78bd 948f b33d
000002e0: 68f0 f73e 4081 0b3e 9cf8 cabe f8a0 c53d
000002f0: 009b dcbb a0bd 30bd a09f bc3e c063 0a3d
00000300: c0d9 c03c 18fd 3dbe f831 3fbe 78bf 94bd
00000310: 1c33 ce3e 7813 283e 78f5 703e 881e 71bd
00000320: 4aa8 003f 8841 8dbe 74e9 8c3e c4cf a83d
00000330: ecd4 d63e 908f 5cbe 480b a0be a091 f33c
00000340: 6c76 da3e 1876 2bbe b872 33be 406a a4bd
00000350: e8e8 083e 40e0 923d 80ac c8be 8066 ef3b
00000360: 4441 e63e 707d 3a3e 30f5 b83e 7c6d 873d
00000370: 0ce7 a23e 0023 61bc 301b cc3e 00df 373c
00000380: 80c4 863e b0ea 613e 00f1 8a3e 080d 42bd
00000390: 00f4 203c 44b4 bc3e 2050 5cbe 2c6b 993d
000003a0: 7089 c1bd c0e7 4d3e e02a 013d 706e dcbc
000003b0: 4051 e3bd 08c2 82be 20d7 563d 002a a33c
000003c0: 80aa 983d 4044 173e 1422 943e 4089 37bd
000003d0: 06d2 013f 7080 b63e 10f8 263e 3414 b23d
000003e0: e498 c73e dc0d 8d3e 185e 2cbe c0b4 0cbd
000003f0: c883 613e b83c b53e 8c1e 983e 408c 7e3d

neg f4 [2500, 4]
0.8965881 0.22416615 0.5199312 0.48363677 -0.123583436 -0.57343936 -0.41844738 0.387867
0.9215729 -0.5385994 0.011752605 0.48599455 0.2550032 0.37053955 0.9874779 0.6553521
-0.7987883 0.29099524 -0.8849666 0.9791565 0.08204198 0.601441 0.90247107 0.69303226
0.7975172 -0.7447572 0.52938235 0.6819142 0.076081276 0.7793052 0.20663059 0.41866073
0.12041044 0.6191969 -0.4168676 0.3528231 -0.76594806 -0.21987474 -0.76049316 0.8630148
-0.59086907 -0.28290355 -0.1545223 0.47090468 -0.21354067 0.28106427 0.52921903 0.3385487
0.052722335 -0.8151504 -0.02063179 0.43202922 0.7660029 -0.74597836 0.43747437 0.6237067
0.023067474 0.014479876 -0.91996217 0.5405369 0.60377336 -0.6315874 -0.61505413 0.56222403
0.9754 -0.9977623 0.5323483 0.96099365 -0.5794145 0.053838134 0.2852323 0.44877318
-0.029502988 -0.94649184 0.3448255 0.637352 -0.8977407 0.755054 0.98961043 1.2717412
-0.6020951 0.14008582 0.33404517 0.49669644 0.9999715 0.296427 0.5389364 0.59474444
0.21427333 -0.7535347 0.50278974 0.5058849 -0.9108982 0.7055721 0.69314957 1.1010364
0.7118585 0.054372907 -0.5371499 0.33157578 0.14388299 -0.85861254 -0.9921024 0.9141549
-0.8642174 0.8932409 -0.13608813 1.0099602 0.83163834 0.07413304 0.46516204 0.37343404
0.11159265 0.35368454 -0.68621707 0.37932524 -0.7718359 -0.50156915 -0.81251585 0.9754596
-0.29300058 0.14742434 0.62180316 0.41834012 0.15120924 0.86746955 -0.9252434 0.8700646
0.54975367 -0.32689154 -0.35941672 0.18819925 -0.45132506 0.26283288 0.8809346 0.7372627
0.94098556 0.69530237 0.3698752 0.6689707 0.97393584 0.09823835 0.49248064 0.5073874
0.7664366 -0.010441184 0.73595273 0.51777923 -0.7200637 -0.6250222 -0.4384904 0.809641
0.4833305 -0.61853623 -0.02387619 0.2733951 0.8969077 -0.42170024 0.36269462 0.47752336
0.25661743 -0.68956435 -0.15345645 0.30747804 -0.15967226 -0.6518581 0.99764645 0.8501965
-0.65031517 0.985422 -0.24451232 0.9360876 0.5366198 -0.6981814 -0.9636651 0.8318727
0.91451764 -0.21839643 -0.38585806 0.42551014 0.98511934 -0.8077601 -0.9670415 1.0750724
-0.8743799 0.16355515 -0.89348936 1.0208324 0.41255128 0.074240446 -0.12155306 -0.15903056
0.66634977 -0.52862716 0.27723956 0.3464335 -0.34187722 0.516749 0.041119695 0.36314252
-0.88903856 -0.3091545 -0.02822876 0.7499176 0.917369 0.057493806 -0.60717 0.5278058
-0.749238 0.9085705 -0.40859222 0.9886502 -0.46110153 0.79459643 0.33237267 0.69694173
-0.08511257 0.5507878 -0.9516965 0.74064934 0.68389094 -0.8579364 -0.10047507 0.58134353
-0.31560612 0.7216865 -0.9907793 0.9369385 0.5076724 -0.9935374 0.5866982 0.789595
0.45542276 -0.94793224 -0.63175 0.7636008 -0.27046764 0.9868382 0.95670664 1.0587376
-0.20932949 0.44518363 -0.7774509 0.5926653 0.34644592 -0.9795687 0.555889 0.7335869
-0.32990527 -0.15337038 0.30603158 0.2462022 -0.28289163 -0.88024604 -0.0072414875 0.6128969
00000000: cc86 653f d08b 653e 361a 053f 3d9f f73e
00000010: 5019 fdbd eccc 12bf bc3e d6be 8196 c63e
00000020: 34ec 6b3f a6e1 09bf 008e 403c 47d4 f83e
00000030: c88f 823e 5cb7 bd3e 5acb 7c3f 28c5 273f
00000040: 647d 4cbf 54fd 943e 2c8d 62bf 00aa 7a3f
00000050: a005 a83d 0af8 193f 5808 673f 906a 313f
00000060: 162a 4c3f 68a8 3ebf 9a85 073f ee91 2e3f
00000070: 80d0 9b3d 8c80 473f f896 533e b35a d63e
00000080: c099 f63d b083 1e3f ac6f d5be 3ba5 b43e
00000090: 2c15 44bf d826 61be aeaf 42bf 8aee 5c3f
000000a0: 3243 17bf bcd8 90be 183b 1ebe 6b1a f13e
000000b0: 68aa 5abe a8e7 8f3e e67a 073f 4156 ad3e
000000c0: 60f3 573d b2ad 50bf 0004 a9bc ef32 dd3e
000000d0: c418 443f 70f8 3ebf a4fc df3e 3eab 1f3f
000000e0: 00f8 bc3c 003d 6d3c a482 6bbf a060 0a3f
000000f0: e490 1a3f b6af 21bf 3074 1dbf eaed 0f3f
00000100: d0b3 793f 5a6d 7fbf fa47 083f ae03 763f
00000110: 8254 14bf 6085 5c3d f809 923e 99c5 e53e
00000120: 40b0 f1bc 4a4d 72bf f88c b03e 8029 233f
00000130: 56d2 65bf 384b 413f 1c57 7d3f 6ac8 a23f
00000140: e822 1abf a872 0f3e f807 ab3e ff4e fe3e
00000150: 22fe 7f3f 48c5 973e bcf7 093f 2c41 183f
00000160: 786a 5b3e a6e7 40bf d4b6 003f ac81 013f
00000170: a030 69bf 60a0 343f 4072 313f c3ee 8c3f
00000180: 5c3c 363f 20b6 5e3d a882 09bf 4dc4 a93e
00000190: 1056 133e 08ce 5bbf 6cfa 7dbf 0e06 6a3f
000001a0: 5a3d 5dbf 70ab 643f b05a 0bbe 6046 813f
000001b0: 40e6 543f 10d3 973d b829 ee3e bf32 bf3e
000001c0: b08a e43d 2416 b53e ecab 2fbf eb36 c23e
000001d0: 0a97 45bf d666 00bf 0a01 50bf b8b7 793f
000001e0: 2c04 96be 68f6 163e 7e2e 1f3f ad30 d63e
000001f0: 98d6 1a3e 7c12 5e3f c0dc 6cbf 8ebc 5e3f
00000200: a8bc 0c3f 545e a7be 7805 b8be 4eb7 403e
00000210: 1414 e7be 0892 863e ee84 613f 40bd 3c3f
00000220: 6ee4 703f 56ff 313f 4860 bd3e aa41 2b3f
00000230: dc53 793f 3031 c93d 6c26 fc3e 24e4 013f
00000240: 3035 443f 8011 2bbc 6667 3c3f 2e8d 043f
00000250: 1856 38bf 7401 20bf d081 e0be a244 4f3f
00000260: 1877 f73e 6458 1ebf 0098 c3bc 71fa 8b3e
00000270: be9b 653f 18e9 d7be 1cb3 b93e f17d f43e
00000280: 5c63 833e 4a87 30bf b023 1dbe c36d 9d3e
00000290: 2081 23be 2ce0 26bf c265 7f3f 7aa6 593f
000002a0: 0e7b 26bf 9e44 7c3f 7061 7abe 70a3 6f3f
000002b0: ea5f 093f 04bc 32bf c2b2 76bf 9cf5 543f
000002c0: d41d 6a3f 50a3 5fbe 308f c5be 77dc d93e
000002d0: c830 7c3f 5ec9 4ebf 0890 77bf f99b 893f
000002e0: 5cd7 5fbf 007b 273e b8bb 64bf a3aa 823f
000002f0: ec39 d33e 600b 983d d0f0 f8bd e8d8 22be
00000300: e695 2a3f 1c54 07bf 58f2 8d3e bb5f b13e
00000310: 880a afbe aa49 043f 206d 283d d1ed b93e
00000320: 0898 63bf 8049 9ebe 0040 e7bc 9afa 3f3f
00000330: b2d8 6a3f a07e 6b3d 7e6f 1bbf 481e 073f
00000340: 10ce 3fbf 1498 683f 0033 d1be 2e18 7d3f
00000350: 8015 ecbe ac6a 4b3f c02c aa3e c66a 323f
00000360: 804f aebd 6e00 0d3f 62a2 73bf 329b 3d3f
00000370: 7a13 2f3f b8a1 5bbf e0c5 cdbd eed2 143f
00000380: 2097 a1be 72c0 383f b6a3 7dbf 34db 6f3f
00000390: d2f6 013f 7858 7ebf da31 163f e622 4a3f
000003a0: 2c2d e93e b0ab 72bf 5eba 21bf 587b 433f
000003b0: bc7a 8abe 6ea1 7c3f baea 743f b784 873f
000003c0: 785a 56be 1cef e33e 0607 47bf eab8 173f
000003d0: 5c61 b13e 04c5 7abf be4e 0e3f 5acc 3b3f
000003e0: 58e9 a8be 200d 1dbe 2cb0 9c3e 6e1c 7c3e
000003f0: 2cd7 90be ce57 61bf 004a edbb d0e6 1c3f
