experiments/SlidingSphere2D/SdfSamples/slidingspheremodel2d_sphere_0.07.npz (npz, 42677 bytes, 2 tensors)

pos f4 [398, 4]
000000 2c f6 df 3e 44 59 da 3e b0 8c a3 3d a8 c9 88 3d
       0.43742502 0.4264623 0.079858184 0.06679088
000010 40 df 0c 3f 00 79 d7 3c 90 5b 5e 3e a0 f6 ce 3c
       0.5502815 0.026302814 0.21714616 0.025264084
000020 08 24 ae 3e fc 58 86 3e 00 5f 49 be 44 78 9d bd
       0.34011865 0.26239765 -0.19665146 -0.076889545
000030 58 68 8e be 80 29 70 3e 80 3b 16 3d 0c 6a 9c bd
       -0.27813983 0.23453331 0.036677837 -0.07637414
000040 c8 c6 3e be f8 80 9b be e0 c6 c3 bd 8c 5e b7 bd
       -0.18630517 -0.30371833 -0.09559417 -0.0895358
000050 08 63 48 be b4 a7 bb 3e 00 e1 a2 bc 48 71 39 bd
       -0.19569027 0.36651385 -0.019882679 -0.04527405
000060 90 9d 41 be f8 65 aa 3e 98 8a 91 be 40 f7 23 3c
       -0.18907762 0.3328092 -0.2842605 0.010007679
000070 28 46 05 3e c8 d2 a4 3e 80 7c f2 3e b0 ae 9a 3d
       0.13015044 0.32192063 0.4736061 0.0755285
000080 9c 4e 09 3f 68 c9 5f 3e 14 e4 82 be 18 09 95 3d
       0.53635573 0.21854174 -0.25564635 0.07277125
000090 c8 67 65 3e 2c d8 e4 be d8 c1 75 3e c0 da f0 3c
       0.2240287 -0.44696176 0.23999727 0.029401183
0000a0 c0 fa 4b be 94 96 d6 3e f0 95 3b be f0 99 03 3d
       -0.19919872 0.41911757 -0.18318915 0.032129228
0000b0 88 9d b7 be 40 7f ce bc c0 ac e7 3c 50 31 89 bd
       -0.35862374 -0.025207162 0.028280616 -0.06698859
0000c0 30 98 83 bd 68 89 1e be 38 47 be 3e 2c 10 99 bd
       -0.06425512 -0.15482104 0.3716371 -0.07473788
0000d0 ea 69 13 3f 88 6c 93 3e 60 7b d0 bd 50 58 b5 3d
       0.5758349 0.2879374 -0.10179782 0.08854735
0000e0 50 f5 08 be a0 a9 ba be 10 1e 28 3e 08 cb 4c bd
       -0.1337483 -0.3645754 0.16417718 -0.049998313
0000f0 88 18 88 3e a8 66 5e be 0c 44 cf 3e 00 70 db ba
       0.26581216 -0.21718848 0.40481603 -0.0016741753
000100 e4 d6 b5 3e 40 c7 cf 3c b8 4a 95 be 3c 03 bf bd
       0.3551551 0.025363564 -0.29158568 -0.09326789
000110 c0 88 ab 3c f4 ce 99 be 54 68 c9 3e 00 16 19 bb
       0.02093923 -0.30040705 0.3933741 -0.002335906
000120 f0 5a 90 3d e0 c2 ad 3e d8 71 8d 3e 40 8e 7f bd
       0.07048595 0.3393774 0.27625918 -0.06239152
000130 d8 02 b0 3e 48 88 6e be 70 65 c1 be 60 e0 a3 3c
       0.3437717 -0.23294175 -0.37772703 0.020004451
000140 8e 9a 23 3f 10 50 ec 3d 80 24 e8 bc 70 22 a1 3d
       0.63907707 0.11538708 -0.028337717 0.078678966
000150 a0 e4 8b be 24 df 81 be e0 a3 a7 bd 64 97 81 bd
       -0.27322865 -0.25365555 -0.081855536 -0.063277036
000160 00 d3 57 3d c0 f7 8b 3c ca 77 0e bf 70 09 6a 3d
       0.05269146 0.01708591 -0.55651534 0.057137907
000170 06 d8 0c 3f 60 d3 a6 3d 80 79 3e 3d 60 08 5c bc
       0.55017126 0.08145785 0.04650259 -0.013429731
000180 50 c9 ed 3d 20 5c b7 be a0 af 5d 3e ec 5e a2 bd
       0.11610663 -0.35812473 0.21649027 -0.07928261
000190 80 75 36 be 20 03 6a 3d 14 24 06 3f b8 8d ab 3d
       -0.1781826 0.057131886 0.523988 0.0837664
0001a0 7c db ca 3e 70 a4 ab 3d f8 81 f5 3e a0 f7 ac 3d
       0.39620578 0.08380973 0.4795072 0.08445668
0001b0 80 4d 3d bc cc a1 e7 3e d8 12 6f be a0 49 83 3c
       -0.011554122 0.4524063 -0.23347032 0.016026318
0001c0 74 1e 8a be 48 a7 62 be 88 d9 86 3e 20 6a 6e bc
       -0.2697636 -0.22134125 0.26337838 -0.014551669
0001d0 d0 7f de bd 04 74 0f 3f 60 8b 53 bd 68 de ba 3d
       -0.10864222 0.560364 -0.05164659 0.09124452
0001e0 e0 9a 12 bd 10 21 52 3e 8c 75 e6 3e 80 47 d3 3b
       -0.03579223 0.20520425 0.45011556 0.0064477324
0001f0 70 ac 04 3e d2 c9 17 3f c0 4d 9f 3c f0 85 c4 3d
       0.12956405 0.5929233 0.019446254 0.09595859
000200 0c 92 cc be 4c 90 89 3e d0 ec c4 3d b0 2a 54 3d
       -0.39955175 0.26867902 0.09615481 0.051798522
000210 90 94 fc be 20 2a b1 bd a0 7a 77 bd 78 3c 9b 3d
       -0.49332094 -0.08650613 -0.06041968 0.07579893
000220 ec 56 d1 3e 5c 8b a6 be 20 ea 07 3d a0 7e fe bc
       0.4088663 -0.32528198 0.033182263 -0.031066239
000230 40 fd ae 3c 88 25 b9 3e 9c 43 b1 be 00 ad 55 3b
       0.021360993 0.36161447 -0.34621894 0.0032604337
000240 34 50 e0 be 4c 5d 98 be 40 df 50 3d b0 44 bf 3d
       -0.4381119 -0.2975868 0.050994158 0.09339273
000250 58 f9 70 3e 2c 7c c8 3e bc ef ae 3e f0 5f 36 3d
       0.23532617 0.39157236 0.34167278 0.044525087
000260 d0 d4 c6 be 90 2f 4c 3e a0 18 fc 3d e0 ea 8c 3c
       -0.38834238 0.19940019 0.12309384 0.01720184
000270 f0 96 8d 3d fc 41 e8 3e 74 88 80 3e a0 52 97 3c
       0.06913555 0.45362842 0.25104105 0.018472016
000280 b0 9a d3 bd 8c fa bb 3e 34 83 a0 be 40 68 63 3c
       -0.10332239 0.3671459 -0.313501 0.013879836
000290 f0 8d b3 3d d8 a7 69 be ec bf fa be f0 e2 25 3d
       0.08767307 -0.22817934 -0.4897455 0.040499628
0002a0 b8 bf 10 3e 38 49 c8 be 28 03 5b be b8 59 48 bd
       0.14135635 -0.3911836 -0.21387923 -0.048913687
0002b0 00 b9 2e be 80 b2 d0 3e 8c a1 91 be f0 cd 5a 3d
       -0.1706276 0.40761185 -0.28443563 0.053419054
0002c0 0c e4 ae be 84 47 b9 3e 98 fb 32 3e b8 19 9e 3d
       -0.3415836 0.36187375 0.17478788 0.07719749
0002d0 68 f2 19 3f f0 4d a3 bd 30 9d 3a be 40 be 84 3d
       0.6013551 -0.0797385 -0.18224025 0.064816
0002e0 00 05 56 3c fc c0 c0 be 50 a7 2d be cc 96 a9 bd
       0.0130627155 -0.37647235 -0.16958356 -0.08280715
0002f0 30 8e d3 3e e8 55 50 be c8 d7 ce 3e 58 76 87 3d
       0.41319418 -0.2034527 0.40399003 0.06614369
000300 98 db 7a 3e b4 38 b8 3e fc 78 8f 3e a0 d1 4c bc
       0.24497831 0.3598076 0.2802199 -0.01250115
000310 d8 54 6a be d0 c0 96 be d8 e6 29 3e 48 b4 40 bd
       -0.22883928 -0.2944398 0.16591966 -0.04704693
000320 30 3f c9 3d 10 f0 1f 3e c0 31 0c bf 50 73 8f 3d
       0.09826505 0.1561892 -0.5476341 0.07004416
000330 04 cf bf be 90 ae a0 3d 14 40 9f 3e 30 c0 4e 3d
       -0.37462628 0.07845795 0.31103575 0.050476253
000340 e0 78 e0 3e f0 66 c3 3e 90 7b 2d 3e c0 82 61 3d
       0.4384222 0.38164473 0.16941667 0.055056334
000350 00 75 3a 3e 44 0b 94 3e 2c b2 c8 3e 00 22 4d ba
       0.18208694 0.28914845 0.39198434 -0.0007825196
000360 74 f9 d0 be 8c ce 94 be 90 63 03 3e b0 5d 9c 3d
       -0.40815318 -0.29063833 0.12830949 0.07635057
000370 50 c7 5b 3e 30 c9 92 3e 1c b6 a0 be 60 4e 54 bd
       0.2146275 0.2866912 -0.31388938 -0.051832557
000380 a0 d4 96 bd 30 38 5d 3e 84 5c 9d 3e bc 46 c6 bd
       -0.07364774 0.21603465 0.30734646 -0.0968146
000390 24 94 ac 3e c0 d4 33 be 28 13 d7 be 80 de d8 3c
       0.33706772 -0.17561626 -0.42006803 0.026473284
0003a0 d0 cf 7f be 00 49 f6 3c c4 a7 f6 be 20 ef a4 3d
       -0.24981618 0.030064106 -0.4817487 0.08053422
0003b0 a0 83 fc 3d 4c 3c f7 be 00 00 93 37 00 32 6d bc
       0.12329793 -0.4828819 1.7523766e-05 -0.014477253
0003c0 38 f9 1c 3f 48 44 43 3e 00 8c 29 3d d8 c6 98 3d
       0.6131778 0.19069016 0.04139328 0.074598014
0003d0 5c 69 9e 3e 04 ce ee 3e b4 29 83 be 60 be a8 3d
       0.30939758 0.46641552 -0.25617754 0.08239436
0003e0 b8 6a a2 3e 40 19 59 3e 68 8a ca be 40 b9 35 3c
       0.31722045 0.21201038 -0.3955872 0.01109153
0003f0 10 5f c8 3e 08 eb 15 be 7c 52 f8 be 68 b2 c9 3d
       0.39135027 -0.14640439 -0.4850043 0.098484814

neg f4 [2500, 4]
000000 00 b5 25 3c 50 5e de bd 80 e2 84 3d d8 bc b7 be
       0.010113955 -0.108578324 0.06488514 -0.35886264
000010 08 f6 11 be b0 7a 16 3e c8 a6 0c 3e ea 4e 52 be
       -0.1425401 0.14695239 0.13735497 -0.20537916
000020 20 eb ec be 06 22 34 3f 50 1e ed bd ca 94 c8 3e
       -0.46273136 0.70364416 -0.11578047 0.39176017
000030 80 d5 fd 3d 60 24 7e bd c6 98 77 3f 62 e7 f0 3e
       0.123942375 -0.06204641 0.9671749 0.4705153
000040 18 d9 79 3e 4e 6c 6b bf d8 2f 69 3e e2 ed ec 3e
       0.24399221 -0.91962135 0.22772157 0.4627524
000050 cc 35 40 bf 20 a9 d9 bd 20 e8 97 bd 98 d8 aa 3e
       -0.7508209 -0.10627961 -0.07417321 0.33368373
000060 78 22 04 3f 62 25 48 3f 34 90 88 3e 42 07 e0 3e
       0.51615095 0.7818204 0.26672518 0.43755537
000070 32 55 59 bf a4 ba 06 3f ac 9a 93 be 50 8d 19 3f
       -0.8489562 0.5262854 -0.28828943 0.5998125
000080 ac 91 ef be 50 d2 de bd f4 1c 25 bf 1c 7b b2 3e
       -0.46790826 -0.10879958 -0.64497304 0.3485955
000090 a2 63 36 bf 5a ac 2a bf 86 77 47 bf e4 a2 4a 3f
       -0.7124578 -0.6666924 -0.77916753 0.791548
0000a0 28 11 f1 3e b8 c6 15 bf 4c d9 11 bf d8 26 d1 3e
       0.47083402 -0.58506346 -0.56972194 0.40849948
0000b0 6e 35 74 3f e0 ca ba bd 70 55 5d bf 1c e6 3c 3f
       0.9539403 -0.091207266 -0.8645849 0.7378862
0000c0 20 62 fd be ba 98 72 bf c0 f5 f2 3e 66 c6 33 3f
       -0.49488926 -0.9476429 0.47453117 0.70224607
0000d0 88 13 d8 be 0a 72 54 3f 94 f6 7b bf 9e 12 61 3f
       -0.422024 0.8298651 -0.98423123 0.8791903
0000e0 88 22 d2 3e a0 9d 3c 3d 02 a9 41 3f 5c d0 a8 3e
       0.4104197 0.04604876 0.7564851 0.32971466
0000f0 90 06 68 3e 00 3e ea 3d d0 bd 2f bf 24 dd 59 3e
       0.22658753 0.11437607 -0.68649006 0.21275765
000100 14 22 f4 3e f6 14 43 bf bc 1f cb 3e a4 19 e6 3e
       0.4768225 -0.7620386 0.3967265 0.44941437
000110 c0 f7 a9 3d 2e 36 03 bf 50 28 42 3f dc b3 d4 3e
       0.08299208 -0.51254547 0.7584276 0.41543472
000120 c0 fd 53 3f b0 a4 d4 3d 30 82 29 be 1c 7a 8f 3e
       0.82809067 0.10382974 -0.16553569 0.2802285
000130 66 ba 2f 3f 8c 86 85 be 48 68 a8 be dc 60 79 3e
       0.68643796 -0.26079214 -0.3289206 0.24353355
000140 e0 01 df 3e 44 98 55 3f 02 3e 37 bf b0 5b 28 3f
       0.43556118 0.83435464 -0.7157899 0.65764904
000150 20 44 ed be 64 22 59 bf ca 61 1f 3f e0 4d 2e 3f
       -0.46341038 -0.848181 0.6225859 0.6808758
000160 54 97 5e bf 1e c4 26 3f 80 a4 63 3c 58 44 25 3f
       -0.8694966 0.65143 0.0138942 0.6455741
000170 c4 d4 e7 be c6 4e 50 3f 40 dc 75 3d 8e e6 f0 3e
       -0.45279515 0.813702 0.0600245 0.470509
000180 60 85 47 bf a0 0c 56 3d 00 70 65 ba 28 19 b5 3e
       -0.7793789 0.052258134 -0.0008752346 0.35370755
000190 dc 14 0a 3f 20 55 7d be 1a 14 60 3f 8e b6 05 3f
       0.5393808 -0.24739504 0.8753067 0.5223168
0001a0 0a b6 2e bf 30 50 ed be 38 8c 5a 3f 72 fd 3a 3f
       -0.6824652 -0.4635024 0.85370207 0.73042977
0001b0 2c ae c0 be 58 9c 5f 3e d4 f5 b8 3e 38 34 ee 3d
       -0.37632883 0.21836984 0.36125052 0.11631054
0001c0 48 a4 7c bf 58 e5 fb be 9c 6a 40 bf ec 9f 63 3f
       -0.98688173 -0.49198413 -0.75162673 0.88915896
0001d0 2c e6 9f 3e 5a 65 40 3f bc f5 eb be 6e bf d3 3e
       0.31230295 0.7515465 -0.46085918 0.41356987
0001e0 46 b3 1e bf 38 cd 96 3e 48 a5 9a be 48 3d 9f 3e
       -0.619923 0.29453444 -0.30204225 0.3110144
0001f0 40 0a eb 3e e8 1d 15 bf ac 77 25 bf f4 6d e7 3e
       0.45906258 -0.5824876 -0.6463573 0.45201075
000200 f8 ef a0 3e c4 34 40 3f a8 8f 81 3e 98 19 a8 3e
       0.31433082 0.75080514 0.25304914 0.32832026
000210 b8 ef ec be dc ea 20 3f 44 9e 50 bf da ff 28 3f
       -0.4627664 0.62858367 -0.81491494 0.660154
000220 2c e9 54 bf e0 27 06 3e 7c 23 66 3f 0a 2b 48 3f
       -0.8316829 0.13101149 0.89897895 0.7819067
000230 94 c3 57 bf e4 b0 6a 3f 0e 54 4a bf 30 43 82 3f
       -0.84282804 0.91676164 -0.7903451 1.0176754
000240 44 ba d4 3e 68 41 4d bf 7e 13 3c 3f b6 e4 23 3f
       0.4154836 -0.80177927 0.7346724 0.6402086
000250 c4 9a 65 bf 00 24 1b 3d 04 bc f0 be a6 09 14 3f
       -0.8968928 0.03787613 -0.47018445 0.5782722
000260 88 56 fe 3e 40 f1 90 bd d8 c9 44 3f 3a f1 c2 3e
       0.49675393 -0.07077265 0.7687049 0.38074666
000270 04 b1 e0 3e 2c 60 59 3f 6c 84 d1 be 9a dd 02 3f
       0.43885052 0.8491237 -0.40921342 0.5111939
000280 ce bb 17 bf d0 18 35 bf 78 d8 7c be 9c 89 00 3f
       -0.5927094 -0.70740986 -0.24691951 0.50209975
000290 10 2b 55 3f e8 af 40 bf e0 d4 9a be f2 8d 1c 3f
       0.83268833 -0.7526841 -0.30240536 0.6115409
0002a0 1e c4 53 bf dc b6 0b 3f c6 3c 1c 3f ac 75 37 3f
       -0.82721126 0.54575896 0.6103023 0.7166393
0002b0 6a 34 44 bf 68 c0 d8 be 6c 5f ab be 02 d4 fe 3e
       -0.7664248 -0.42334294 -0.3347124 0.49771124
0002c0 30 8d cc 3d b6 7a 6e bf 20 ee d5 bd 2e 26 e0 3e
       0.09987867 -0.9315599 -0.10445809 0.4377913
0002d0 1c e9 8e be 68 e9 06 3f ac 3a 52 bf de 89 09 3f
       -0.27912223 0.526999 -0.82120776 0.53725994
0002e0 4c 3f 4a bf 40 ac e6 3c 82 10 07 bf 7c fd 02 3f
       -0.79002833 0.028158307 -0.52759564 0.51168036
0002f0 24 14 c2 be c0 91 af 3e 52 f2 76 bf 7a 78 1e 3f
       -0.3790599 0.34290886 -0.964635 0.6190258
000300 ac 55 e5 be bc 7b 01 bf 92 a2 06 3f d6 f1 ca 3e
       -0.44791925 -0.5057943 0.5259181 0.3963763
000310 fe 31 17 bf ec 07 9b 3e 4a 81 3d bf b0 00 0a 3f
       -0.5906066 0.3027948 -0.74025404 0.539073
000320 c8 93 f0 3e 2c 81 24 3f d8 d0 48 3f 0c cb 16 3f
       0.46987748 0.642596 0.7844367 0.58903575
000330 44 2e f4 3e 16 ac 5c bf d4 3b 9e be 10 3f 00 3f
       0.47691548 -0.8620008 -0.3090502 0.50096226
000340 d4 13 40 bf f8 3b 03 3f c8 ac da be ca 3c 0f 3f
       -0.75030255 0.5126338 -0.42709947 0.5595213
000350 e8 f6 9b 3e e0 af d3 be c6 57 0b 3f f8 1d 63 3e
       0.30461812 -0.4134512 0.54430807 0.22179401
000360 c0 53 58 3d cc d6 08 bf 28 a8 b3 be c0 12 0f 3e
       0.052814245 -0.53452754 -0.3508923 0.13971996
000370 a6 08 30 3f b8 1d 31 bf 7a 65 4d 3f 8a 96 39 3f
       0.68763196 -0.6918597 0.80232966 0.7249533
000380 de 13 45 3f 60 55 a7 3d b6 3d 29 3f d4 ab ed 3e
       0.7698344 0.08170581 0.6610979 0.46420157
000390 ec 10 ef be 50 26 28 bf e0 6e 06 bf 4a 98 ff 3e
       -0.46692598 -0.6568346 -0.5251293 0.49920875
0003a0 60 c8 09 bd 28 2f 56 bf 0a c5 16 3f fa 56 07 3f
       -0.033638358 -0.83665705 0.5889441 0.5286709
0003b0 80 69 ad 3c f0 83 66 bf c2 12 6f 3f dc 5d 4c 3f
       0.02116847 -0.9004507 0.93388 0.7983072
0003c0 08 08 c0 be da f3 71 3f e0 ed 04 bd 1e dd 0b 3f
       -0.37506127 0.9451271 -0.032453418 0.54634273
0003d0 ec b5 03 bf 30 d5 ac bd f4 93 85 be 3c a4 17 3e
       -0.51449466 -0.084391 -0.26089442 0.14808744
0003e0 88 c8 4e be 6c cf 61 bf 08 1a 1e be a4 91 df 3e
       -0.20193684 -0.88207126 -0.15439618 0.43665802
0003f0 f8 f2 5f 3f 3a d0 3e bf 0c 11 d0 3e c6 fc 2a 3f
       0.87480116 -0.7453648 0.40638006 0.6679195
