experiments/SlidingSphere2D/SdfSamples/slidingspheremodel2d_sphere_-0.36.npz (npz, 40740 bytes, 2 tensors)

pos f4 [258, 4]
000000 56 71 46 bf d0 b9 ab bd 18 6c 47 3e a4 e7 80 3d
       -0.77516687 -0.0838505 0.19474828 0.06294182
000010 c6 75 2c bf e0 a9 2c be b0 84 ac 3d a8 39 18 bd
       -0.6736721 -0.16861677 0.08423746 -0.03716436
000020 9e 34 2a bf f8 f3 46 3e f8 ce 89 3e b0 a7 45 3d
       -0.6648654 0.19429004 0.26915717 0.048255622
000030 20 07 78 be f0 4b d6 3e c0 93 69 3e 40 31 bc 3d
       -0.24221468 0.4185481 0.22810268 0.09189081
000040 98 e9 15 bf 38 6c 48 be 18 ae 2b 3e b0 42 75 bd
       -0.5855956 -0.19572532 0.1676563 -0.05987805
000050 c0 46 b6 be 34 32 a7 be 50 a5 93 3d 38 22 86 bd
       -0.35600853 -0.3265549 0.07209265 -0.065494955
000060 80 53 61 bd c0 b6 88 3d 90 79 94 3d 98 b1 9b bd
       -0.055011272 0.06675482 0.07249749 -0.07602233
000070 0c bf ae be 20 6b 52 be 40 3d a2 be 50 88 b1 bc
       -0.34130132 -0.20548677 -0.31687355 -0.021671444
000080 d4 80 4c bf 10 81 50 be 30 64 9e 3d 34 7e b1 3d
       -0.79884076 -0.20361733 0.07733953 0.086666495
000090 dc 1d b0 be 94 ae c9 3e 30 10 ac bd 00 f5 54 3b
       -0.3439778 0.39391005 -0.08401525 0.0032494664
0000a0 30 b5 54 be 08 78 91 be 80 c7 55 3d c0 ea 92 bd
       -0.20772243 -0.2841189 0.05219221 -0.07173681
0000b0 38 ed 87 be 08 71 3a be 58 c6 85 3e b8 b7 88 bd
       -0.2654817 -0.1820718 0.26127887 -0.066756666
0000c0 40 8d 1b bd 78 5c 8a 3e 10 ef e8 bd 98 76 1c 3d
       -0.037976503 0.27023673 -0.113737226 0.038199037
0000d0 c0 16 cd bd b0 c3 cf 3d ac a0 93 be 00 23 69 3b
       -0.10014105 0.10144746 -0.2883352 0.003557384
0000e0 e0 d7 d2 bd b0 a0 94 bd c8 de 8f 3e 40 1a 22 bc
       -0.10295081 -0.07257211 0.28099656 -0.009893954
0000f0 10 73 2c be 90 45 89 be e0 43 6e be 40 5e a8 3b
       -0.16840768 -0.26810884 -0.2326808 0.0051381886
000100 d8 1e b9 be 60 c2 2e 3e 20 0d a5 3e a8 57 10 bd
       -0.36156344 0.17066336 0.32236576 -0.035239846
000110 ce 98 09 bf 20 bb a0 3e f0 16 d7 3d 10 c5 d5 bc
       -0.53748786 0.31392765 0.10502422 -0.026094943
000120 6c 5c 96 be 80 89 bc 3e e0 be 87 bd 80 9a 9e bc
       -0.29367387 0.36823654 -0.066282034 -0.01936078
000130 14 15 c9 be 54 8d c5 be 50 b1 7d be 58 89 73 3d
       -0.39273894 -0.38584387 -0.2477467 0.059457153
000140 30 e4 d0 bd 80 da 18 bc 48 e4 c2 3e 18 e9 7d 3d
       -0.10199773 -0.009329438 0.3806479 0.061989874
000150 c0 53 b3 bc b0 3b 37 be 90 ad 73 be d8 1e 5a 3d
       -0.021890521 -0.17893863 -0.23796678 0.05325207
000160 84 84 ee be f0 f6 96 bd 00 83 96 3e 5c 29 a4 bd
       -0.46585476 -0.07371318 0.2939682 -0.08015701
000170 a8 3e 3f be d8 d4 4b be e0 76 48 3e 3c 55 8e bd
       -0.18676245 -0.19905412 0.19576597 -0.06949851
000180 68 0b 0d bf 90 1a cb 3d 88 e4 b3 3e 40 47 29 3c
       -0.5509553 0.09917176 0.35135293 0.010331929
000190 74 5a ca be 78 23 2e 3e 5c 92 86 be 40 d0 ae bd
       -0.39522135 0.17005718 -0.26283538 -0.08535814
0001a0 b0 3d 7b be 70 54 4a be e8 3e a2 be 00 92 07 bc
       -0.2453525 -0.19758773 -0.3168862 -0.008274555
0001b0 a8 6a 4e be c4 8c 84 be 4c 59 c1 be 14 7d af 3d
       -0.20157874 -0.25888646 -0.3776344 0.08568779
0001c0 18 09 b8 be 88 6e 1c 3e 04 54 eb be 04 c8 ac 3d
       -0.35944438 0.1527654 -0.45962536 0.084365875
0001d0 ac 05 f3 be 70 02 95 3e 60 13 12 bd 44 1a b1 bd
       -0.47465265 0.29103422 -0.03566301 -0.08647588
0001e0 64 51 90 be a8 05 8a be 10 d2 37 be b4 17 87 bd
       -0.28187096 -0.2695744 -0.17951226 -0.06596318
0001f0 54 e0 20 bf 70 e5 a3 3d 70 30 a9 be 80 7c fd 3c
       -0.628423 0.08002746 -0.33044767 0.030943155
000200 00 56 02 bd 68 a4 81 be e0 4a 61 bd d0 08 ac 3c
       -0.031820297 -0.25320745 -0.055003047 0.021000296
000210 3c e1 ee be b8 60 6d be 08 0f 6d be 20 d3 67 bd
       -0.46656215 -0.23181427 -0.23150265 -0.05659783
000220 80 3f f5 bd f8 fb d2 be 80 dc f3 bd 54 55 bf 3d
       -0.11975002 -0.41207862 -0.119072914 0.09342447
000230 a4 de a5 be 7c f6 93 be c8 11 53 3e 00 67 2f bd
       -0.32396424 -0.2889899 0.20612252 -0.042822838
000240 18 d0 6f be b0 07 4d 3e f4 55 94 3e f0 14 cb bc
       -0.23419225 0.20022464 0.28971827 -0.024790257
000250 dc f9 04 bf a8 e7 6d be 74 97 bc 3e f4 0b 80 3d
       -0.51943755 -0.23232901 0.368343 0.0625228
000260 b0 44 ee be 80 ab f3 3d b0 15 a0 be e0 2c 4e bd
       -0.4653678 0.118979454 -0.31266546 -0.050335765
000270 44 83 03 bf 34 08 b1 3e f8 2a 98 3e fc db a3 3d
       -0.5137217 0.3457657 0.29720283 0.08000943
000280 38 45 5f be e8 1b 7a be f0 32 82 3e 30 c6 97 bc
       -0.21803749 -0.24424708 0.25429487 -0.01852712
000290 60 5c 02 be ac 8c 9a be d0 b6 15 3e 80 b8 28 3c
       -0.12730551 -0.3018545 0.14620519 0.0102978945
0002a0 6e 2d 0b bf 28 11 66 3e d4 62 a7 be c0 ea 11 3d
       -0.54366195 0.22467482 -0.32692587 0.035624266
0002b0 04 85 98 be 20 f0 75 bd d0 94 eb be 40 9b 8c 3d
       -0.29788983 -0.060043454 -0.46011972 0.06865549
0002c0 cc 9c 9c be a8 e2 f2 3e 38 8c 00 be 1c b8 c0 3d
       -0.30588377 0.4743855 -0.12553489 0.09410116
0002d0 00 eb bd bc b8 23 2f 3e c0 28 36 3d b0 74 86 bc
       -0.023183346 0.1710347 0.044472456 -0.016413063
0002e0 c4 62 c3 be e0 4a c7 3e c0 f0 3d 3d 80 c9 f8 bb
       -0.3816129 0.38924313 0.046372175 -0.00759238
0002f0 74 1e ca be e8 f5 be 3e 80 1a 93 be 80 1b 93 3d
       -0.3947636 0.37296987 -0.28731155 0.071829796
000300 90 34 20 bf 24 16 97 3e b0 74 fb 3d e0 3f 5b 3c
       -0.62580204 0.2950908 0.12278116 0.013381928
000310 2e a4 2d bf 00 ef 78 bd 74 e4 8b be 20 1b ad 3c
       -0.67828643 -0.060774803 -0.27322733 0.021131098
000320 d0 d5 9f bd fc 02 93 3e 80 98 fe 3d d0 91 c1 3c
       -0.078044534 0.28713214 0.12431431 0.0236291
000330 76 e5 28 bf 00 2f 49 bc d0 98 c7 3e d0 b5 b7 3d
       -0.6597513 -0.012279272 0.38983774 0.08970225
000340 8c 1e 86 be 10 89 50 3e e4 b4 a6 be 80 a3 32 bb
       -0.2619518 0.20364785 -0.32559884 -0.0027258098
000350 20 5e ef bd 38 e1 77 be 70 bf 9f 3e dc 76 86 3d
       -0.11687875 -0.24207008 0.31200743 0.065656394
000360 a8 e9 25 bf 78 d6 62 be 10 74 ab be 1c 8c bc 3d
       -0.64809656 -0.22152126 -0.33486986 0.09206411
000370 4c 91 06 bf 90 6a 80 bd 38 15 bc 3e 40 5a d0 3b
       -0.52565455 -0.06270325 0.3673494 0.006358415
000380 10 cf 19 bf f0 97 5d be 2c 3c c1 be ec 96 c3 3d
       -0.6008158 -0.21639991 -0.3774122 0.095502704
000390 40 46 1b bf b0 4c 05 3e e8 16 25 be 40 50 a5 bd
       -0.6065407 0.13017535 -0.1612202 -0.08071947
0003a0 20 a7 a8 be 88 54 72 be e8 f8 5c be f8 8e 9f bd
       -0.32940006 -0.23665059 -0.21579325 -0.07790941
0003b0 f4 4b 2d bf 08 b6 a4 be e8 3c 57 3e 80 3a c4 3d
       -0.6769402 -0.3217013 0.21019328 0.095814705
0003c0 18 fb c6 be 28 cc 7e be 1c 78 8d be 50 de df bc
       -0.38863444 -0.24882567 -0.276307 -0.027327687
0003d0 30 e7 18 bf c0 d3 e7 3c 00 96 d8 be b4 32 ac 3d
       -0.59727764 0.028299212 -0.4230194 0.08408108
0003e0 88 f1 0c bf 98 20 9f 3e 20 b1 34 bd 48 ed 0d bd
       -0.5505605 0.31079555 -0.044114232 -0.034650117
0003f0 40 54 34 3d e0 16 6a 3e e0 22 82 3d cc ce 92 3d
       0.04402566 0.22860289 0.06354308 0.071683496

neg f4 [2500, 4]
000000 2e 09 0b 3f 0e 6c 64 bf e4 41 5b bf 5c 19 91 3f
       0.5431088 -0.8922738 -0.85647416 1.1335864
000010 00 d4 04 3f 72 e5 31 3f 88 cf 29 3e fa 44 3c 3f
       0.51885986 0.6949073 0.16583073 0.7354275
000020 60 36 98 3d ce 4c 4a bf 8e 14 26 bf ae 57 36 3f
       0.07432246 -0.79023445 -0.64875114 0.7122754
000030 ae 91 5e 3f 28 65 16 bf 28 c9 91 3e 28 c6 7e 3f
       0.8694104 -0.587481 0.28473783 0.9952111
000040 c8 08 68 be a4 87 bb 3e b8 45 40 bf db bf e4 3e
       -0.226596 0.36626923 -0.7510638 0.44677624
000050 80 d1 2a bf 14 41 b2 be e8 6e 5b 3f 08 df 12 3f
       -0.6672592 -0.34815276 0.85716105 0.5737157
000060 00 c0 5b 3d 70 82 95 3e e2 bc 15 bf cf 4b c0 3e
       0.053649902 0.29201078 -0.5849134 0.37557837
000070 fe cd 35 3f 26 48 43 3f d0 d7 fd 3d aa 49 6c 3f
       0.71017444 0.76281965 0.123946786 0.922999
000080 30 09 70 3e 26 16 07 3f 30 bf 6e be 9f a4 dc 3e
       0.23441005 0.5276817 -0.2331512 0.43094346
000090 38 a8 53 be 64 80 fa 3e c0 ce dc be 8d a8 8a 3e
       -0.20669639 0.4892608 -0.43126488 0.2708172
0000a0 ca 95 24 3f 88 8b 44 3e d2 29 1d 3f 90 65 4b 3f
       0.6429106 0.19193852 0.6139194 0.7945185
0000b0 20 cd e8 3e a8 fb eb be fc e5 29 bf 38 01 40 3f
       0.45468998 -0.46090436 -0.66366553 0.7500186
0000c0 dc da e2 be 0c 63 09 bf 20 f1 c7 3d e6 db 1a 3e
       -0.443076 -0.5366676 0.09762788 0.15122947
0000d0 7c 52 6c 3f 4e 4f 2d 3f 9c 7c 1b 3f 06 7f 96 3f
       0.9231336 0.67699134 0.60737014 1.1757514
0000e0 76 4b 72 3f d0 82 b1 bd 6c 04 18 bf a5 3f 85 3f
       0.94646394 -0.08667529 -0.5938175 1.0410048
0000f0 74 30 1f bf d4 0e 11 bf c0 f4 8d be e3 30 90 3e
       -0.6218331 -0.5666325 -0.27725792 0.28162298
000100 5e 05 51 bf e8 bf f0 be 40 82 88 3d b1 2e 83 3e
       -0.81648815 -0.47021413 0.06665468 0.2562156
000110 84 10 c5 3e 60 87 e9 be 00 a4 38 bf f4 31 3c 3f
       0.38489163 -0.45611095 -0.72125244 0.7351372
000120 24 12 8d 3e 7e 8c 74 3f e8 d5 40 be 98 c3 43 3f
       0.27552903 0.95526874 -0.18831599 0.7647033
000130 0a 54 77 bf 18 f1 81 3e a8 73 8d be 47 96 9e 3e
       -0.9661261 0.25379252 -0.276273 0.30974028
000140 90 5c 09 3f c0 6b 0d be ec 73 91 3e 0c d4 0d 3f
       0.53656864 -0.13810635 0.28408754 0.5540168
000150 c0 f6 7f bd 10 63 f6 3e b8 fd 55 bf 1e 46 1c 3f
       -0.06249118 0.48122454 -0.8359027 0.6104449
000160 a8 22 3d bf 28 e8 42 3e 40 56 0c 3f 87 ff 94 3e
       -0.73881006 0.19033873 0.5481911 0.29101202
000170 0c 0e 12 3f 52 8c 1d bf e4 aa 27 3f 3e 73 65 3f
       0.57052684 -0.61542237 0.65495133 0.8962897
000180 f2 4b 05 3f 68 59 b8 be 20 7b 9b be 04 19 1a 3f
       0.5206901 -0.36005712 -0.30367374 0.6019442
000190 ae 4e 4b bf 46 35 0d bf 6a dc 22 3f 80 b2 0b 3f
       -0.7941693 -0.55159414 0.63617575 0.54569244
0001a0 c4 6b 22 bf 52 08 63 3f b0 f5 38 3e ae 71 0b 3f
       -0.6344569 0.8868457 0.18062472 0.54470336
0001b0 60 1c e3 3d d0 48 ed be a8 04 61 bf 7e 7f 33 3f
       0.110893965 -0.46344614 -0.8789773 0.7011641
0001c0 28 a4 1d 3e 40 37 c9 3d 0c 69 20 bf 5d 58 d6 3e
       0.15394652 0.09824991 -0.6266029 0.4186429
0001d0 9c a8 b2 be 40 1f a6 3e 58 a3 5c bf 7e 62 05 3f
       -0.34894264 0.32445717 -0.8618674 0.5210341
0001e0 d0 1e c3 3e 66 c7 02 3f 40 d0 2e bf 2e 72 3b 3f
       0.38109446 0.5108551 -0.68286514 0.732211
0001f0 0e a2 77 3f 3a 97 10 3f ec eb 31 bf 6c 23 9a 3f
       0.9673165 0.56480753 -0.69500613 1.204206
000200 84 fe ff 3e fe 6a 33 3f 34 79 09 bf a0 c7 55 3f
       0.49998868 0.7008513 -0.53700566 0.8350773
000210 bc c9 f3 be 72 80 39 bf c0 5b 19 bd 61 23 ab 3e
       -0.4761485 -0.72461617 -0.037441015 0.3342543
000220 40 7a fb be f4 7a c7 3e 08 30 7e 3f c2 99 2c 3f
       -0.49116707 0.38960993 0.9929204 0.67422116
000230 a8 8d 0b bf e0 19 b5 3d 20 e1 e7 bd d6 92 2c be
       -0.54513025 0.08842826 -0.11322236 -0.16852888
000240 c0 bf a1 3c b8 ba 37 3f 88 99 47 bf 32 18 3a 3f
       0.019744754 0.71769285 -0.77968645 0.7269317
000250 0a 4b 15 3f 0a 66 3d 3f 80 43 89 bd 50 af 4d 3f
       0.58317626 0.73983824 -0.06702328 0.8034563
000260 10 c8 79 be a8 af 76 3f 90 1a 80 be 48 4d 1a 3f
       -0.24392724 0.9636178 -0.25020266 0.6027417
000270 78 2e 35 be c8 95 41 3f 6c 26 90 3e c5 3f db 3e
       -0.17693508 0.75619173 0.28154314 0.4282209
000280 bc 23 77 3f ea de 1c bf 6e 34 5e bf 8c 98 a6 3f
       0.965389 -0.6127764 -0.8679875 1.3015304
000290 70 61 0d 3e 90 72 56 be e0 3b af 3e 7a 3c 78 3e
       0.138067 -0.2094214 0.34225368 0.2424182
0002a0 22 e3 25 3f 60 a1 b3 bd 7c 39 ef 3e 9c bf 37 3f
       0.647997 -0.08771014 0.46723545 0.7177675
0002b0 48 de f1 be 70 93 a3 be 18 da 0c 3f ae 5a 7b 3e
       -0.472399 -0.31948423 0.55020285 0.2454631
0002c0 c0 f2 82 3c 60 9d 7a 3d 76 de 06 bf af 24 81 3e
       0.015984893 0.06118524 -0.526832 0.252233
0002d0 a8 37 9f 3e b2 fe 55 3f 60 3d 55 3d 6e e9 2c 3f
       0.3109715 0.8359176 0.052060485 0.67543685
0002e0 a8 45 17 be 20 14 06 be 4e c1 56 3f 03 bf f3 3e
       -0.14772666 -0.13093615 0.8388871 0.47606668
0002f0 6c c4 e6 3e c4 0c 36 3f f6 b2 3d 3f c4 24 69 3f
       0.45071733 0.7111323 0.741012 0.91071725
000300 ec f5 55 bf 38 71 d6 be ea dd 06 bf 91 20 d8 3e
       -0.8357837 -0.41883254 -0.52682364 0.42212346
000310 9a 97 26 3f 92 36 3a 3f 90 2c d0 3d 92 34 5a 3f
       0.65075076 0.7273952 0.101647496 0.85236466
000320 14 47 c3 3e c0 32 63 3d 08 e7 75 bf de 1f 51 3f
       0.38140166 0.05546832 -0.9605565 0.8168925
000330 4e 22 19 bf c0 18 50 be f0 f0 cb be 74 ed d6 3d
       -0.5981797 -0.20321941 -0.39832258 0.10494509
000340 a6 37 75 3f 20 d0 bb be 5e e7 52 bf 58 96 99 3f
       0.9578804 -0.36682224 -0.8238429 1.1999006
000350 4e 8f 40 3f 32 98 63 bf 0c 07 e4 3e 9a 1b 8c 3f
       0.75218666 -0.88904107 0.44536626 1.0945923
000360 1e bc 20 3f f2 23 0b bf 00 e0 de bc 04 25 3b 3f
       0.62787044 -0.54351723 -0.02720642 0.73103356
000370 e8 0e 7e bf 0c e8 5a bf 08 94 64 bf e6 ac 7c 3f
       -0.99241495 -0.85510325 -0.8928838 0.9870132
000380 3a d2 57 bf bc 7f fc 3e f0 c6 e2 bd 5d e1 97 3e
       -0.84305155 0.49316204 -0.110731006 0.29664126
000390 d4 8a fb 3e 4a d0 7d 3f ac 14 2c bf a5 2b 89 3f
       0.49129355 0.9914595 -0.6721904 1.0716444
0003a0 f0 66 71 bf f0 02 8a 3d 54 a4 0c 3f 55 70 cd 3e
       -0.94297695 0.067388415 0.54938245 0.40124765
0003b0 98 d6 2d be e8 b9 f8 3e 70 37 38 be 5a cc 1c 3e
       -0.16976392 0.48579335 -0.17989898 0.15312329
0003c0 3e 24 08 bf 08 9a 66 be f0 50 e5 be 1e db 03 3e
       -0.531803 -0.22519696 -0.44788313 0.12876555
0003d0 90 c8 37 be 56 ea 30 3f e8 b4 85 be a7 06 b9 3e
       -0.17947602 0.6910757 -0.26114583 0.36137888
0003e0 48 fe 76 be ba 3a 4f 3f f4 d6 23 3f 40 a0 23 3f
       -0.24120438 0.80948985 0.6399987 0.639164
0003f0 42 f2 35 3f 48 3e 13 bf ac 43 91 be 28 ea 59 3f
       0.7107278 -0.5751691 -0.28371942 0.8512292
