experiments/SlidingSphere2D/SdfSamples/slidingspheremodel2d_sphere_0.65.npz (npz, 737750 bytes, 2 tensors)

pos f4 [25000, 4]
0	0x3f4e94b5	0.8069566
1	0xbbbca45b	-0.0057568974
2	0xbf123255	-0.5710805
3	0x3dba90e0	0.09109664
4	0x3f63396a	0.8875948
5	0xbbbca45b	-0.0057568974
6	0xbef708ba	-0.48248845
7	0x3d12dc60	0.035854697
8	0x3f76113c	0.9612005
9	0xbbbca45b	-0.0057568974
10	0xbed6f97f	-0.41987225
11	0x3ca38cc0	0.019964576
12	0x3f8bd1c0	1.0923386
13	0xbbbca45b	-0.0057568974
14	0xbe96936b	-0.29409346
15	0x3ce0bde0	0.02743429
16	0x3f976d91	1.1830312
17	0xbbbca45b	-0.0057568974
18	0xbe73fdb5	-0.2382725
19	0x3da35148	0.079744875
20	0x3f95e820	1.1711464
21	0xbbbca45b	-0.0057568974
22	0xbe06ea4c	-0.13175315
23	0x3d07dba0	0.033168435
24	0x3f940438	1.1563787
25	0xbbbca45b	-0.0057568974
26	0x3e6b400e	0.22973654
27	0x3d54c970	0.05194992
28	0x3f332382	0.69976056
29	0xbbbca464	-0.0057569016
30	0xbf0bfb00	-0.5467987
31	0x3d477490	0.048695147
32	0x3f4e426e	0.80570114
33	0x3c53bc32	0.012923287
34	0xbf12b729	-0.5731073
35	0x3dbe2658	0.09284657
36	0x3f8206b2	1.0158293
37	0x3d4cb221	0.049974564
38	0xbeb30acf	-0.34969184
39	0x3bad0400	0.005280018
40	0x3f9598f1	1.1687299
41	0x3d9d9021	0.07693506
42	0xbd2b0b9a	-0.04175911
43	0x3cb0ce20	0.021582663
44	0x3f8df7a9	1.1091205
45	0x3d880977	0.0664243
46	0x3e565fa6	0.20934924
47	0x3b9f1000	0.0048542023
48	0x3f4a721c	0.7908037
49	0x3c28b27a	0.010296458
50	0x3efe6c24	0.4969188
51	0x3c7bbb80	0.015364528
52	0x3f637348	0.8884778
53	0x3d80e1bd	0.06293056
54	0xbf041a9b	-0.51603097
55	0x3d8f7d88	0.07006365
56	0x3f710aad	0.94156915
57	0x3da874e9	0.08225424
58	0xbed392ec	-0.4132303
59	0x3c20c000	0.009811401
60	0x3f8b0e88	1.086381
61	0x3e0a3354	0.13496143
62	0xbe9dddb1	-0.308332
63	0x3d4297e0	0.04750812
64	0x3f8bd3bc	1.0923991
65	0x3e0c7189	0.13715185
66	0x3e5779e6	0.21042594
67	0x3b9cb800	0.0047826767
68	0x3f4a7753	0.79088324
69	0x3d3fe8be	0.04685282
70	0xbf0f7d5e	-0.5605067
71	0x3da14768	0.07874948
72	0x3f5b9bce	0.85784614
73	0x3daf21e7	0.08551388
74	0xbef00a06	-0.46882647
75	0x3c9463c0	0.01811397
76	0x3f6fe9f6	0.9371637
77	0x3e067593	0.13130789
78	0xbee177c2	-0.4403668
79	0x3d21b4e0	0.039479136
80	0x3f8f4102	1.1191714
81	0x3e72103f	0.2363901
82	0xbe0aad11	-0.13542582
83	0x3d1e2290	0.03860718
84	0x3f9256d6	1.143275
85	0x3e802827	0.25030634
86	0xbd38ae01	-0.045087818
87	0x3d50ae00	0.05094719
88	0x3f9561cb	1.1670469
89	0x3e872f13	0.26403102
90	0x3d567e91	0.052366797
91	0x3da19088	0.07888895
92	0x3f5d6fba	0.86498606
93	0x3db7931f	0.08963608
94	0x3efd5c14	0.49484313
95	0x3d38f040	0.045150995
96	0x3f49ad17	0.7877974
97	0x3d389c8f	0.04507118
98	0x3f0bd279	0.5461803
99	0x3d831480	0.064003944
100	0x3f460d4d	0.77364045
101	0x3d66576c	0.056235716
102	0xbf037899	-0.5135589
103	0x3cf73820	0.03017813
104	0x3f846639	1.0343696
105	0x3e8cce8f	0.27501342
106	0xbea7aca8	-0.32748914
107	0x3d936430	0.071968436
108	0x3f85800b	1.0429701
109	0x3e908077	0.2822301
110	0xbe62056f	-0.22072385
111	0x3ce8f680	0.028437853
112	0x3f877d86	1.0585182
113	0x3e972e79	0.29527643
114	0xbd280e04	-0.04102899
115	0x3b071700	0.0020613074
116	0x3f89d93c	1.076942
117	0x3e9f18c8	0.31073594
118	0x3d449458	0.047993034
119	0x3cd9af60	0.026572883
120	0x3f69fe2a	0.9140345
121	0x3e32379c	0.17404026
122	0x3ee882c0	0.45412254
123	0x3d51d410	0.05122763
124	0x3f474d91	0.7785273
125	0x3d772327	0.06033626
126	0x3f0d6b72	0.55242074
127	0x3d8e1120	0.0693686
128	0x3f65b36c	0.897269
129	0x3e6b22b3	0.22962455
130	0xbefcdeeb	-0.49388823
131	0x3dc53650	0.096295
132	0x3f6db456	0.92853296
133	0x3e88a4f3	0.26688346
134	0xbec6ad9f	-0.38804337
135	0x3d37c050	0.044861138
136	0x3f73fefe	0.9531096
137	0x3e97a3f6	0.2961728
138	0xbe972e25	-0.29527393
139	0x3c62fa80	0.013853669
140	0x3f5401f6	0.8281549
141	0x3e16caae	0.14725754
142	0x3f0499d2	0.5179721
143	0x3d86bdc0	0.06579161
144	0x3f42e3fa	0.76129115
145	0x3d8a636c	0.067572445
146	0x3f03b2f8	0.5144496
147	0x3cf396a0	0.02973491
148	0x3f5d762f	0.8650846
149	0x3e8fa9da	0.28059274
150	0xbeb87df5	-0.36033598
151	0x3b3d9300	0.002892673
152	0x3f71fe02	0.9452821
153	0x3ed6c892	0.41949898
154	0xbe77f445	-0.24214275
155	0x3d84f770	0.064925075
156	0x3f7c2818	0.9849868
157	0x3ef9fe75	0.48826948
158	0xbd4ed142	-0.050492533
159	0x3dbbde90	0.0917331
160	0x3f77f4a2	0.96857655
161	0x3eeb70f0	0.45984602
162	0x3d55c1b1	0.05218667
163	0x3d72d2a0	0.0592829
164	0x3f3f8280	0.748085
165	0x3d9fa0e2	0.07794358
166	0x3f04f707	0.51939434
167	0x3d091ce0	0.033474803
168	0x3f636bad	0.88836175
169	0x3f032e02	0.5124208
170	0xbd47993e	-0.048730128
171	0x3d85d5d0	0.06534922
172	0x3f5f67a8	0.8726754
173	0x3ef04b1a	0.46932298
174	0x3d499656	0.049215637
175	0x3ca2cac0	0.01987207
176	0x3f60d74d	0.8782852
177	0x3ef82f4a	0.4847358
178	0x3e1a80a6	0.15088138
179	0x3d606cf0	0.05479139
180	0x3f6100db	0.8789193
181	0x3ef913a1	0.48647788
182	0x3e86c25f	0.26320168
183	0x3dc66f10	0.09689152
184	0x3f55f94a	0.8358351
185	0x3ebc7841	0.36810496
186	0x3e9b0a77	0.30281422
187	0x3c234180	0.009964347
188	0x3f3c0e7e	0.73459613
189	0x3db8394c	0.089953035
190	0x3f0c1744	0.54723
191	0x3d7713d0	0.06032163
192	0x3f3ca6fe	0.7369231
193	0x3e51ec28	0.20500243
194	0xbf0cd091	-0.5500575
195	0x3dbdfdc0	0.092769146
196	0x3f450be0	0.76971245
197	0x3ec82bec	0.3909601
198	0xbee10937	-0.43952343
199	0x3dcb9838	0.09941143
200	0x3f4a7605	0.79086334
201	0x3f02cb31	0.51091295
202	0xbe848ae3	-0.25887212
203	0x3db5c3d8	0.08875245
204	0x3f4c1904	0.7972567
205	0x3f0c1371	0.54717165
206	0xbe21287b	-0.15738098
207	0x3db21c90	0.08696854
208	0x3f4a71a3	0.79079646
209	0x3f02b256	0.5105337
210	0xbd3d487f	-0.046211716
211	0x3cf931a0	0.03041917
212	0x3f489a06	0.7836002
213	0x3ef07f5a	0.46972162
214	0x3e789b64	0.24278027
215	0x3d355a30	0.044275463
216	0x3f42061d	0.7579058
217	0x3ea5e380	0.3240013
218	0x3ebd461b	0.3696755
219	0x3b17b400	0.002314806
220	0x3f3b5338	0.73173857
221	0x3e33d05b	0.1755995
222	0x3ef4984a	0.47772437
223	0x3c726980	0.014795661
224	0x3f332382	0.69976056
225	0xbbbca48c	-0.00575692
226	0x3f0915d6	0.53548944
227	0x3d194bd0	0.037425816
228	0x3f332382	0.69976056
229	0x3e47655b	0.19472258
230	0xbf03df88	-0.51512957
231	0x3d574680	0.05255747
232	0x3f332382	0.69976056
233	0x3f05dfd1	0.5229464
234	0xbe179d66	-0.14806136
235	0x3d39e090	0.045380175
236	0x3f332382	0.69976056
237	0x3f125916	0.57167184
238	0x3e2aa903	0.16666035
239	0x3dc70870	0.09718406
240	0x3f332382	0.69976056
241	0x3ebfbaa0	0.3744707
242	0x3ed6c324	0.41945755
243	0x3d834ad8	0.0641076
244	0x3f332382	0.69976056
245	0x3e99784b	0.2997459
246	0x3efdd5ca	0.4957717
247	0x3da619b8	0.08110374
248	0x3f2a1be3	0.664488
249	0x3e46f23f	0.19428347
250	0xbf059f4b	-0.52196187
251	0x3d699e90	0.057035983
252	0x3f1b5088	0.60669756
253	0x3f05a3b3	0.5220291
254	0xbe876b97	-0.26449272
255	0x3db28268	0.08716279

neg f4 [25000, 4]
0	0x3f332382	0.69976056
1	0xbbbca45b	-0.0057568974
2	0xbed8b27a	-0.42323667
3	0xbd983304	-0.074316055
4	0x3f7c5a68	0.9857545
5	0xbbbca45b	-0.0057568974
6	0xbe9f69a1	-0.31135276
7	0xbd39e790	-0.04538685
8	0x3f8a5aae	1.0808923
9	0xbbbca45b	-0.0057568974
10	0xbd06f5ea	-0.032949366
11	0xbd942898	-0.07234305
12	0x3f456a62	0.7711545
13	0xbbbca45b	-0.0057568974
14	0x3ec4c1ea	0.38429195
15	0xbdc9734c	-0.09836444
16	0x3f332382	0.69976056
17	0xbbbca45b	-0.0057568974
18	0x3ef25028	0.4732678
19	0xbcc90d10	-0.024542361
20	0x3f7084b5	0.93952495
21	0x3d159609	0.036520038
22	0xbec81c07	-0.39083883
23	0xbc747580	-0.014920592
24	0x3f80bcb7	1.0057591
25	0x3d456c3a	0.048198916
26	0xbe6dd9e4	-0.2322765
27	0xbd9c024c	-0.076176256
28	0x3f872982	1.0559542
29	0x3d69ace5	0.05704965
30	0xbdcde8b8	-0.10054153
31	0xbda880fc	-0.08227727
32	0x3f690949	0.91029793
33	0x3d007a31	0.03136653
34	0x3eb1fe3e	0.34764284
35	0xbd89c8cc	-0.06727752
36	0x3f5ba3da	0.8579689
37	0x3cb55deb	0.02213951
38	0x3ed587a9	0.41705063
39	0xbd1138c0	-0.03545451
40	0x3f74b4d6	0.95588434
41	0x3db32099	0.08746452
42	0xbe97de46	-0.2966177
43	0xbd8bb4f4	-0.068216234
44	0x3f88ef79	1.0698081
45	0x3e040613	0.12892942
46	0x3d1f29ec	0.03885834
47	0xbd81f218	-0.06345004
48	0x3f8b500c	1.0883803
49	0x3e0af219	0.13568915
50	0x3df5d55c	0.12003586
51	0xbcf49a30	-0.029858679
52	0x3f69f9d6	0.91396844
53	0x3d93e1fe	0.07220839
54	0x3ebdb5dd	0.37052813
55	0xbd2bd8c0	-0.041954756
56	0x3f332382	0.69976056
57	0xbbbca46b	-0.005756905
58	0x3efb167c	0.49040592
59	0xbbf51e80	-0.0074804425
60	0x3f7cf20a	0.9880682
61	0x3e248dea	0.16069761
62	0xbe7f02a6	-0.24903354
63	0xbd5c6fa8	-0.05381742
64	0x3f82b680	1.0211945
65	0x3e38238a	0.17982307
66	0x3ddd2056	0.10797183
67	0xbd9eea40	-0.077595234
68	0x3f7c793f	0.98622507
69	0x3e2376f4	0.15963346
70	0x3e2b1638	0.16707695
71	0xbdc41e80	-0.0957613
72	0x3f332382	0.69976056
73	0xbbbca474	-0.005756909
74	0xbed0d129	-0.40784577
75	0xbdb78824	-0.08961514
76	0x3f615529	0.8802057
77	0x3e152676	0.14565453
78	0xbec191d5	-0.37806574
79	0xbd147278	-0.03624198
80	0x3f84e456	1.0382183
81	0x3e8e75db	0.27824292
82	0xbdfc9af2	-0.12334241
83	0xbc283ba0	-0.010268122
84	0x3f80c5b6	1.0060337
85	0x3e80a21c	0.2512368
86	0x3e4e48eb	0.20145003
87	0xbcbed8c0	-0.023296714
88	0x3f688798	0.908319
89	0x3e2d4e67	0.1692444
90	0x3e9a1ebe	0.3010158
91	0xbd925450	-0.071449876
92	0x3f51e9c5	0.8199733
93	0x3dc2cae8	0.095113575
94	0x3ed09c3f	0.40744206
95	0xbd4d27b0	-0.050086677
96	0x3f332382	0.69976056
97	0xbbbca47f	-0.005756914
98	0xbefc2dcb	-0.49253687
99	0xbbaf9700	-0.005358577
100	0x3f419c1f	0.75628847
101	0x3d7c5b37	0.061610427
102	0xbeefa81d	-0.46807948
103	0xbc8ba130	-0.017044634
104	0x3f70280a	0.93811095
105	0x3e8e7d17	0.2782981
106	0xbdd33906	-0.10313611
107	0xbdb754b0	-0.089517
108	0x3f7b018f	0.98049253
109	0x3ea85953	0.3288065
110	0xbd1c113a	-0.038102366
111	0xbd1133a8	-0.035449654
112	0x3f7b7692	0.982278
113	0x3ea9703a	0.33093435
114	0x3e027ad5	0.12742169
115	0xbc8c5650	-0.017131
116	0x3f74d07e	0.95630634
117	0x3e999750	0.29998255
118	0x3e4dedf8	0.20110309
119	0xbcf09b80	-0.029371023
120	0x3f6bdeb9	0.9213672
121	0x3e8445a0	0.2583437
122	0x3e8682e8	0.2627175
123	0xbd38a1a8	-0.045076042
124	0x3f332382	0.69976056
125	0xbbbca47a	-0.005756912
126	0x3edde15d	0.43336
127	0xbd839544	-0.064249545
128	0x3f332382	0.69976056
129	0xbbbca483	-0.005756916
130	0xbefd33dc	-0.49453628
131	0xbb5cb400	-0.0033676624
132	0x3f45c6eb	0.7725665
133	0x3df67850	0.120346665
134	0xbebf3b62	-0.37349993
135	0xbdb8c890	-0.09022629
136	0x3f5422b5	0.8286546
137	0x3e5eb6c9	0.21749415
138	0xbed3f476	-0.41397446
139	0xba842e00	-0.001008451
140	0x3f5e58e2	0.86854374
141	0x3e92bb2a	0.2865842
142	0xbe814e51	-0.25255063
143	0xbd7e9700	-0.062155724
144	0x3f6d7244	0.9275248
145	0x3ec7093d	0.38874236
146	0x3e0724ea	0.13197675
147	0xbbe522c0	-0.006992668
148	0x3f468479	0.7754589
149	0x3e005d71	0.12535645
150	0x3ec94d44	0.39316761
151	0xbd8f52f8	-0.06998247
152	0x3f40ef5e	0.75365245
153	0x3e11b9af	0.14230989
154	0xbecf090a	-0.40436584
155	0xbd75d330	-0.060015857
156	0x3f46a332	0.77592766
157	0x3e50650f	0.20351051
158	0xbeb6f039	-0.3573015
159	0xbd91f2e0	-0.07126403
160	0x3f55618a	0.8335196
161	0x3eb93667	0.36174318
162	0xbe95ffad	-0.29296628
163	0xbaa81b00	-0.001282543
164	0x3f544b14	0.8292706
165	0x3eb33c42	0.3500691
166	0xbdd7ccba	-0.10537095
167	0xbdc22adc	-0.09480831
168	0x3f4117ca	0.75426924
169	0x3e1375ef	0.14400457
170	0x3ed3d7e3	0.41375646
171	0xbd4fa3b8	-0.050693244
172	0x3f369f44	0.7133677
173	0x3d924118	0.07141322
174	0xbed56a07	-0.41682455
175	0xbd959138	-0.07303089
176	0x3f3e025c	0.7422235
177	0x3e70b436	0.23506245
178	0xbec8fecc	-0.39256895
179	0xbd0bb870	-0.03411144
180	0x3f41a669	0.75644547
181	0x3ea1a5f5	0.31571928
182	0xbe7a0120	-0.24414492
183	0xbdb46910	-0.088091016
184	0x3f48ff72	0.7851478
185	0x3ef4fdb8	0.47849822
186	0x3d445532	0.04793281
187	0xbadd3900	-0.0016877949
188	0x3f444c86	0.76679265
189	0x3ebfb183	0.37440118
190	0x3de5c970	0.11220062
191	0xbdbf2e00	-0.09334946
192	0x3f4254ef	0.7591085
193	0x3ea9617f	0.33082196
194	0x3e855b2f	0.2604613
195	0xbd877f2c	-0.06616053
196	0x3f3692e2	0.71317875
197	0x3d900f25	0.070341386
198	0x3ed4db93	0.41573772
199	0xbd9828ac	-0.074296325
200	0x3f332382	0.69976056
201	0xbbbca489	-0.005756919
202	0xbefadab4	-0.48994982
203	0xbc020020	-0.0079346
204	0x3f332382	0.69976056
205	0x3e63a883	0.22232251
206	0xbebb6378	-0.36599326
207	0xbd8e1db0	-0.06939256
208	0x3f332382	0.69976056
209	0x3ee99224	0.4561931
210	0xbd25a29d	-0.040438283
211	0xbd22fc80	-0.039791584
212	0x3f332382	0.69976056
213	0x3ed9f46c	0.42569292
214	0x3e5e6ac6	0.21720418
215	0xbca38740	-0.019961953
216	0x3f332382	0.69976056
217	0xbbbca484	-0.0057569165
218	0xbee216d1	-0.44158033
219	0xbd65ad58	-0.056073517
220	0x3f2facf8	0.68623304
221	0x3d91542d	0.070961334
222	0xbed4284c	-0.41436994
223	0xbda092f8	-0.07840532
224	0x3f282ab7	0.6569018
225	0x3e7300a9	0.2373072
226	0xbecae151	-0.39625028
227	0xbd1c2220	-0.03811848
228	0x3f20c191	0.6279536
229	0x3ecd8ed1	0.40148023
230	0xbdec1c7e	-0.11528872
231	0xbda6ceb4	-0.08144894
232	0x3f240f63	0.6408598
233	0x3ea8150d	0.3282856
234	0x3e845c43	0.2585164
235	0xbda7c690	-0.0819217
236	0x3f283399	0.6570373
237	0x3e723723	0.23653845
238	0x3ecca8c0	0.39972496
239	0xbd118308	-0.03552535
240	0x3f2f3f5f	0.6845607
241	0x3da4c0b9	0.080445714
242	0x3ef0f5c3	0.470625
243	0xbcb10020	-0.021606505
244	0x3f332382	0.69976056
245	0xbbbca47f	-0.005756914
246	0xbed1b2ab	-0.40956625
247	0xbdb407ac	-0.08790526
248	0x3f2b9c31	0.67035204
249	0x3d99afc2	0.07504226
250	0xbeea4bd6	-0.45760983
251	0xbd137dd0	-0.036008656
252	0x3f2465fc	0.64218116
253	0x3e1c198d	0.15244122
254	0xbedd48d3	-0.43219623
255	0xbd2a26c0	-0.04154086
