experiments/SlidingSphere2D/SdfSamples/slidingspheremodel2d_sphere_-0.07.npz (npz, 731433 bytes, 2 tensors)

pos f4 [25000, 4]
-0.06845536 -0.0017571556 -0.52552664 0.025546908 0.35957655 -0.0017571556 -0.32675958 0.041905463
0.23390508 -0.0017571556 0.48480403 0.0736388 0.12021063 -0.0017571556 0.48347822 0.020556748
-0.06845536 -0.0017571596 -0.522935 0.022955358 0.20538601 0.04652847 -0.45261663 0.03326702
0.39539382 0.080031976 -0.3592112 0.09546214 0.46022266 0.09146305 -0.15626724 0.06286818
0.3891337 0.07892814 0.34736112 0.08327091 0.2341986 0.051608905 0.4928187 0.08286983
0.03704343 0.016845126 0.56955016 0.08027643 0.20160294 0.096536025 -0.46767575 0.05072397
0.3639679 0.15563203 0.34398335 0.077276826 0.29497615 0.13052107 0.42072597 0.073804736
0.021711648 0.031060942 0.50978225 0.019385636 -0.06845536 -0.0017571669 -0.5207263 0.020746827
0.022167176 0.05056378 -0.56330967 0.07348013 0.10457197 0.09814022 -0.5192547 0.057397485
0.3027121 0.21253648 -0.32717898 0.041454136 0.4041872 0.27112317 -0.05409707 0.05125463
0.3823479 0.25851426 0.14458233 0.042979836 0.09742695 0.09401504 0.4909083 0.027998328
-0.06845536 -0.001757168 0.56130755 0.061326563 0.23637465 0.2540256 -0.44003037 0.09472656
0.31851086 0.32294607 -0.14725202 0.0282467 0.38073874 0.37516144 -0.057861127 0.09137583
0.31792617 0.32245544 0.043213323 0.008384705 0.2763933 0.28760523 0.22063212 0.0032697916
0.2758229 0.28712663 0.33586392 0.06279081 0.22702068 0.24617667 0.4195861 0.07140553
0.16226755 0.19184232 0.48290944 0.07028729 -0.06845535 -0.0017571708 0.5346185 0.034638464
0.12806982 0.33863443 -0.43468058 0.08646393 0.16545698 0.40339088 -0.23647387 0.02476263
0.20695713 0.47527122 0.0475166 0.053501546 -0.06845535 -0.001757176 0.53372663 0.03374666
0.031011328 0.27152538 -0.47321725 0.055357814 0.07932314 0.40426108 -0.3298132 0.043436408
0.0050454214 0.20018458 0.551201 0.091561496 -0.049737893 0.10439481 -0.5801481 0.089914024
-0.034845192 0.18885554 -0.5031434 0.038753033 -0.020899873 0.2679434 -0.44582585 0.022724092
-0.0033238456 0.36762205 -0.4149653 0.058711886 0.030937023 0.5619252 -0.16638047 0.09513748
0.028932668 0.5505579 0.15604657 0.08120501 0.022855118 0.5160904 0.25831044 0.084986806
-0.019137625 0.27793762 0.45516634 0.036001444 -0.06845534 -0.0017571807 -0.5754925 0.07551104
-0.068455346 0.17974772 -0.47204307 0.0051258802 -0.06845536 0.5237658 -0.26520422 0.08709633
-0.06845536 0.5465751 -0.15953887 0.06939906 -0.06845536 0.54747903 -0.05441913 0.05019355
-0.06845536 0.50372064 0.14029597 0.022910774 -0.06845535 0.35614827 0.3890787 0.027486563
-0.06845535 0.31123394 0.50197315 0.09064531 -0.068455346 0.20178887 0.5218881 0.05955714
-0.06845533 -0.0017571783 -0.5318759 0.031895995 -0.10480139 0.20437138 -0.5438123 0.08183175
-0.12969038 0.34552383 -0.39035076 0.024409413 -0.1591565 0.51263434 -0.26361272 0.08288562
-0.15577303 0.49344572 0.04307034 0.002235353 -0.1359662 0.3811157 0.42294574 0.07282758
-0.10306923 0.19454786 0.51101387 0.047635555 -0.08675229 0.102009945 0.56014365 0.069529295
00000000: 5332 8cbd 5c50 e6ba ea88 06bf c047 d13c
00000010: 6b1a b83e 5c50 e6ba 084d a7be 10a5 2b3d
00000020: d084 6f3e 5c50 e6ba 3c38 f83e f0cf 963d
00000030: fe30 f63d 5c50 e6ba 758a f73e a066 a83c
00000040: 5332 8cbd 7e50 e6ba 11df 05bf e00c bc3c
00000050: b650 523e a394 3e3d 5ebd e7be 0043 083d
00000060: 0f71 ca3e cee7 a33d 88ea b7be a881 c33d
00000070: 4ea2 eb3e fb50 bb3d 8504 20be 08c1 803d
00000080: 883c c73e 14a5 a13d 51d9 b13e f089 aa3d
00000090: c2d1 6f3e dc63 533d bc52 fc3e a8b7 a93d
000000a0: daba 173d cafe 893c 0ace 113f f867 a43d
000000b0: 0071 4e3e aeb4 c53d 3273 efbe f0c3 4f3d
000000c0: 005a ba3e 015e 1f3e 961e b03e 5043 9e3d
000000d0: 1d07 973e 51a7 053e 6569 d73e f026 973d
000000e0: a0dc b13c 8473 fe3c 1781 023f a0ce 9e3c
000000f0: 5332 8cbd bd50 e6ba 524e 05bf 40f5 a93c
00000100: f097 b53c f71b 4f3d 1035 10bf c07c 963d
00000110: d429 d63d bdfd c83d e0ed 04bf a019 6b3d
00000120: 15fd 9a3e 2aa3 593e 0184 a7be d0cb 293d
00000130: a0f1 ce3e a8d0 8a3e e494 5dbd 60f0 513d
00000140: 1bc3 c33e fb5b 843e 640d 143e a00b 303d
00000150: c887 c73d f58a c03d 5558 fb3e c05c e53c
00000160: 5332 8cbd c650 e6ba dab1 0f3f 9031 7b3d
00000170: 320c 723e a50f 823e a94b e1be 0000 c23d
00000180: db13 a33e 3059 a53e 3cc9 16be a065 e73c
00000190: 30f0 c23e 2915 c03e caff 6cbd 4023 bb3d
000001a0: 38c7 a23e e118 a53e 7400 313d 0060 093c
000001b0: 6c83 8d3e fe40 933e 63ed 613e 004a 563b
000001c0: a938 8d3e 4302 933e 5bf6 ab3e 7898 803d
000001d0: 1c78 683e bd15 7c3e fdd3 d63e 103d 923d
000001e0: 7729 263e 5072 443e e83f f73e c8f2 8f3d
000001f0: 5232 8cbd de50 e6ba c2dc 083f 10e1 0d3d
00000200: bc24 033e 7e61 ad3e 748e debe 0014 b13d
00000210: 8e6d 293e 4089 ce3e 3526 72be 00db ca3c
00000220: 92ec 533e c056 f33e c4a0 423d 7024 5b3d
00000230: 5232 8cbd 0b51 e6ba 4fa2 083f f039 0a3d
00000240: 780b fe3c 6005 8b3e 8849 f2be e0be 623d
00000250: 2c74 a23d 4ffb ce3e 47dd a8be 60ea 313d
00000260: 1054 a53b 30fd 4c3e 821b 0d3f 9884 bb3d
00000270: f6b9 4bbd f2cc d53d 9684 14bf d824 b83d
00000280: d5b9 0ebd 5963 413e 02ce 00bf 80bb 1e3d
00000290: 3636 abbc e12f 893e 4943 e4be e027 ba3c
000002a0: e0d4 59bb f538 bc3e 5576 d4be e07b 703d
000002b0: a46f fd3c 54da 0f3f a45f 2abe 70d7 c23d
000002c0: 3404 ed3c 5df1 0c3f acca 1f3e d04e a63d
000002d0: a83a bb3c 801e 043f 4441 843e 900d ae3d
000002e0: 82c6 9cbc d74d 8e3e 900b e93e 4076 133d
000002f0: 5032 8cbd 3351 e6ba 7a53 13bf 88a5 9a3d
00000300: 5132 8cbd c90f 383e a1af f1be 00f7 a73b
00000310: 5332 8cbd 8415 063f d9c8 87be 905f b23d
00000320: 5332 8cbd 59ec 0b3f 285e 23be 1821 8e3d
00000330: 5332 8cbd 9627 0c3f 98e6 5ebd c097 4d3d
00000340: 5332 8cbd d6f3 003f bfa9 0f3e 60af bb3c
00000350: 5232 8cbd 1159 b63e 5335 c73e 802b e13c
00000360: 5232 8cbd 0e5a 9f3e 5081 003f 40a4 b93d
00000370: 5132 8cbd bea1 4e3e 759a 053f 30f2 733d
00000380: 4f32 8cbd 1f51 e6ba 0529 08bf 60a5 023d
00000390: 1ca2 d6bd bb46 513e 4837 0bbf 6897 a73d
000003a0: 8ecd 04be 80e8 b03e 0edc c7be 40f6 c73c
000003b0: ecf9 22be 013c 033f 3ff8 86be f0bf a93d
000003c0: f782 1fbe eba4 fc3e 866a 303d 007f 123b
000003d0: b93a 0bbe 9921 c33e 588c d83e a026 953d
000003e0: f615 d3bd 8e37 473e ced1 023f 801d 433d
000003f0: 2fab b1bd 97ea d03d 9365 0f3f 6065 8e3d

neg f4 [25000, 4]
0.17262277 -0.0017571556 -0.39287943 -0.036800295 0.28881797 -0.0017571556 -0.18142584 -0.09548378
0.32962832 -0.0017571556 0.03336303 -0.09625974 0.3756795 -0.0017571556 0.122842394 -0.035067797
0.3019124 -0.0017571556 0.18089636 -0.083969414 0.265705 -0.0017571556 0.24882132 -0.07993868
-0.06845536 -0.0017571556 0.45073804 -0.049238294 0.09265749 0.026651388 -0.42582074 -0.042413145
0.20085075 0.04572878 -0.30349687 -0.08884746 0.35683146 0.0732324 -0.04354147 -0.06207359
0.41094276 0.08277368 0.041583218 -0.0075395107 0.38420692 0.07805943 0.1272555 -0.019296259
-0.06845535 -0.0017571589 0.4234173 -0.07655752 -0.06845535 -0.0017571618 -0.4137643 -0.08620992
0.26909137 0.1210998 -0.18239005 -0.09407973 0.33566844 0.14533187 -0.12588738 -0.048606545
0.33891234 0.14651255 0.03664591 -0.061529934 0.32921693 0.1429837 0.2072007 -0.025726229
0.08674994 0.05473295 0.42281786 -0.04480377 0.15196761 0.12550409 -0.4145929 -0.012018114
0.28191572 0.20052968 -0.11863602 -0.07566723 0.14157702 0.119505085 0.38816568 -0.04078284
-0.0015384257 0.03687734 0.4098279 -0.08240366 -0.06845535 -0.0017571684 -0.45916325 -0.040813535
-0.005107604 0.05139791 -0.44590205 -0.04608062 0.05848728 0.10476035 -0.43127644 -0.037191898
0.25864267 0.27271068 -0.21614368 -0.0194844 -0.06845535 -0.001757169 -0.4030813 -0.09689224
0.105488226 0.20554073 -0.30036792 -0.094748646 0.21907625 0.3409097 -0.13079831 -0.032584876
0.19032884 0.30664986 -0.040830977 -0.09392139 0.22524652 0.34826317 0.038814932 -0.040019333
0.20062754 0.31892338 0.115582414 -0.064346164 0.12920094 0.23380043 0.33378503 -0.04519227
-0.018960867 0.057228066 0.40838745 -0.084132016 -0.068455346 -0.0017571743 -0.49409205 -0.005886376
-0.026836645 0.07032854 -0.44880575 -0.043405384 0.020080209 0.15159091 -0.46059817 -0.0062959194
0.12972122 0.34149477 -0.3028369 -0.0006862283 0.16796637 0.40773726 -0.13806044 -0.0068024993
0.1318977 0.34526452 0.110485844 -0.083723545 0.10608332 0.3005527 0.26008612 -0.06416753
0.012788586 0.13896145 0.41590473 -0.053233832 -0.041833133 0.071386784 -0.41992235 -0.07293406
0.039882004 0.29589736 -0.35099113 -0.027315259 0.078062 0.4007961 -0.21683683 -0.020007163
0.0895057 0.43223742 -0.13493177 -0.019005924 0.083672285 0.4162102 0.037691154 -0.0537799
0.08962615 0.43256834 0.12798224 -0.020569652 0.07353313 0.38835314 0.2031936 -0.037941664
0.05407791 0.33490032 0.2670231 -0.05330199 0.015522905 0.22897126 0.3930295 -0.036655515
-0.06845534 -0.0017571728 -0.40131465 -0.09865877 -0.011147808 0.32325017 -0.25274524 -0.08507487
-0.0023802295 0.37297356 -0.19299711 -0.074199736 0.013530806 0.46320957 0.04022532 -0.027113497
-0.0058169365 0.35348308 0.26887852 -0.05086422 -0.042353842 0.14627184 0.38447672 -0.08751929
-0.06845534 -0.0017571745 0.43387812 -0.06609729 -0.068455346 0.08693292 -0.477975 -0.014164954
-0.068455346 0.24153 -0.39644718 -0.035752922 -0.06845535 0.37275875 0.18296188 -0.084738195
-0.08139339 0.07161813 -0.40210342 -0.09147653 -0.1466775 0.44186237 -0.13169268 -0.033037513
00000000: 06c4 303e 5c50 e6ba 7e27 c9be e8bb 16bd
00000010: f3df 933e 5c50 e6ba b2c7 39be 008d c3bd
00000020: 0bc5 a83e 5c50 e6ba aca7 083d d423 c5bd
00000030: 1059 c03e 5c50 e6ba cb94 fb3d 40a3 0fbd
00000040: 4394 9a3e 5c50 e6ba e53c 393e 28f8 abbd
00000050: 7c0a 883e 5c50 e6ba 04cb 7e3e e4b6 a3bd
00000060: 5332 8cbd 5c50 e6ba 23c7 e63e 18ae 49bd
00000070: 36c3 bd3d 0354 da3c 2d05 dabe 68b9 2dbd
00000080: d2ab 4d3e 1a4e 3b3d f163 9bbe a8f5 b5bd
00000090: 9db2 b63e defa 953d 8a58 32bd e040 7ebd
000000a0: 1767 d23e 3f85 a93d 2a53 2a3d 000e f7bb
000000b0: c5b6 c43e 9fdd 9f3d 444f 023e 3013 9ebc
000000c0: 5232 8cbd 7850 e6ba 27ca d83e 30ca 9cbd
000000d0: 5232 8cbd 9150 e6ba ead8 d3be d48e b0bd
000000e0: 58c6 893e 2c03 f83d 75c4 3abe e0ac c0bd
000000f0: bcdc ab3e e1d1 143e 9fe8 00be a817 47bd
00000100: eb85 ad3e 6307 163e 061a 163d d006 7cbd
00000110: 1f8f a83e 526a 123e 6c2c 543e d0bf d2bc
00000120: f4a9 b13d a82f 603d 957b d83e 2884 37bd
00000130: 669d 1b3e 2584 003e 8545 d4be a0e7 44bc
00000140: 4257 903e a757 4d3e 71f7 f2bd 6cf7 9abd
00000150: 91f9 103e 15bf f43d a7bd c63e e80b 27bd
00000160: 00a5 c9ba b20c 173d f6d4 d13e 40c3 a8bd
00000170: 5232 8cbd ca50 e6ba 7217 ebbe 182c 27bd
00000180: b05d a7bb 9d86 523d 464d e4be 08bf 3cbd
00000190: 5c90 6f3d 988c d63d 44d0 dcbe 8856 18bd
000001a0: d06c 843e bca0 8b3e c554 5dbe c09d 9fbc
000001b0: 5232 8cbd cf50 e6ba ac60 cebe 706f c6bd
000001c0: 360a d83d 4579 523e d3c9 99be 940b c2bd
000001d0: 8655 603e b78b ae3e feef 05be b877 05bd
000001e0: 90e5 423e 3601 9d3e 623e 27bd dc59 c0bd
000001f0: 06a7 663e 8d4f b23e 68fc 1e3d 50eb 23bd
00000200: 4e71 4d3e ed49 a33e 79b6 ec3d ecc7 83bd
00000210: 404d 043e 6169 6f3e dfe5 aa3e 881b 39bd
00000220: d253 9bbc fa67 6a3d 2918 d13e 684d acbd
00000230: 5132 8cbd fc50 e6ba a2f9 fcbe 80e2 c0bb
00000240: 86d8 dbbc 6908 903d dec9 e5be d8c9 31bd
00000250: 407f a43c a63a 1b3e 86d3 ebbe 004e cebb
00000260: a4d5 043e 67d8 ae3e 700d 9bbe 00e4 33ba
00000270: 60ff 2b3e f0c2 d03e b75f 0dbe 80e7 debb
00000280: 3110 073e 83c6 b03e 6746 e23d 4077 abbd
00000290: 3642 d93d 0be2 993e 022a 853e 446a 83bd
000002a0: 3887 513c e94b 0e3e 77f1 d43e b80b 5abd
000002b0: 3859 2bbd 3c33 923d 1000 d7be 745e 95bd
000002c0: 505b 233d dc7f 973e 1cb5 b3be 40c4 dfbc
000002d0: f8de 9f3d 2535 cd3e 790a 5ebe 10e6 a3bc
000002e0: c44e b73d 394e dd3e 8e2b 0abe 50b2 9bbc
000002f0: 605c ab3d 8119 d53e 0a62 1a3d 5048 5cbd
00000300: ea8d b73d 9979 dd3e c70d 033e b081 a8bc
00000310: 8a98 963d 39d6 c63e fc11 503e b868 1bbd
00000320: cc80 5d3d 0e78 ab3e 40b7 883e 3053 5abd
00000330: c853 7e3c 7177 6a3e 2a3b c93e 1824 16bd
00000340: 5032 8cbd ef50 e6ba 1d79 cdbe 9c0d cabd
00000350: 4ca5 36bc 0c81 a53e d367 81be bc3b aebd
00000360: a0fd 1bbb 64f6 be3e 09a1 45be 08f6 97bd
00000370: 50b0 5d3c ce29 ed3e 4ec3 243d 201d debc
00000380: 009c bebb bcfb b43e 72aa 893e 0057 50bd
00000390: 397b 2dbd 49c8 153e 22da c43e 503d b3bd
000003a0: 5032 8cbd fe50 e6ba 4625 de3e 045e 87bd
000003b0: 5132 8cbd e309 b23d 24b9 f4be 2014 68bc
000003c0: 5132 8cbd a453 773e 20fb cabe a871 12bd
000003d0: 5232 8cbd 3cda be3e 5c5a 3b3e 388b adbd
000003e0: 94b1 a6bd 87ac 923d 80e0 cdbe 0c58 bbbd
000003f0: a032 16be c93b e23e 72da 06be 5852 07bd
