experiments/SlidingSphere2D/SdfSamples/slidingspheremodel2d_sphere_0.36.npz (npz, 40602 bytes, 2 tensors)

pos f4 [247, 4]
00000000: 6a62 4a3f 40a9 82bc 0079 fdbc f032 e83c
00000010: 72a8 0e3f 101d 64be 4832 ad3e 8871 483d
00000020: 20ab 563e 300a 2abe b4fe e23e 6862 c83d
00000030: ac08 a73e c4ee a73e 504b f1bd 40b2 4abd
00000040: b042 333e 802c 6f3e e82a c13e 6c37 a83d
00000050: 489e 3b3e c81b 3a3e 3c3f d5be bc20 b63d
00000060: a840 833e f02f 86be e08a b93e a86a 753d
00000070: 0042 843e 9ce3 84be 8073 46be e840 73bd
00000080: b690 1c3f 3835 62be 8032 643d 7c98 81bd
00000090: 98fe c73e a00b 4cbe f4bf a13e 0009 d1bc
000000a0: 706d 2c3e 80ab ab3c 9c89 87be 542b 90bd
000000b0: 1a30 2b3f 4404 943e f0ba d6bd 58db 073d
000000c0: a0a6 363d c85d 3bbe 002f 5ebd 6047 e7bc
000000d0: f6e0 0d3f f058 9abd 183a 94be d88a 39bd
000000e0: 10e7 e73d 30ef 25be 00d8 fbbd d07a 9ebd
000000f0: f884 1e3f c079 d13c c492 d8be ec4c c23d
00000100: f82e 0d3e 8026 77bc 906f 7fbe 7879 81bd
00000110: 78af 893e a87c 8d3e 68a7 59be 98a4 1ebd
00000120: 026f 273f 6040 7dbe e0d5 503d 4079 78bc
00000130: ba17 123f 40ab b33d 0ce4 8d3e d89f 30bd
00000140: 5cf8 1b3f 94d7 b6be c017 abbd 8099 293d
00000150: 1850 823e 5c9a 84be 0caf abbe d0ac 193d
00000160: 70db 023e d420 82be 9017 e2bd c8f5 13bd
00000170: 6691 0a3f 20c6 fabd 40df a93e 00c4 8abb
00000180: ecd5 bb3e 40a8 473d b028 ed3e 64b2 863d
00000190: 8c38 d73e 38bf 133e e0d2 8fbe 041b a2bd
000001a0: 9eda 193f d460 d4be b8b1 13be 7c29 cb3d
000001b0: d834 643e 50e0 88be 8087 883d d489 b9bd
000001c0: fc58 1e3f ec12 96be 90b2 6e3e d82f 593d
000001d0: bc16 de3e 3056 8bbe 78df a73e f866 023d
000001e0: 98ca 743e 38bf 74be a08f 78be b8b0 18bd
000001f0: 0c29 d13e 488d 03be bc2b d43e f824 143d
00000200: a04f c53e 0083 cbbc 546a ebbe 18c5 793d
00000210: a02b 8c3e 0089 773e 4818 c0be a067 623d
00000220: 3834 343e 4886 273e 88c5 33be 0c51 c3bd
00000230: dcff a83e f097 0bbe 3c49 c53e 4088 253c
00000240: 40f6 503d 881f 70be a05b 02bd c0a4 01bc
00000250: bcdd 2a3f b095 793e d882 6cbe 2862 583d
00000260: dc00 9d3e 604a 973e 60b4 e2bd 3c83 a2bd
00000270: 603c 713d 7cd3 aabe 00a0 c8b9 0875 543d
00000280: 602a 823e 20ec eb3e e095 833d 409c 9f3d
00000290: 1891 cc3e 4096 4c3d 147d c53e c019 1abc
000002a0: b03d e7bd 78b6 123e 40cb ba3c 28fe c83d
000002b0: b433 d53e 4c16 a73e 9cae 8cbe 00a4 f43c
000002c0: e843 f83e c079 183e 4847 e4be 0801 af3d
000002d0: ac32 ec3e 40ca c73d 5898 c9be b03f 8d3c
000002e0: 14f9 1a3f 44dd d43e 009e 2fbc 04f6 a53d
000002f0: e080 333d 807d 24bc c06b e73d 207a 78bd
00000300: d0f0 f33e f823 463e 0cf8 c33e 100e 323d
00000310: 185f 063f a0af ec3d 1060 6dbe 0453 c2bd
00000320: f6a5 063f f4e2 8abe 1450 87be 4058 453c
00000330: 50e7 2f3e 8850 a83e 0061 7ebd 60ea 6abc
00000340: 044b 813e b003 6abe b045 39be 5c58 b4bd
00000350: 301d 103f 4069 853e 008e 85bd 9c32 86bd
00000360: 0aa3 103f 802d d4be e00c d43d bceb 933d
00000370: c02e f43c 90d2 b6bd 0823 a93e 7cdc 9f3d
00000380: ac58 933e 0036 533d 4407 fa3e 8066 c63d
00000390: 2891 af3e cc52 d1be c0da 033d e00f 2e3c
000003a0: 482b b23e 3867 42be 005d e23e f0b8 a63d
000003b0: bc12 bd3e 4495 e2be 1035 1fbe 0882 8d3d
000003c0: 8067 c73c e878 7ebe 9075 b2bd 80aa f13c
000003d0: a08f 4b3d e899 6c3e 18fc 9c3e 307b c43d
000003e0: c089 3c3e 209f ddbe 00f1 603d 9011 933d
000003f0: 4cfb e83e b068 a8be dc5c 9abe d027 633d
0.7905642 -0.015949845 -0.030941486 0.028344601 0.5572578 -0.22276711 0.33827424 0.048936397
0.20963717 -0.16605449 0.44334948 0.097843945 0.32623804 0.3279935 -0.11781943 -0.0494864
0.17505908 0.23356819 0.37728047 0.08213696 0.18322098 0.1817466 -0.41649806 0.08892962
0.25635266 -0.26208448 0.36238766 0.05991617 0.25831604 -0.25954902 -0.19379997 -0.05938807
0.6115831 -0.22090614 0.055712223 -0.06327912 0.39061427 -0.1992631 0.3159176 -0.025516987
0.16838622 0.020955801 -0.26472175 -0.07039514 0.6687027 0.28909504 -0.10484874 0.033168167
0.0445925 -0.18297493 -0.05424404 -0.028232276 0.5542139 -0.07536495 -0.28950572 -0.045298427
0.113233685 -0.16204524 -0.12297058 -0.077382684 0.61921644 0.02557075 -0.42299473 0.09487328
0.13787448 -0.015084863 -0.24944901 -0.063219965 0.26891685 0.27634168 -0.21255267 -0.038731188
0.6540376 -0.24731588 0.050985217 -0.015165627 0.57067454 0.08772898 0.27713048 -0.04312119
0.6092584 -0.35711348 -0.08354139 0.041406155 0.25451732 -0.25899017 -0.33531988 0.037518322
0.12779021 -0.2541567 -0.110396504 -0.036123067 0.5412811 -0.122448206 0.3317814 -0.004234791
0.36686647 0.04874444 0.46320105 0.06576994 0.4203533 0.14428413 -0.28090572 -0.07915309
0.6009921 -0.41480124 -0.14423263 0.09920022 0.22285783 -0.26733637 0.066664696 -0.09059492
0.6185453 -0.2931131 0.23310304 0.053024143 0.4337672 -0.27214193 0.3278768 0.03183648
0.23905408 -0.23901069 -0.24273539 -0.037277907 0.4085163 -0.12846863 0.41439617 0.03616807
0.38537312 -0.02484274 -0.4597956 0.06097898 0.27377033 0.24173355 -0.37518525 0.055274606
0.17598045 0.16359818 -0.17555821 -0.09536943 0.33007705 -0.13632178 0.38532436 0.010103285
0.051016092 -0.23449528 -0.03182566 -0.007912815 0.6674459 0.24373507 -0.23096788 0.052827984
0.30664718 0.2954893 -0.1106956 -0.07935187 0.05889547 -0.33364475 -0.00038266182 0.051869422
0.25422955 0.46078587 0.06425071 0.07793474 0.39954448 0.049947977 0.3857199 -0.009405553
-0.11291063 0.14327419 0.022801995 0.098141015 0.4164101 0.326342 -0.27476966 0.029863358
0.48489308 0.14890194 -0.44585633 0.085451186 0.4613241 0.09755373 -0.39374042 0.017242283
0.60536313 0.41575062 -0.0107188225 0.081035644 0.043824077 -0.010039687 0.112998486 -0.060663342
0.47644663 0.19349658 0.38275182 0.043470442 0.5248885 0.11556935 -0.23181176 -0.0948849
0.52596986 -0.27126276 -0.26428282 0.012044966 0.17178082 0.3287394 -0.062104225 -0.014338106
0.25252545 -0.22852969 -0.1809299 -0.08805916 0.56294537 0.26056862 -0.06521225 -0.06552622
0.5649878 -0.41440964 0.10354018 0.07222697 0.029807448 -0.0892688 0.3303454 0.07805726
0.2877859 0.05156517 0.48833668 0.09687519 0.34290433 -0.40883482 0.032191038 0.010623902
0.34798646 -0.18984687 0.44211578 0.08140743 0.36928356 -0.44254506 -0.15547585 0.06909567
0.024341345 -0.2485081 -0.087138295 0.029500246 0.04969752 0.23105586 0.30661082 0.09593809
0.18411922 -0.43285465 0.054917336 0.07181084 0.45504224 -0.3289237 -0.3014897 0.05545789

neg f4 [2500, 4]
00000000: 50da 17bf 2027 a33d e8d7 e53e 40ee 283f
00000010: 60e4 513e a07d 82bd fe3f 43bf 5f64 c33e
00000020: 4451 db3e 3802 aebe ca8c 393f 7b68 ce3e
00000030: aca8 2cbf e0c7 11bd 306f 74be f66f 2a3f
00000040: 704d a6be d8e8 463f 609d dfbe faea 393f
00000050: a86d eebe c03b d03c 08af 54be 171e e93e
00000060: 70f1 6cbe 8aa0 5cbf 1089 b73e 74f9 343f
00000070: 3077 a3be 9854 2e3e 707d 823d af05 9d3e
00000080: e228 303f 80be 4e3f 3ac1 27bf 0480 303f
00000090: b294 48bf 547e 4fbf 36b9 70bf a428 a53f
000000a0: 0a55 63bf 9c41 fbbe 703b f73d c027 733f
000000b0: 241b 303f 9850 5dbf d022 c83e 0c48 1a3f
000000c0: 4aee 6cbf 3e57 54bf 409b d13e 8ce4 973f
000000d0: 00d4 2fbb de44 15bf 0a52 473f c6b0 233f
000000e0: 8052 303d 2e04 04bf c815 c43e 31c4 a23e
000000f0: 02a8 79bf 5887 21bf 1853 973e d8fd 8d3f
00000100: 3c94 0cbf b02d e1bd 1a92 26bf 8af0 393f
00000110: e033 3ebd aef9 383f 0672 433f a073 3a3f
00000120: 9cfa 003f 527b 393f 2062 febd a95b b23e
00000130: a4f1 39bf e2c9 583f 0059 4abf e764 983f
00000140: 48d7 a9be 80b8 b03e f0cb c63d dfc3 c33e
00000150: 346c c4be 28d3 a83e c874 3c3e 69e1 df3e
00000160: 5874 2abf 8a35 463f 901f 7cbe f854 693f
00000170: ca82 4b3f 2014 0b3e b468 c1be 72c4 413e
00000180: a08f 55be f0cf d2bd 7c74 1fbf 7771 e73e
00000190: c006 eb3d f041 c53d 504d ff3d b0f8 d7bd
000001a0: ee2a 68bf 8044 94bc 3abd 403f 2dda 893f
000001b0: c879 773f c0b6 d83d b494 a5be b1ba 953e
000001c0: f8f8 2e3e ac8c 23bf d047 5c3e a72d 9a3e
000001d0: 9c68 813e 5057 eb3d 0c9c 1a3f 5e17 663e
000001e0: ac76 34bf 865a 08bf d8fb 65bf 940e 8c3f
000001f0: ba51 0bbf 4cb7 30bf 5c2a 2b3f de09 6c3f
00000200: 60f7 b6be 36f6 153f ec46 053f 0437 2a3f
00000210: 3875 05be b0a5 a0be 40a0 0b3f d3c6 cc3e
00000220: dcfb 2f3f 9e11 74bf 70d4 29be a0d5 1e3f
00000230: 842c aabe 5277 013f 2ef2 433f ee64 403f
00000240: c059 383e 002e c4bc b843 533f e13b e43e
00000250: 4eb9 02bf 505f 373e b4a4 133f ee9d 293f
00000260: f8e2 3bbf 7887 59be fc3b 3cbf 7225 703f
00000270: 7c40 00bf 6807 b23e 149d 93be c053 133f
00000280: c04b 9bbe 7097 5fbe 94d6 6b3f 9412 423f
00000290: 00e1 b63e 5c91 183f 2871 0fbe 5256 593e
000002a0: a6fa 223f 9836 7ebf e0b4 9b3e f07f 2c3f
000002b0: 9012 b6be 8692 7a3f b0ea d7be cac1 623f
000002c0: c861 193e 4413 e6be 9c9b ce3e 6e7a 763e
000002d0: 8c43 31bf 686d 2f3f 08d7 71be 5c81 613f
000002e0: 0c83 9cbe 8849 64bf 321c 093f bc42 563f
000002f0: 4898 36bf 808e 6d3f 3073 ddbd c748 833f
00000300: e802 29be de85 35bf aa2f 34bf 92f8 3a3f
00000310: 208b 5dbf 4462 03bf 20dc f93d d6fd 6f3f
00000320: c2cf 11bf 4e12 7ebf a8da 423f ef8b 943f
00000330: de9a 4bbf b050 493f 9035 4e3f b29b 9b3f
00000340: 04a9 683f c819 f43e f0fc aabe e389 cb3e
00000350: 2c54 7fbf 406e e13e 9c65 be3e 27fc 893f
00000360: d017 47be 189f 56bf b4b9 993e d6a2 263f
00000370: 5852 193f bc92 eabe 0219 6f3f 32a4 2a3f
00000380: dc25 85be e072 6ebd ac32 ffbe 8f0f cd3e
00000390: 7638 523f 6a1f 6abf 3001 d73d 7ec3 203f
000003a0: 1cb7 433f b29e 5bbf 6081 4bbf 5e1c 563f
000003b0: 90f2 97be e41e bbbe 9037 8c3e cb4d ce3e
000003c0: 9e3d 263f f09c 713f 70fe cfbe 38a0 2a3f
000003d0: acd7 3a3f 485f 403f 6afd 67bf 3838 553f
000003e0: d841 53be 3876 793e 3aa1 16bf 65c5 e83e
000003f0: 14f0 fabe 0017 853d d8ff 7bbe 0955 fb3e
-0.59317493 0.07966447 0.44891286 0.6598854 0.20497274 -0.06371617 -0.7626952 0.38162515
0.42835438 -0.33986068 0.7248045 0.40314087 -0.6744487 -0.035591006 -0.2387054 0.6657709
-0.32480955 0.7769904 -0.43674755 0.7262417 -0.46568036 0.025419116 -0.20769894 0.4553077
-0.23138976 -0.86182463 0.35846758 0.70693135 -0.3192687 0.17024457 0.063715816 0.306684
0.6881238 0.8075943 -0.65529215 0.68945336 -0.7835189 -0.81052136 -0.9403261 1.2903028
-0.88801634 -0.49073493 0.12071884 0.9498253 0.68791413 -0.864511 0.3908906 0.60266185
-0.925511 -0.8294562 0.4093876 1.1866622 -0.0026829243 -0.5830821 0.77859557 0.6394161
0.043047428 -0.5156888 0.38297868 0.31790307 -0.97521985 -0.63097143 0.29555583 1.1093092
-0.5491369 -0.10995042 -0.65066683 0.7263266 -0.04643619 0.7225598 0.7634586 0.7283268
0.503824 0.72453797 -0.124210596 0.34835556 -0.7263434 0.8468305 -0.79042053 1.1905793
-0.3317206 0.34515762 0.09706867 0.38235375 -0.38363802 0.329736 0.18403924 0.43726662
-0.66583776 0.77425444 -0.24621415 0.9114528 0.79496443 0.13581896 -0.37775195 0.18922594
-0.2085557 -0.10293567 -0.62287116 0.45203754 0.11475897 0.09631717 0.12465918 -0.1054548
-0.90690506 -0.01809907 0.75288737 1.0769707 0.966702 0.10581732 -0.32340014 0.29243997
0.17087162 -0.63886523 0.2151177 0.30112955 0.25275123 0.11491263 0.6039436 0.22469851
-0.7049358 -0.5326313 -0.8983741 1.0941949 -0.5442158 -0.6902969 0.6686151 0.92202556
-0.35735607 0.58578813 0.52061343 0.664902 -0.13032997 -0.3137641 0.545414 0.3999544
0.6874368 -0.9533938 -0.16584945 0.62044716 -0.33237088 0.50572693 0.7654141 0.75154006
0.18002987 -0.023947716 0.82525206 0.44576934 -0.51064 0.17907453 0.5767319 0.66256607
-0.733932 -0.21243083 -0.7352903 0.93807137 -0.50098395 0.34771276 -0.2883078 0.5754967
-0.3033123 -0.21835113 0.92124295 0.758096 0.35718536 0.595968 -0.1400801 0.21224335
0.6366371 -0.99302053 0.30411434 0.6738272 -0.35561037 0.9787983 -0.4217124 0.8857695
0.14978707 -0.44936574 0.40353096 0.2407014 -0.69243693 0.68526316 -0.23617184 0.8808801
-0.3056873 -0.891747 0.5355865 0.8369558 -0.7132611 0.9279556 -0.10812986 1.0256585
-0.16505015 -0.7090739 -0.7038523 0.7303554 -0.8654041 -0.51321816 0.12200189 0.937467
-0.5695764 -0.9924668 0.7611489 1.1605204 -0.79533184 0.78638744 0.8055048 1.215689
0.908829 0.4767592 -0.333961 0.39753637 -0.9973781 0.44029427 0.37186897 1.0780076
-0.19442677 -0.8383651 0.30024493 0.6509222 0.5989127 -0.45815074 0.93397534 0.6665679
-0.26005447 -0.058215022 -0.49843347 0.40050933 0.821174 -0.91454184 0.104982734 0.627983
0.7645128 -0.85789025 -0.79494286 0.83637035 -0.29677248 -0.36547005 0.2738614 0.40293726
0.6493777 0.9438009 -0.40623808 0.66650724 0.7298534 0.7514539 -0.90621054 0.8328891
-0.20630586 0.24361503 -0.5883976 0.454631 -0.4901129 0.064985275 -0.24609315 0.49088314
