experiments/SlidingSphere2D/SdfSamples/slidingspheremodel2d_sphere_0.51.npz (npz, 42721 bytes, 2 tensors)

pos f4 [392, 4]
00000000: 565a 333f 9872 fdbe a05f 6b3e 2091 a03d
00000010: 8efd 4c3f 507f cf3d 28b2 aabe 20cb 3abd
00000020: be0d 623f a06c bf3e 2854 71be 30a1 a13d
00000030: bab3 7b3f 0021 58bc fc3f 9bbe b8e9 803d
00000040: 5c0d 233f 8018 c0bd 0897 e5be 00b2 c7bc
00000050: cccf a63e 685c d3be 70fc 92bd 38bb 2ebd
00000060: e6c9 033f e0ad 373d c80a f6be 40f2 8dbc
00000070: 0053 203c 80e7 55bd 2053 83be 2093 823d
00000080: 8607 5d3f c073 a53c 10ca 8dbe a033 4cbd
00000090: 1850 9a3e d01c 433e fc34 06bf c8fe c23d
000000a0: f4e3 103f e8a1 dd3e 805e 583e a017 75bc
000000b0: 58ca 553f 90b9 ddbe 0847 4d3e d8a0 9f3d
000000c0: 0a9a 383f e021 053e 4c8c d7be e0d0 34bc
000000d0: 46fa 273f c0fc 33bd 1c14 dd3e 00f2 2abd
000000e0: a60b 503f e004 443d 94bf 9bbe 5c65 8abd
000000f0: 0012 533d 88a0 973e 0063 d43b e09f 383d
00000100: c80d 633e 5c6d da3e e02c 64bd 805a 8e3c
00000110: c083 a83d 6c9c a93e c088 dabc 60b2 273d
00000120: 8873 e83e b462 e63e 0022 ec3d 480a 04bd
00000130: b49a 083f 04d0 f5be b4d9 98be a0ed 863d
00000140: 6c6d d03e 5491 e7be 94cd 98be e07e 523d
00000150: c66c 163f a004 adbe a48f b8be 0060 9b39
00000160: 3aa8 333f a043 3bbd 34ad c23e 14ff 91bd
00000170: a025 323d 98ad 9abe 38a9 1ebe 8025 9c3d
00000180: eec6 3e3f 6008 75bd 400c b03e dc00 a1bd
00000190: c4bd 193f ac2b 12bf 2099 71bd b06a a63d
000001a0: f058 1e3e 407a dc3c e4d7 c9be 8086 fc3c
000001b0: b04e 8e3d 70bc 133e d0b4 b3bd 7036 eebc
000001c0: 989b b63e 24a1 bb3e 9cf2 a23e 4040 0f3c
000001d0: 925f 583f b07f 86bd 74d2 933e e843 55bd
000001e0: d8b9 c93e c02d 02bf b0cb de3d 4089 053d
000001f0: 205a 6b3d 7021 90be 30b5 a9bd 6014 1e3d
00000200: e01d a63e 20db ce3e 4044 103e 0833 0bbd
00000210: 204a 833d e066 25be b839 1a3e 005b 53bb
00000220: ae5b 363f 80aa f53d b03b b6be e461 95bd
00000230: b4ca a33e a021 28be aac4 013f 10fd 853d
00000240: 1029 9e3e c037 8b3c 0ae9 0c3f 3006 b03d
00000250: ccbd bc3e 189f e2be f4d3 8b3e 109e 1e3d
00000260: 0040 ff3b 800b c5bd 2cb5 8c3e 0849 a33d
00000270: 008a 033f a41d c2be 7418 df3e 50ef 9e3d
00000280: dc89 7b3f e03a 0ebe 9404 833e 20b9 643d
00000290: 3053 cc3e 108e d9bd 5e91 063f c05b 423d
000002a0: 3ac4 6f3f 1007 7ebe e8c4 213e 40c8 9a3c
000002b0: 7090 563e 280d 7b3e 9002 7d3e f001 27bd
000002c0: f0f5 d13d d8d6 7f3e fcbd 813e a01b 253d
000002d0: 5cb4 ce3e d05e 373e 9097 d73e e072 f9bc
000002e0: 10b1 d83d c863 1cbe d0b9 ad3d b0d0 77bd
000002f0: b49d f43e 3846 eb3e 5462 843e 8002 e73c
00000300: 604f 0b3e 2063 763e a06d 523e 4074 31bc
00000310: 58c7 763e 74b4 f3be d800 113e a0c9 833d
00000320: 7e0f 303f 7c01 843e 0472 9a3e e4c0 84bd
00000330: a013 183f 2436 b73e f480 873e 5012 40bd
00000340: 80f5 debc 8827 69be 9009 c4bd c83d b93d
00000350: 68ec 683f 08ba 0abe d881 cb3e 28d1 a43d
00000360: 42cf 703f f887 863e 80cf 9e3d 4038 373c
00000370: 380a 563f f890 d0be 006e b4bb 807c b73c
00000380: 3032 f43e ecca e4be f022 abbd 2848 35bd
00000390: e423 ad3e 5c81 b6be a858 283e 302b 93bd
000003a0: 80a5 763c 3096 5e3e c067 b43c f09f 243d
000003b0: 8cfc 1c3f a4e7 953e ace4 a73e 508d 45bd
000003c0: e04f 603d 0033 21bc 5476 8bbe 4040 f43c
000003d0: f8aa 003f b2ee 06bf f805 4f3e 2838 843d
000003e0: 34ae 8b3e 08a7 a73e 2cfd cf3e 580a 953d
000003f0: f686 513f 287b e0be 509d b93d 800d 353d
0.70059717 -0.4950149 0.22985697 0.078401804 0.80074394 0.10131705 -0.33339047 -0.04560387
0.8830222 0.37387562 -0.2356726 0.07892072 0.98321116 -0.013191462 -0.30322254 0.06294578
0.6369226 -0.09379673 -0.4484179 -0.02437687 0.3258041 -0.41281438 -0.07177055 -0.042659014
0.5147995 0.044843554 -0.480551 -0.017327428 0.009785414 -0.05222273 -0.25649357 0.06375718
0.86339605 0.020196795 -0.27693224 -0.04985392 0.30139232 0.1905396 -0.524246 0.09521252
0.5659783 0.43287587 0.21129799 -0.014959246 0.8351188 -0.43305635 0.20046628 0.077943504
0.72110045 0.13001204 -0.42099226 -0.011036128 0.6561626 -0.043942213 0.43179405 -0.041734695
0.81267774 0.04785621 -0.304196 -0.06757614 0.051530838 0.29614663 0.0064815283 0.045074344
0.22173226 0.4266156 -0.05570686 0.017377138 0.08228254 0.33127153 -0.026676536 0.040941596
0.45400643 0.4499718 0.115299225 -0.032236367 0.5336106 -0.48010266 -0.29853594 0.06588292
0.40708482 -0.45228064 -0.29844344 0.05139053 0.58759725 -0.3379259 -0.3604709 0.0002963543
0.7017857 -0.04571879 0.38022768 -0.071287304 0.043492913 -0.30210567 -0.1549424 0.0762434
0.7452229 -0.05982244 0.34384346 -0.07861492 0.60055184 -0.5709789 -0.058983922 0.08125818
0.15463614 0.026913762 -0.39422524 0.030825853 0.06948602 0.14427352 -0.087747216 -0.029078692
0.35665584 0.36646378 0.3182572 0.008743346 0.8452083 -0.06567323 0.288715 -0.052066714
0.393996 -0.5085106 0.10878694 0.032601595 0.057458997 -0.2815051 -0.08286512 0.03859365
0.32444668 0.40401554 0.14088535 -0.033984214 0.064106226 -0.16152525 0.1506108 -0.0032250285
0.7123364 0.11995411 -0.35592413 -0.07294062 0.31990588 -0.16419077 0.5069071 0.065424085
0.30890703 0.016994357 0.5504309 0.0859493 0.36863554 -0.44262004 0.27310145 0.03872496
0.007789612 -0.09621334 0.27481973 0.07972914 0.51382446 -0.3791324 0.43573344 0.07760489
0.9825723 -0.13889647 0.2558943 0.05584061 0.39907217 -0.106227994 0.5256556 0.04745078
0.9365879 -0.24807382 0.1579777 0.018894315 0.20953536 0.24516737 0.24708009 -0.040773332
0.10251987 0.249843 0.2534026 0.04030955 0.40371978 0.17907262 0.4210782 -0.030450284
0.10580647 -0.15272439 0.084827065 -0.060501754 0.47776568 0.4595201 0.25856268 0.028199434
0.13604498 0.2406125 0.20549631 -0.010830939 0.24099481 -0.47598612 0.14160478 0.06434941
0.6877364 0.25782382 0.30165112 -0.064821035 0.59404945 0.35783494 0.2646557 -0.046892464
-0.027216673 -0.22768986 -0.095721364 0.09044987 0.9098573 -0.13547528 0.397475 0.08047706
0.9406625 0.2627561 0.07754421 0.011182845 0.8360934 -0.40735602 -0.005506277 0.022398233
0.4769454 -0.44686067 -0.08356273 -0.044258267 0.33816445 -0.35645568 0.1644007 -0.07185972
0.015054107 0.2173698 0.022022128 0.04019159 0.61322856 0.2927829 0.3279165 -0.04823047
0.054763675 -0.0098388195 -0.27238715 0.029815793 0.5026088 -0.5270797 0.2021712 0.064560235
0.27281344 0.32744622 0.40622842 0.072773635 0.8184656 -0.4384396 0.09063208 0.044202328

neg f4 [2500, 4]
00000000: 507b 1bbe c075 343f 7a04 11bf 2ebf 1e3f
00000010: 72e0 05bf 6e7f 21bf 3841 88be 300f 3d3f
00000020: 9845 173f 500f 28bf 7098 ddbd c470 2e3e
00000030: ba0e 08bf 9023 af3d 7c21 9b3e 644f 163f
00000040: 306b 3f3e 100c f53e 9ce8 17bf c2be a73e
00000050: 70cf f83d 2016 27bf f088 c8be d057 b53e
00000060: 16bb 5c3f 007d 273f 684e 1e3f c41e ef3e
00000070: d4e1 34bf 047c 3d3f 0cc4 2bbf 3368 893f
00000080: ac45 67bf 40b3 06bf f2bd 143f 39c6 8e3f
00000090: 58f4 babe 800b 42bf 4a71 1a3f b60e 4e3f
000000a0: 40c7 d3be b017 58be 54a9 5fbf 5cc2 493f
000000b0: 483f 3c3e 3857 e9be ca9a 75bf ec5e 1c3f
000000c0: 1473 6e3f baff 6abf e04d 933d 6c55 033f
000000d0: e88f 62be 58f0 0bbe 185f 2e3e ca49 863e
000000e0: 4040 e13d 88f6 72bf 201c 313e c243 0b3f
000000f0: d238 003f f474 883e a05c 42bd a4aa 6abe
00000100: 804c e0be a0fa 97bd 80ad 1d3f d8db 213f
00000110: 407d d4bc 980f ff3e 4e58 533f ae4b 1a3f
00000120: 006c 0ebf 60d5 4e3d 0880 2a3f 54ea 413f
00000130: d007 d93e d055 3dbf bcbb 27bf 96c5 fb3e
00000140: 281a 62be 081a 22be 7cf6 403f 16a5 0f3f
00000150: 04cf ef3e 943d 31bf c010 e2bd 3820 4f3e
00000160: a238 7abf e01e a2bd 269b 1dbf 3a32 8e3f
00000170: 7a8b 2f3f 0029 5f3e 68f1 2ebe e2aa 2fbe
00000180: 1016 7dbe 222d 0b3f e87c 473f 1ce1 363f
00000190: d282 033f d8e0 ef3e 04ac cf3e 002c f53d
000001a0: 267d 51bf a271 683f 0e46 483f 22eb a43f
000001b0: 90fa 19be b024 34be 7c74 f3be 26e5 a93e
000001c0: 4066 a3bc 6c50 273f c2db 273f 5cf8 103f
000001d0: 207c a5be 2064 adbd 2cb2 f63e de4c ee3e
000001e0: da62 513f 4074 46bd 3821 053f a0a5 da3d
000001f0: e86d 53be 201e 393e 6084 a83d 6c71 783e
00000200: ae94 793f 60a3 bd3e fc8c 0dbf 20ed 9f3e
00000210: 32ea 4c3f 60e6 423e d82c 00bf d8c6 e03d
00000220: 88ae 7c3e 1a40 35bf e8e7 d23e 765f b83e
00000230: 20b3 a43d d6c9 5e3f b688 753f ee3b 5d3f
00000240: 48de 4a3e fca6 783f 1016 18be f6d6 073f
00000250: 60c3 ecbe ee1f 28bf 808c d8bc 9247 2c3f
00000260: 009b e33b 0051 2a3f d800 6f3f fc65 403f
00000270: 9e6a 1ebf 1063 383f 084f 38bf 5383 823f
00000280: 3ce9 ea3e 083b 52bf c82c 51be b009 b23e
00000290: 1024 c53d aab0 673f 428b 65bf 4ed7 563f
000002a0: 4cdd 6a3f c0a4 f8bd 9819 3fbf 600f b83e
000002b0: 48a8 5e3e 9c8e 2fbf 3242 52bf 56e8 1b3f
000002c0: d883 5a3f b820 12bf d406 3d3f c05b fd3e
000002d0: 881e 48bf 4c73 3a3f 10ff aabe 6177 823f
000002e0: 349c dbbe 5057 953e 1090 c9be ccea 0e3f
000002f0: 101a fcbe 00dd 473d 5a58 183f d27c 2a3f
00000300: e07a 063d 30d7 6e3f 4094 c5bc 303b 0c3f
00000310: 3031 6d3f 2259 22bf 0042 ecbb 6abe 843e
00000320: d40b febe 541f cdbe 8864 dabe 38c7 293f
00000330: acb1 96be e0fa 41bf 6865 ba3e 36af 293f
00000340: 3e86 4cbf b4fc 1dbf f0d6 47bf 9d5e 923f
00000350: 6c82 a6be e4ab 6bbf 94b7 853e 5201 453f
00000360: e43e cabe ccdc 47bf b008 773e 8ef9 373f
00000370: e2cd 423f 1c3c 2a3f 220a 7d3f 06b7 373f
00000380: e0c2 c2bd b0bc 92be a897 54be e001 4d3e
00000390: fa5e 5abf f4c1 26bf e4b9 5e3f d90c 9f3f
000003a0: 885f 463f dacd 31bf 501e bb3d ec3e 7f3e
000003b0: 504d e33d ac61 a3be 347b a4be d0c9 d23d
000003c0: 5028 8b3e 8000 9d3d 88f4 4bbf 126d ab3e
000003d0: b47d 91be 0c0e ffbe c2ad 7cbf d459 5c3f
000003e0: d8fd 213f 2297 45bf 8634 53bf 56f3 223f
000003f0: 2891 4fbf b832 163f 16ce 65bf acae 993f
-0.15183759 0.7049217 -0.56647456 0.6201047 -0.522956 -0.6308507 -0.26612258 0.738513
0.59090567 -0.65648365 -0.10820091 0.17035204 -0.5314747 0.08551705 0.30298984 0.5871489
0.18693233 0.47860765 -0.5933931 0.32762724 0.121489406 -0.65268135 -0.39166975 0.35418558
0.8622297 0.6542511 0.6183839 0.4670316 -0.70657086 0.7401736 -0.6709602 1.0734924
-0.90340686 -0.52617264 0.58102334 1.1154243 -0.36514544 -0.757988 0.60329115 0.804912
-0.41362953 -0.21102786 -0.8736775 0.78812194 0.18383515 -0.45574355 -0.95939314 0.6108234
0.93144345 -0.9179646 0.07192588 0.5130222 -0.22125208 -0.13665903 0.17028463 0.26228172
0.10998583 -0.94907427 0.17295885 0.54400265 0.500867 0.26651728 -0.047451615 -0.22916657
-0.43808365 -0.0742085 0.61592865 0.6322608 -0.02593863 0.49816585 0.8255662 0.6027173
-0.55633545 0.05049646 0.6660161 0.7574818 0.42388773 -0.73959064 -0.65520835 0.49174184
-0.2208029 -0.15830243 0.75376105 0.56111276 0.46837628 -0.69234586 -0.11038351 0.20227134
-0.97742665 -0.07916045 -0.6156486 1.1109078 0.685722 0.21792984 -0.17084277 -0.1715503
-0.24715447 0.5436574 0.77924967 0.7143724 0.5137149 0.4685123 0.40560925 0.11971283
-0.81831586 0.9079839 0.78231895 1.2884257 -0.15036988 -0.1759212 -0.47549808 0.3318264
-0.019946218 0.6535709 0.655697 0.56628966 -0.32321262 -0.08466363 0.4818281 0.4654302
0.8179146 -0.04845071 0.5200381 0.10676122 -0.20647395 0.18077898 0.082283735 0.24262017
0.9749249 0.37038708 -0.5529325 0.312356 0.80044854 0.19033194 -0.50068426 0.109754264
0.24675953 -0.70800936 0.41192555 0.3601033 0.08041978 0.8702673 0.9591173 0.8641957
0.19811356 0.971298 -0.14852166 0.5306238 -0.4624281 -0.6567372 -0.026434183 0.6729671
0.0069459677 0.66529846 0.9336066 0.75155616 -0.61881435 0.7202616 -0.7199559 1.0196327
0.4588107 -0.82121325 -0.20427239 0.34773016 0.09626019 0.9050394 -0.89665616 0.8392228
0.9174392 -0.121407986 -0.7464843 0.3594923 0.21743882 -0.6857698 -0.82132256 0.6090139
0.8535743 -0.57081175 0.73838544 0.49484062 -0.78171587 0.7283218 -0.33397722 1.0192682
-0.4289261 0.29168177 -0.39367723 0.5582702 -0.49238634 0.048794746 0.59509814 0.6659671
0.032832026 0.932971 -0.024118543 0.5477781 0.9265318 -0.63417256 -0.0072100163 0.25926524
-0.496184 -0.40062964 -0.42654824 0.6631961 -0.29432428 -0.7577343 0.36405492 0.66282976
-0.7989234 -0.6171372 -0.78062344 1.1435124 -0.3252138 -0.9205916 0.26116621 0.7695514
-0.39501107 -0.78071284 0.24124408 0.71865165 0.760954 0.6649797 0.98843586 0.71763647
-0.09509826 -0.28659582 -0.20760977 0.20020247 -0.8530117 -0.651397 0.87002397 1.2425796
0.7748952 -0.6945473 0.09136641 0.24926347 0.110987306 -0.31910455 -0.32125247 0.10292399
0.27179193 0.07666111 -0.7967 0.33481652 -0.28416216 -0.49815404 -0.98702633 0.86074567
0.6327796 -0.77183735 -0.8250202 0.6365255 -0.81080866 0.5867114 -0.8976759 1.2006431
