experiments/SlidingSphere2D/SdfSamples/slidingspheremodel2d_sphere_-0.80.npz (npz, 41438 bytes, 2 tensors)

pos f4 [308, 4]
000000 a2 d7 00 bf 3c ee b4 be ac 18 a3 3e a0 a2 78 3d
       -0.5032903 -0.35338008 0.3185476 0.060701966
000010 64 b8 e9 be b8 ba 5e be 90 71 14 be 8c f7 8b bd
       -0.4564849 -0.21750915 -0.14496446 -0.06834325
000020 54 6c 28 bf 58 1c 11 3f 00 ad 0f bd d8 f5 ae 3d
       -0.65790296 0.56683874 -0.035077095 0.08542985
000030 d8 0c 14 bf 00 d0 e5 bd 60 0b bb be 60 5c 6e bd
       -0.578321 -0.112213135 -0.36532116 -0.058193564
000040 76 8a 7b bf 60 20 b6 bd 08 7e e1 be e0 05 76 bc
       -0.9825815 -0.08892894 -0.44041467 -0.015016049
000050 36 f9 5a bf 90 81 b6 3d dc 7e ce 3e 90 87 aa bd
       -0.85536516 0.08911431 0.4033116 -0.08326638
000060 b6 07 2b bf a8 00 07 3e 70 56 10 bf b8 3b c0 3d
       -0.6680864 0.13183844 -0.56381893 0.093863904
000070 d8 3d 40 bf 88 16 b2 3e 74 d3 f7 be f8 d5 c8 3d
       -0.75094366 0.34782815 -0.48403513 0.09806436
000080 3e 68 79 bf e8 b4 fe be 00 9c c2 3d b0 d5 11 3d
       -0.97424686 -0.49747396 0.09502411 0.03560418
000090 14 96 2a bf 1c 28 c4 be 00 5c 0e 3d c0 f5 bd bd
       -0.6663525 -0.3831185 0.034755707 -0.09275389
0000a0 aa fb 5b bf bc 1f d0 be f4 6f ba be 90 81 48 3d
       -0.85930884 -0.4064921 -0.36413538 0.048951685
0000b0 a0 69 e6 be 2c ff d5 3e 30 f1 63 3e d8 ee b5 3d
       -0.4500246 0.41796243 0.22259974 0.088834465
0000c0 38 e9 27 bf e4 01 ba be c8 be af 3e 00 2e a5 3c
       -0.6559024 -0.36329567 0.34325242 0.020163536
0000d0 90 68 73 be 20 3b 17 3e 00 35 22 3d 88 66 a9 3d
       -0.23770356 0.14768648 0.039601326 0.082715094
0000e0 c8 48 44 bf 08 6d c2 3e 34 b1 c7 be b0 d3 39 3d
       -0.76673555 0.3797381 -0.39002383 0.045367897
0000f0 d0 be 0d bf c0 59 e7 3d b8 94 f7 3e e0 6f 5e 3d
       -0.5536928 0.11296415 0.4835565 0.05430591
000100 52 20 15 bf 80 d0 5a bc f0 5d b0 3e 5c 40 bd bd
       -0.5825244 -0.013355374 0.3444667 -0.09240791
000110 e8 6f 05 bf c0 f7 d4 be 80 46 d4 bc 00 b4 b6 3a
       -0.5212388 -0.41595268 -0.025912523 0.0013939142
000120 8c 2e 05 bf 8c 6d cb be 38 8a 23 be 80 73 3c 3c
       -0.5202415 -0.39732015 -0.15970695 0.011502147
000130 18 09 6e bf f0 c6 23 3e 62 e7 0b 3f 80 1a ac 3d
       -0.92982626 0.15993857 0.5464994 0.08403492
000140 ec 35 de be 78 c7 d1 be 40 0a 14 3d f0 27 4f 3d
       -0.43400514 -0.40972495 0.036142588 0.050575197
000150 1a c8 65 bf c4 30 8f be d2 79 00 bf d0 79 a9 3d
       -0.89758456 -0.27966893 -0.50185883 0.08275187
000160 44 37 22 bf e0 e8 ab 3e 58 89 4c 3e 48 60 9a bd
       -0.6336558 0.33576107 0.19974267 -0.075378954
000170 82 cc 64 bf 9c 9e f1 3e 80 77 85 3c b0 49 98 bc
       -0.89374554 0.47191322 0.016292334 -0.018589824
000180 38 c7 eb be 54 7a f1 3e 00 48 b6 ba 20 22 a6 3d
       -0.4605043 0.4716364 -0.0013906956 0.081119776
000190 16 d6 0f bf 60 07 04 be 10 0c bf 3e f8 89 1f bd
       -0.56186044 -0.12893438 0.3731389 -0.038949937
0001a0 b0 69 e9 be a0 b3 87 3d f0 f9 e4 be f0 99 8b 3d
       -0.45588446 0.066260576 -0.44721937 0.068164706
0001b0 bc 49 87 be 70 7e e8 3d a8 36 12 be 60 1a 87 3d
       -0.26423442 0.11352241 -0.14278662 0.065968275
0001c0 92 50 44 bf 1c 61 ec 3e 90 f1 a8 3e 70 2a 8c 3d
       -0.7668544 0.4616784 0.32996798 0.06844032
0001d0 54 3f 8b be 00 a8 03 3e d0 e0 b1 3d c0 42 4e 3d
       -0.27196753 0.12857056 0.08685458 0.050356627
0001e0 6e a4 0c bf 40 b3 f3 3e b0 2b 2a be c8 0a 81 3d
       -0.549384 0.47597694 -0.16618228 0.063008845
0001f0 f8 9b 7a bf 2c f9 de be e0 55 59 3e 20 c6 86 3c
       -0.9789424 -0.43549478 0.21224165 0.016451895
000200 34 f6 11 bf dc 40 84 be 44 4b 93 be b8 aa 4d bd
       -0.570163 -0.25830734 -0.2876836 -0.05021164
000210 18 a2 c4 be d8 ef 05 be 00 70 1d 3c 98 ca 82 bd
       -0.38404918 -0.13079774 0.009609222 -0.06386298
000220 58 a5 77 bf b0 4b 52 be 24 6c c2 3e 70 7d 17 bd
       -0.9673667 -0.20536685 0.3797313 -0.03698486
000230 8a ef 08 bf 38 88 09 be b0 fd bd 3e b0 77 c9 bc
       -0.5349051 -0.1343087 0.3710761 -0.024593204
000240 44 e7 27 bf 80 45 4a 3d d8 34 ff 3e 80 c8 ad 3c
       -0.6558726 0.049382687 0.49845004 0.02121377
000250 ac 5d be be f0 67 7c 3e b8 77 86 be 90 dc 73 3d
       -0.3718084 0.24649024 -0.26263213 0.059536517
000260 90 92 13 bf 00 1d 1f bd 70 39 f1 be 20 d7 bb 3c
       -0.5764551 -0.038846016 -0.47114134 0.022929728
000270 70 02 b0 be 14 8d 9e 3e 90 68 af bd e0 9e 6d 3d
       -0.3437686 0.3096701 -0.085648656 0.058012843
000280 20 08 2b bf e0 68 3f 3d c4 44 0e 3f b8 ad 95 3d
       -0.6680927 0.046730876 0.5557368 0.07308525
000290 fc c9 17 bf 66 55 04 bf 08 74 3d be b0 bf b1 3d
       -0.5929258 -0.5169281 -0.18501294 0.086791396
0002a0 62 30 79 bf 10 43 4e 3e 04 00 b5 be 28 6b 6c bd
       -0.9733945 0.2014277 -0.35351574 -0.05771938
0002b0 1c 65 26 bf 52 1f 03 bf 28 ab 1b be b0 0b 61 3d
       -0.6499803 -0.51219666 -0.1520201 0.054942787
0002c0 4c b2 f4 be a8 56 23 be 2c 37 d6 be e0 38 53 3d
       -0.4779228 -0.15951025 -0.41838968 0.051567912
0002d0 16 ee 7a bf 50 65 de 3d 30 be f7 3e 80 5c e2 3c
       -0.9801954 0.108591676 0.4838729 0.027631998
0002e0 b8 ca cd be 60 a7 20 bd a8 5c 6f be 40 63 16 bd
       -0.40193725 -0.03922212 -0.2337519 -0.036715746
0002f0 84 3d e9 be 48 17 93 3e c0 cc c3 be 00 27 b7 3d
       -0.45554745 0.287287 -0.3824215 0.089429855
000300 b4 f1 1e bf 30 2a c9 3d f8 71 fd be c0 70 11 3d
       -0.6208756 0.098225 -0.49501014 0.035507917
000310 40 a1 ce be b0 8e e4 bd 7c 2b 9c be c0 9e 4c 3c
       -0.403574 -0.11160028 -0.30501926 0.012489021
000320 18 09 48 bf 50 70 e7 be c4 c6 98 be b0 d7 2b 3d
       -0.78138876 -0.45202875 -0.29839146 0.041953743
000330 74 c5 ee be 20 8d 75 be 80 32 dc 3e 80 26 c2 3d
       -0.4663502 -0.23979616 0.43007278 0.094799995
000340 08 6e fd be d0 c0 d8 3d f0 51 d3 3e 40 b4 c4 3c
       -0.4949801 0.10583651 0.4127345 0.024011731
000350 6c 61 d4 be c0 e3 bb 3c 18 8b da 3e d8 6f 9a 3d
       -0.41480577 0.022935748 0.42684245 0.07540864
000360 10 1f 60 be e0 3c af 3d c0 2e 5f bd 58 27 b8 3d
       -0.2188685 0.08556533 -0.054487944 0.08991879
000370 d4 4a f5 be b0 1c 9a 3d 30 18 c7 be 00 f1 1f 3c
       -0.47908652 0.07525003 -0.3888564 0.009762049
000380 00 36 d8 be 80 95 61 bc 54 2d a3 3e 40 8e b7 bb
       -0.422287 -0.013768554 0.3187052 -0.0056016743
000390 1c a7 3b bf e8 88 e4 be c0 d0 07 3d e0 44 42 bd
       -0.73301864 -0.446357 0.033158064 -0.047428966
0003a0 8a ea 60 bf 48 ea 52 be d0 c2 c2 3e 28 2b 77 bd
       -0.8785788 -0.20597184 0.38039255 -0.06034389
0003b0 6a 4c 5e bf 60 5e 7c 3d 08 6e cc be e8 d7 b8 bd
       -0.8683535 0.06161344 -0.39927697 -0.09025556
0003c0 48 d8 7d be a0 34 7c bd 30 ea 5f 3e 68 af c6 3d
       -0.24789536 -0.061573625 0.21866679 0.09701425
0003d0 12 7d 34 bf 04 a5 b2 be 40 78 52 3e c8 27 ac bd
       -0.7050334 -0.34891522 0.20553684 -0.08406025
0003e0 e2 0f 5f bf 9c 44 e1 3e 00 d8 4f be c0 c0 27 bc
       -0.8713361 0.43997657 -0.20297241 -0.010238826
0003f0 8c f4 08 bf f0 1c e8 be 30 c2 be 3d 40 7d 08 3d
       -0.5349815 -0.45334578 0.09314382 0.033322573

neg f4 [2500, 4]
000000 b6 f1 45 bf 76 b9 30 bf b0 61 2d 3e d4 5d 58 3e
       -0.77321947 -0.6903299 0.16931796 0.21129543
000010 e0 2e 0d 3e 78 f8 af 3e e0 34 82 bd 20 3a 00 3f
       0.13787413 0.34369254 -0.06357741 0.5008869
000020 4c 98 1f bf 38 26 24 bf 40 5f 78 3f 62 20 2d 3f
       -0.6234176 -0.6412082 0.9702034 0.6762754
000030 36 27 26 3f b2 0a 04 bf ac c6 4b bf c7 ad 9d 3f
       0.6490358 -0.5157882 -0.79600024 1.2318658
000040 5c 1f 9b 3e e8 15 b1 3e 5e e7 5a 3f c4 15 70 3f
       0.30297363 0.34587026 0.8550929 0.9378321
000050 2e d0 72 bf ac 37 2b bf e8 d1 5a be 58 e1 5e 3e
       -0.94848907 -0.66881824 -0.21369135 0.2176565
000060 58 6b 66 3f ee 14 39 bf 00 9d 5c 3e 6a 12 ae 3f
       0.90007544 -0.7229756 0.21544266 1.359937
000070 00 6c 17 3d f2 c2 08 3f e4 53 d6 be 44 db 13 3f
       0.03696823 0.5342246 -0.41860878 0.5775645
000080 68 24 43 be c2 05 22 bf be 31 16 3f 7a 76 0e 3f
       -0.19056857 -0.63290036 0.5866965 0.5564953
000090 e8 ea 75 3e ee ee 35 3f 30 cd af bd bc 3e 43 3f
       0.24015391 0.710677 -0.08584058 0.762676
0000a0 90 b8 63 be d2 6d 2c 3f 00 78 45 3d 74 f8 c6 3e
       -0.22238374 0.6735507 0.048210144 0.3886143
0000b0 b4 12 d6 be dc 38 2a 3f 94 18 3d 3f 1e 90 10 3f
       -0.41811144 0.6649301 0.7386563 0.56469905
0000c0 f0 ce e5 3e 70 fa 6d 3f 40 d8 d5 3d 62 b9 87 3f
       0.44884443 0.9296026 0.10441637 1.0603449
0000d0 2c 3c 49 3f 32 0d 67 3f 02 f0 6b bf 50 af c5 3f
       0.7860744 0.9025451 -0.921631 1.5444126
0000e0 16 4f 46 3f b8 1b 82 be 20 88 9b bd be 64 8c 3f
       0.77464426 -0.25411773 -0.07594323 1.0968244
0000f0 46 45 4a 3f ce 57 4a bf 3c d4 7a bf 14 99 c3 3f
       0.7901195 -0.7904023 -0.97980094 1.5281091
000100 1c fc 7f 3f e0 6c aa 3e 38 6d ef 3e e8 d2 b1 3f
       0.99994063 0.3328619 0.46763015 1.3892488
000110 00 b4 3f be 68 7e 77 be 18 31 47 bf 28 fd 04 3f
       -0.18721008 -0.24169314 -0.77809286 0.51948786
000120 98 ed 5b bf 08 b6 34 3f 74 68 26 bf 70 3f ec 3e
       -0.85909414 0.7059026 -0.6500313 0.4614215
000130 b8 db 02 bf 80 9a c8 3d 82 7c 1d bf 44 1d 3f 3e
       -0.51116514 0.097950935 -0.6151811 0.18663508
000140 b4 eb 61 3f 30 ac 52 3e 1a a5 4f 3f 9c 86 b0 3f
       0.8825028 0.20573497 0.811113 1.379108
000150 80 dd e3 3c f0 86 f9 3e e8 64 0a 3e c6 ae f0 3e
       0.02781558 0.48735762 0.13515055 0.47008342
000160 42 5f 6f 3f bc 18 ef 3e f2 38 5f 3f 0d a4 bf 3f
       0.93504727 0.46698558 0.87196267 1.4971939
000170 cc 52 c8 3e 04 88 c2 be 2c 90 6e bf d9 9b 87 3f
       0.3912567 -0.37994397 -0.9318874 1.0594436
000180 c0 64 96 bd 52 12 6a 3f 60 1a a0 bd c6 a4 2b 3f
       -0.07343435 0.91434205 -0.07817531 0.670483
000190 9e 17 4e bf 02 55 3d 3f ca 69 56 bf 56 0b 1e 3f
       -0.80504787 0.73957837 -0.8375517 0.6173605
0001a0 b0 8e 90 bd 84 5f e4 3e 48 a9 0e bf a6 43 05 3f
       -0.070584655 0.44604123 -0.5572705 0.5205635
0001b0 c0 c3 47 bf 30 42 a2 be 20 ac 0f bd 6c e1 38 be
       -0.78033066 -0.31691122 -0.03507626 -0.18054742
0001c0 76 b2 61 3f 70 dd af bd c4 89 2b bf c6 f7 a7 3f
       0.88162935 -0.08587158 -0.6700709 1.312249
0001d0 6c cf 02 3f 32 37 3c 3f f4 e3 68 3f 2a e3 a0 3f
       0.5109775 0.7352172 0.9097283 1.2569325
0001e0 00 1f 24 3e d8 5e 90 be 80 77 06 3d e0 58 00 3f
       0.1602745 -0.2819736 0.032828808 0.5013561
0001f0 14 0a d2 be 00 1d 50 bc 4c 8d 23 3f bc 74 7e 3e
       -0.41023314 -0.012702227 0.63887477 0.24849218
000200 3e 93 3a bf 52 40 08 3f 04 9d 37 3f 3a bd ca 3e
       -0.72880924 0.53223145 0.7172396 0.39597493
000210 08 61 52 3e 0c a4 22 bf d6 0f 04 3f 52 e1 4b 3f
       0.20544827 -0.63531566 0.51586664 0.79640687
000220 10 ed 2c be 3e 03 32 3f 54 9a 26 bf 00 7d 24 3f
       -0.16887307 0.695362 -0.65079236 0.64253235
000230 a0 1c 58 3e e8 56 d2 3e 4c 4d ea be 74 f2 2e 3f
       0.2110467 0.4108193 -0.45762098 0.68338704
000240 78 f0 2d be d0 f0 73 be 32 67 39 3f 50 6c fa 3e
       -0.16986263 -0.23822331 0.7242309 0.4891076
000250 32 1b 4e bf 88 9d 13 bf 9c fb 18 bf 94 2f a9 3e
       -0.80510247 -0.5766225 -0.59758925 0.33044112
000260 0e 8d 6a bf b8 36 1a 3f 90 0a d9 3d 10 11 fb 3d
       -0.9162148 0.60239744 0.10597718 0.12259114
000270 98 d3 47 3e 66 4f 59 bf 44 f7 46 bf 4c c0 82 3f
       0.1951431 -0.8488678 -0.7772105 1.0214934
000280 4c 6d bc be 92 72 28 bf 50 1c 23 3f 3c 3f 03 3f
       -0.36802137 -0.6579982 0.63715076 0.51268363
000290 06 38 6f 3f d2 e3 65 bf ec c8 6d 3f fc d4 d4 3f
       0.9344486 -0.8980075 0.9288471 1.6627498
0002a0 f4 4f e9 3e 5c 1e 92 be 0a 66 43 3f 94 36 7f 3f
       0.45568812 -0.28538787 0.76327574 0.99692655
0002b0 98 9c 11 3f 3c d0 3b bf 20 07 ea 3e 63 37 8f 3f
       0.5687957 -0.73364615 0.4570856 1.1188778
0002c0 8c dd 15 3f 2c 37 d3 3e c8 de a2 3e c4 e8 7a 3f
       0.5854118 0.4125303 0.31810594 0.9801142
0002d0 08 83 71 bf 90 c5 5e 3f 18 12 0a 3e b2 cc c8 3e
       -0.9434056 0.87020206 0.13483465 0.3921867
0002e0 d6 cc 59 3f 00 25 f1 bd 40 dd c0 3e 3d 41 99 3f
       0.8507818 -0.11774635 0.376688 1.1973034
0002f0 98 47 4c 3e b8 4b 4a be d4 aa 16 3f e4 35 2d 3f
       0.19949186 -0.19755447 0.58854413 0.67660356
000300 82 85 1e bf f8 0d 68 bf 88 6f 2d 3e be 20 e1 3e
       -0.61922467 -0.90646315 0.16937077 0.43970293
000310 00 d8 ea 3e 04 b9 cb be ba 27 49 bf 56 a3 84 3f
       0.4586792 -0.39789593 -0.7857624 1.0362346
000320 8a 7f 21 3f 90 de ac 3e 6a 6c 76 bf 7e ed a0 3f
       0.63085234 0.33763552 -0.96259177 1.2572477
000330 18 25 c7 be e0 5a bd be ee cc 59 bf ce c1 03 3f
       -0.38895488 -0.36983395 -0.8507832 0.514676
000340 ae 29 68 bf 64 5d 01 bf 2c 3c 68 bf 62 3d 0b 3f
       -0.906886 -0.5053313 -0.90716815 0.5439054
000350 62 a0 37 bf 1a ad 10 bf aa 50 69 3f 98 58 13 3f
       -0.717291 -0.5651413 0.9113871 0.5755706
000360 80 9b 97 bd d8 7b 22 be 58 55 4d 3e dc 14 8a 3e
       -0.07402706 -0.15867555 0.20052087 0.2696904
000370 dc 5c 92 be 28 ff 92 be 80 c9 1c 3e f8 18 de 3d
       -0.2858647 -0.28710294 0.15311241 0.10844606
000380 80 23 ba 3d fa 84 1b 3f 9c 8a 05 3f 72 a6 32 3f
       0.09088802 0.6074978 0.52164626 0.69785225
000390 26 3b 2f 3f 2e df 73 bf 4c e2 f9 3e 17 42 aa 3f
       0.6844963 -0.9526242 0.48805463 1.3301419
0003a0 cc 8d ba be 70 be 63 3e c0 0b 6f bf 08 db 0d 3f
       -0.36436307 0.22240615 -0.93377304 0.5541234
0003b0 cc 42 f4 be fc fb dd 3e 3e d5 61 3f b8 dd 08 3f
       -0.47707212 0.4335631 0.88216007 0.53463316
0003c0 e8 dc 6c 3f 18 15 57 be 44 32 3c bf 6f 8b b1 3f
       0.92524576 -0.2100414 -0.735142 1.3870677
0003d0 00 d8 67 bb 9c be e1 3e a0 e3 84 3e 4e ad e4 3e
       -0.0035376549 0.44090736 0.25954914 0.4466347
0003e0 44 fb 14 3f d8 69 de 3e 68 d4 09 bf 00 d1 85 3f
       0.581959 0.43440127 -0.5383973 1.0454407
0003f0 78 4c 3a 3e 10 de 1d be 60 1a 11 bd 32 3b fd 3e
       0.18193233 -0.15416741 -0.035425544 0.49459225
