experiments/SlidingSphere2D/SdfSamples/slidingspheremodel2d_sphere_0.07.npz (npz, 40782 bytes, 2 tensors)

pos f4 [263, 4]
00000000: 5ce4 86be f0a3 743e 50e8 d6bd 7079 d13c
00000010: d8a7 643e b0f5 c6be 307a 363e a017 5a3d
00000020: 2454 ab3e 60e8 c33e 00f5 c0bc c8a3 833d
00000030: 205e d33d 3849 07be f07f a6be 9043 43bd
00000040: 7856 72be 4016 23be 60cd 71be 402b a83c
00000050: 5090 88be f0c4 d6bd 20b5 863e 786b 2c3d
00000060: e89e 35be 18cf 24be ac2e ca3e 603c c13d
00000070: 407b 40bd 4065 78be 50ba cd3e 7cd1 ac3d
00000080: 2c09 a43e f858 5fbe 7403 813e 8036 793c
00000090: 9896 cd3e d8ac 643e 9062 673e 005b 6a3d
000000a0: f4a0 de3e e83a 003e 009e cbbb 90bb 89bc
000000b0: a050 193e b464 993e 083b c8be 7cfb c93d
000000c0: 1095 f5bd 00e4 d7ba 70cb b83e c077 153c
000000d0: 6893 c53e b871 703e e0a4 60bd 00ff 9bbb
000000e0: 0015 3dbe 0cb7 c63e 586e 0cbe 780c af3d
000000f0: 409c d03c 9c5a 8dbe 74a2 b83e a0e5 673d
00000100: 90ce 493e 80dd a7bc 7c71 bbbe a0f6 51bc
00000110: 182d 9ebe 80bc 713d 7013 8c3e 7017 963d
00000120: f880 743e a029 acbd 108d ed3e 0c9a cc3d
00000130: e042 76be 9061 23be e02b 5bbd 1804 36bd
00000140: 646b c93e 18ed a7be a879 3dbe 94c2 c13d
00000150: 845b bbbe 4085 c83d d033 ab3d a022 6a3d
00000160: 5cfd c63e 0456 8fbe 08a9 71be 743a ab3d
00000170: 0cb3 8b3e 6845 86be e058 4dbd 24d7 87bd
00000180: a4f8 b5be e0a0 333d d8b5 173e 80f6 613d
00000190: 104c cbbd 8007 7e3e f066 8dbe 20c4 153c
000001a0: ec3b 843e 4064 7f3d 1850 7fbe 7c04 aabd
000001b0: 90dc 8dbd 9010 a23e d818 83be 606e ff3c
000001c0: 0033 16bd 487f f6be 00a0 a93a 38ed bf3d
000001d0: 049c 85be 0026 9ebc e8a6 3c3e 304f 96bc
000001e0: a006 c3be c803 033e f00d b4bd 14be a23d
000001f0: c473 d13e 3459 8e3e 60ec e9bd a842 513d
00000200: 9c9d 84be c005 0abe 0002 b0be f463 c53d
00000210: fc50 d0be 0035 db3b a045 273d 10a9 a63d
00000220: c686 043f 9095 debd c041 f53c 60b7 713d
00000230: 3067 0e3e f435 b1be 005c d73c f8e5 3ebd
00000240: 4818 2abe d06e 0a3e 106f a6be a047 d03c
00000250: c835 32be 40fa d2bc 04ae d23e 40d9 a43d
00000260: f0f0 f0bd 00eb ff3d c8e9 c53e 883a 473d
00000270: f09f 953d 00a7 d43e 70f8 2fbe 88af 4a3d
00000280: 80b1 b83c 604f c0bd 3093 e33e 90b3 693d
00000290: f8b5 28be 7cf5 b6be 48f3 1a3e 381e 613d
000002a0: f8af 36be f833 81be 0074 c43c a8d9 30bd
000002b0: 32a0 073f 004e a8bb 186f 18be f84f a53d
000002c0: 00aa 1ebe 383c ae3e a022 2f3e c019 333d
000002d0: b048 f73d 04a9 bb3e 98b9 4e3e 3096 ad3c
000002e0: 44b3 d33e 38ea afbe e0a7 c9bd 5023 c03d
000002f0: 4c56 9fbe 60b8 8c3e 20a6 273d a86d 973d
00000300: dcf9 903e a0b2 d4bd f0ee 76be 8817 82bd
00000310: 10b5 c33d 005c d93c 88d0 e3be 78bf 3d3d
00000320: e086 7dbd 70bd f9bd 34a4 a33e 509f 04bd
00000330: 10db 64be 40bf c83d e0dc 583e f097 bbbc
00000340: 584f 05be 00bc 3f3b 4ccf b63e 2029 2f3c
00000350: e09c 47be 9879 003e e0e7 aebe d0fd 533d
00000360: 28fa 263e c0cd 0e3d 1ccf d2be 002a bc3c
00000370: 5020 4ebe c42c 9abe 3874 19be c89f 0a3d
00000380: 70b2 a53e 80cd f9bd e462 d4be 2099 cc3d
00000390: 40f0 94bc 00a9 45bd 5449 943e dcb6 bdbd
000003a0: 38ac 65be 6cb4 833e c0ae 0d3d c010 b6bb
000003b0: 5860 25be 0086 b43c a03e e03e 44fe c63d
000003c0: ccb5 b33e 8075 f23c d0b9 18be e8c5 a9bd
000003d0: 1873 5f3e b007 cebd 14b8 b2be 003f 0ebc
000003e0: 20ff 4a3d a852 26be 7406 d03e b05d 1c3d
000003f0: 9008 783e a031 ad3e 98f5 77be 4090 493d
-0.263461 0.23890662 -0.10493529 0.025570601 0.22329652 -0.3885932 0.17820048 0.053245187
0.33462632 0.38263226 -0.023554325 0.06427723 0.10320687 -0.13211524 -0.32519484 -0.047671854
-0.23665798 -0.15926456 -0.236135 0.020528436 -0.26672602 -0.104867816 0.26310062 0.042094678
-0.17736399 -0.16094625 0.39488733 0.09435344 -0.04699254 -0.24257374 0.40181208 0.084383935
0.32038248 -0.21811283 0.25197947 0.015210748 0.40153956 0.2233156 0.22596192 0.05721569
0.43482172 0.12522471 -0.0062139034 -0.01681307 0.14972162 0.29959643 -0.39107537 0.0986242
-0.11991322 -0.0016471148 0.3609271 0.009122789 0.38589025 0.2348088 -0.054844737 -0.004760623
-0.18465042 0.3881153 -0.13713968 0.085473 0.02546513 -0.27608192 0.36061442 0.05661547
0.19707704 -0.020491362 -0.3661002 -0.012815148 -0.3089378 0.05901766 0.2735858 0.07328689
0.23877323 -0.08406377 0.46396685 0.099903196 -0.24048948 -0.15955186 -0.05350864 -0.044437498
0.39339745 -0.32798076 -0.1850344 0.09460941 -0.36593258 0.097910404 0.08359492 0.057161927
0.38865173 -0.27995312 -0.23599637 0.083607584 0.2728504 -0.26224828 -0.050133586 -0.06632832
-0.3554126 0.043854594 0.14815462 0.05516672 -0.09926617 0.24807549 -0.27617598 0.009140998
0.25826967 0.062351465 -0.24932897 -0.083016366 -0.069268346 0.3165326 -0.25604892 0.03118056
-0.03666973 -0.48143983 0.001294136 0.09371418 -0.26095593 -0.01930523 0.18423045 -0.018348306
-0.38090992 0.12794411 -0.08791721 0.07946411 0.40908635 0.27802432 -0.11422038 0.05108896
-0.25901496 -0.13478756 -0.34376526 0.09638205 -0.40686786 0.0066896677 0.040837884 0.08137715
0.5176815 -0.108683705 0.029938579 0.05901277 0.1390655 -0.34611475 0.026288986 -0.046606034
-0.16610825 0.13518834 -0.3250661 0.025424778 -0.17403328 -0.025754094 0.41148388 0.0804925
-0.11764705 0.124959946 0.38654923 0.048639804 0.07305896 0.4153366 -0.17184615 0.049483806
0.022545576 -0.093901396 0.44448233 0.05705601 -0.16475666 -0.35734165 0.15131867 0.05496046
-0.17840564 -0.25234962 0.023981094 -0.043176323 0.52978814 -0.0051362514 -0.14886129 0.080718935
-0.15494537 0.34030318 0.17103052 0.04372573 0.12074411 0.36652386 0.20187986 0.021189779
0.41347706 -0.34358382 -0.09846473 0.09381735 -0.31120527 0.27484417 0.040929914 0.07393962
0.28315628 -0.103856325 -0.24114585 -0.063521445 0.09556019 0.026533127 -0.44495034 0.046325177
-0.061896205 -0.121943355 0.31961215 -0.032378495 -0.2234919 0.09802103 0.21178007 -0.022899598
-0.13018548 0.0029256344 0.3570503 0.010690957 -0.19493437 0.12546384 -0.34161282 0.051755726
0.16306365 0.034864187 -0.41173637 0.022969246 -0.20129514 -0.30112278 -0.1498574 0.033843786
0.323627 -0.12197399 -0.41481698 0.09990144 -0.018180966 -0.048256874 0.28962195 -0.09263393
-0.22428977 0.25723588 0.034590483 -0.005556196 -0.16150033 0.022036552 0.4379778 0.09716466
0.35099638 0.029597044 -0.14914632 -0.08289701 0.21821249 -0.1006006 -0.34906065 -0.008682013
0.049559712 -0.16242468 0.40629923 0.038175285 0.24222016 0.33826923 -0.2421478 0.049209833

neg f4 [2500, 4]
00000000: 804d bebd e8c2 7cbe 6083 6ebf 9cf5 133f
00000010: 5c51 f53e 14b4 1fbf 0047 393f 1e6a 233f
00000020: e89c 59bf e24c 65bf a0f7 783e 24a6 683f
00000030: 9659 6e3f f070 153e 7c8e 263f b4d7 2f3f
00000040: a2b0 1e3f 5063 2fbf 80a6 e7bc 0b59 f43e
00000050: 20cd 42be 3059 9dbd 12a8 3f3f ef5e cb3e
00000060: b4ea a4be e26e 603f 80f0 23bc ccc1 0f3f
00000070: 78e7 7cbe 6071 1c3f bafe 1a3f f889 043f
00000080: 1a20 13bf 9833 4b3e 481d 47be 39eb 9b3e
00000090: 8893 383e 289e 723e d0cc f13d 4c0a eabd
000000a0: c09b 89bd 609d 6a3e ce11 5ebf a40f 023f
000000b0: ae06 7b3f 48b5 79bf 266a 6cbf 1e52 9c3f
000000c0: 9c1c 373f f0eb 463e f0d3 bdbe e7d4 bb3e
000000d0: 56d8 04bf 483d 41be e0a6 eebd 226c 6d3e
000000e0: 4e2e 173f 14d3 af3e 6091 38bd f253 643e
000000f0: 0493 27bf c452 29bf 644a 493f eadd 5b3f
00000100: 3497 38bf c440 483f c02c f63e 6051 503f
00000110: 8037 1cbe 9c68 5ebf ee87 24bf ec32 343f
00000120: 3c73 5a3f 00c8 eabc dc80 b5be 7964 ea3e
00000130: d02e 913e f408 673f 5e59 3b3f 60e8 473f
00000140: a038 773d b8c4 2e3e e299 613f 6fd4 fe3e
00000150: 6449 b83e 4c0d 14bf c0d6 4d3e eb74 8d3e
00000160: 40b3 6a3f 7083 cbbe aeea 47bf 8211 513f
00000170: 309d 493e 8c7d 503f 7eb4 0cbf c820 173f
00000180: 94dd ec3e 8c77 b0be 6432 d43e 23d1 873e
00000190: 6e58 143f 5053 66bf 906d cbbd a22a 233f
000001a0: c2be 1f3f 08fc 6abf 40f1 4a3e da5c 303f
000001b0: 00c9 6abd a0c4 b6be f4c5 febe d27b 673e
000001c0: f090 033e acc5 3abf a0da efbe 8b09 f03e
000001d0: 4434 513f 7a47 68bf d87d 243f 0424 703f
000001e0: 9a3c 553f 3e3a 483f 0052 aabd 10a3 313f
000001f0: 98ef 543f a44a 6abf e487 d13e 3a83 5b3f
00000200: 1888 e1be 60e4 d53d 928a 66bf 5a4b 243f
00000210: 249c 7ebf 7864 fb3e 18e8 ecbe 22d7 5c3f
00000220: 0c2c a5be 2ce3 e83e 7617 6d3f 9e77 343f
00000230: 90d3 8d3d 4463 b9be be9b 7dbf 6a9e 273f
00000240: ec02 663f b8f7 3ebe c414 7b3f 5446 653f
00000250: ced6 4bbf a4a1 b0be 50d0 d7be 9025 203f
00000260: c875 67be d225 6bbf 5ae1 593f 5a2b 633f
00000270: a885 613e b095 db3d 2483 483f 41f3 ce3e
00000280: 282f 3a3f d66b 2abf 88f4 72bf 0a68 6e3f
00000290: 5ed3 533f 5c3f 483f 14be 44bf 1463 6e3f
000002a0: e86c 523e fc06 7abf 6e51 3a3f d642 533f
000002b0: a090 563e 9835 8a3e 045a 17bf 5541 873e
000002c0: 9852 cabe c489 333f 4047 8c3e 2513 f93e
000002d0: c82f c83e 02c9 513f a859 06bf fcb3 1f3f
000002e0: a475 d1be 58b2 21be 023a 51bf 14d2 0f3f
000002f0: febd 3fbf becf 723f 580c 55be 243f 5f3f
00000300: 7c2c edbe 9052 273f 98a7 7b3f e27d 653f
00000310: b417 c23e d6d2 123f 0674 613f 54d8 313f
00000320: e4ca 38bf 8894 613f 809c 80bd b6c5 493f
00000330: 12e0 4c3f fcaa 143f 8069 8d3d bc91 083f
00000340: 3204 20bf 7011 6abf d2e8 75bf 0e9d 8c3f
00000350: a89d 4f3e f019 da3d f613 32bf 9b9a a13e
00000360: 94c8 733f b694 4a3f 36f2 2dbf fce0 763f
00000370: 5842 423e 1edf 3f3f 90b6 a9be b50c db3e
00000380: 2e94 38bf a4b0 993e 00ae 2dbe 1947 ee3e
00000390: e0c9 cdbe 4837 1abe e25e 28bf 7193 d93e
000003a0: 3079 bb3e 6c42 853e b070 50bf f6f6 003f
000003b0: 5463 72bf be37 353f bcd8 1ebf 5ed7 7c3f
000003c0: 50b3 a2be 3411 263f b018 9abe 9b5f d43e
000003d0: 0255 1bbf 0822 983e 6ccc 063f 2c71 023f
000003e0: 36b9 1a3f b07f 7d3e 402d 6f3e 76d2 6c3e
000003f0: c0a9 7b3e 209a 3bbe 3021 acbd f692 09be
-0.09292126 -0.24683726 -0.9316921 0.57796645 0.47913635 -0.6238415 0.7237396 0.63833797
-0.85005045 -0.8957044 0.24313211 0.9087851 0.9310545 0.14593863 0.65061164 0.6868851
0.6198827 -0.68510914 -0.028277636 0.47724184 -0.19023561 -0.07683027 0.7486583 0.39720866
-0.32210314 0.87669194 -0.01000607 0.56155086 -0.24697673 0.61110497 0.6054493 0.51773024
-0.5747086 0.198439 -0.19444764 0.30452898 0.18025029 0.23693144 0.11806643 -0.11427745
-0.0671916 0.22911596 -0.8674592 0.50805116 0.9805707 -0.9754224 -0.9234947 1.221256
0.7152803 0.1942594 -0.37075758 0.3668587 -0.518926 -0.18871033 -0.11652923 0.2318578
0.5905503 0.34340727 -0.045060515 0.22297648 -0.65458703 -0.66141915 0.78629136 0.8588549
-0.7210572 0.78223825 0.48081017 0.8137417 -0.15255547 -0.8687837 -0.6426991 0.703902
0.85332084 -0.02865982 -0.35449874 0.4577978 0.28356028 0.90248036 0.7318324 0.7808895
0.060356736 0.1706723 0.8812543 0.4977145 0.35993493 -0.5783279 0.20101452 0.27628264
0.91679764 -0.39748716 -0.7809247 0.8166734 0.19688869 0.8144157 -0.5496291 0.59034395
0.462628 -0.34466207 0.41444695 0.26526746 0.57947433 -0.89970875 -0.09933007 0.6373693
0.6240045 -0.9179082 0.19818592 0.6889168 -0.057320595 -0.35696888 -0.497604 0.22605827
0.12848258 -0.72957873 -0.46846485 0.4688228 0.81720376 -0.90734065 0.6425452 0.93804955
0.83295596 0.7821387 -0.083164215 0.6938944 0.8317809 -0.9152014 0.4092399 0.8574711
-0.44049144 0.1044395 -0.9005519 0.6417748 -0.99457 0.4910009 -0.46270823 0.86265767
-0.32260168 0.45485818 0.92613924 0.7049502 0.06925118 -0.36208546 -0.9906577 0.65476096
0.8984821 -0.18649185 0.9807856 0.8956044 -0.7962464 -0.34498322 -0.42151117 0.62557316
-0.22603524 -0.91854584 0.85109484 0.88738024 0.22023642 0.1072191 0.78325105 0.40419963
0.72728205 -0.66570795 -0.94904375 0.931275 0.82744396 0.7822168 -0.76852536 0.9311993
0.20549357 -0.9766691 0.727805 0.8252386 0.20953608 0.26994014 -0.5912173 0.26417032
-0.3951614 0.7013209 0.2739811 0.4864742 0.39098954 0.8194734 -0.52480555 0.6238401
-0.40910065 -0.15790689 -0.8172914 0.5617993 -0.7489928 0.9484824 -0.2080549 0.8720572
-0.46323 0.65360355 0.983026 0.89645207 0.3790871 0.5735296 0.8806766 0.69470716
-0.72184587 0.88117266 -0.0627985 0.7881731 0.80029404 0.580734 0.06904888 0.53347373
-0.625064 -0.9143286 -0.9605838 1.0985429 0.20274985 0.106494784 -0.6956171 0.31563267
0.9522793 0.79133165 -0.6794771 0.9643705 0.1897062 0.74949825 -0.33147097 0.42783132
-0.72101104 0.3001758 -0.16960907 0.46538618 -0.4019308 -0.1506015 -0.6576978 0.424953
0.36615896 0.26027238 -0.8142195 0.5037683 -0.9468281 0.7078818 -0.6204946 0.98766124
-0.3177743 0.6487 -0.3009696 0.4147919 -0.60676587 0.29713464 0.52655673 0.50953937
0.6043886 0.2475574 0.23357105 0.2312716 0.24576473 -0.18320513 -0.084047675 -0.13434967
