experiments/OneLinParamW1dDiscreteInterpolation/LatentCodes/latest.pth (torch, 1698 bytes, 1 tensors)

weight f4 [16, 1]
00000000: 9e1c 3bbf 46ee 413e ff21 80bf 2e58 4d3e
00000010: f4db 323e e51a 80bf 6eee ddbe be44 793f
00000020: d335 7f3f 5868 b83d e591 34be f57e 7bbf
00000030: 14d4 4e3e 8f6e f13e 4b0c f6be 3fd0 cb3e
-0.7309054 0.1893855 -1.0010375 0.20053169 0.17466718 -1.0008208 -0.4334597 0.9737052
0.99691504 0.09004277 -0.1763378 -0.98240596 0.20198089 0.47154662 -0.48056254 0.39807317
