experiments/SlidingSphere2D/ModelParameters/109.pth (torch, 340863 bytes, 19 tensors)

lin0.bias f4 [128]
0.3114039 0.4235922 -0.35915273 -0.039310534 -0.255012 -0.14481562 -0.27664372 -0.11567123
0.026768591 -0.10221523 -0.03349826 0.031196421 0.25545213 0.2984602 0.08227261 0.30168036
0.28862667 0.5104763 0.013681273 0.17281976 0.13423815 0.2849939 0.017195214 -0.31948927
-0.2678966 0.057317175 -0.48491502 -0.13216761 -0.0839822 0.23579817 0.13273787 0.15372021
-0.42108613 0.17639753 -0.40289736 -0.112084664 -0.46368185 0.11636861 -0.045457006 -0.05150781
-0.179844 0.10428664 0.35171345 0.44050205 -0.23513192 0.4804099 -0.07222541 0.39801878
0.2998267 0.019439707 -0.03718463 -0.062756956 -0.31217304 -0.21799283 0.10738643 -0.039710283
-0.28505233 -0.15364666 0.33620888 0.29035163 -0.09442142 -0.03336491 -0.45343533 -0.36017945
0.20447338 0.28245425 0.4745859 0.23946497 -0.057905342 -0.4685281 -0.07134864 0.13135852
0.20579779 -0.088320985 0.16884325 -0.11087394 0.47087765 -0.22078437 -0.27461934 0.13657212
0.23290373 0.36466467 0.31898272 -0.4500528 0.292583 -0.2095642 0.34735414 0.09365799
-0.17883493 0.16371734 -0.01354877 0.36256734 0.19628982 -0.06769481 0.41024968 0.1610076
0.07210368 -0.31732008 -0.2904627 -0.24150124 0.18476453 0.2762998 -0.35663614 -0.077347495
0.01671138 -0.48590183 -0.2747469 -0.106586166 -0.41071892 -0.020615948 -0.041320793 0.29451537
-0.2597661 0.2545283 0.4784582 0.027491018 -0.29482633 -0.38345835 -0.29205233 -0.44506764
0.32654884 0.30318323 -0.12984169 -0.16448282 -0.0656146 0.35040355 0.36872557 -0.22557078
00000000: 5570 9f3e 14e1 d83e dee2 b7be 1504 21bd
00000010: ef90 82be 8c4a 14be 3fa4 8dbe 0ae5 ecbd
00000020: ce49 db3c 3856 d1bd 7935 09bd a38f ff3c
00000030: 9fca 823e c6cf 983e 8b7e a83d d975 9a3e
00000040: e0c6 933e 93ae 023f 6b27 603c aaf7 303e
00000050: ba75 093e b8ea 913e fadc 8c3c 1994 a3be
00000060: be29 89be 6ac5 6a3d c846 f8be f256 07be
00000070: dcfe abbd 1375 713e 70ec 073e d568 1d3e
00000080: 9a98 d7be 8ea1 343e 9048 cebe a58c e5bd
00000090: b567 edbe aa52 ee3d 2031 3abd daf9 52bd
000000a0: 0729 38be 3c94 d53d c913 b43e 7c89 e13e
000000b0: 6cc6 70be 49f8 f53e eaea 93bd 1ec9 cb3e
000000c0: e382 993e 0540 9f3c e94e 18bd b886 80bd
000000d0: 25d5 9fbe 8339 5fbe 6bed db3d 40a7 22bd
000000e0: 61f2 91be 8d55 1dbe 9223 ac3e f8a8 943e
000000f0: 0460 c1bd a5a9 08bd ad28 e8be 7169 b8be
00000100: 7861 513e d89d 903e ecfc f23e 4e36 753e
00000110: 272e 6dbd eae2 efbe 3c1f 92bd d982 063e
00000120: a8bc 523e a2e1 b4bd 3fe5 2c3e e011 e3bd
00000130: e016 f13e 4c15 62be e89a 8cbe 90d9 0b3e
00000140: 517e 6e3e 54b5 ba3e b451 a33e 526d e6be
00000150: 70cd 953e ff97 56be 67d8 b13e c3cf bf3d
00000160: 8120 37be 85a5 273e a9fb 5dbc 6da2 b93e
00000170: 3300 493e 94a3 8abd 3f0c d23e 2ddf 243e
00000180: 18ab 933d c777 a2be 87b7 94be 1a4c 77be
00000190: ea32 3d3e 2b77 8d3e 0399 b6be 5d68 9ebd
000001a0: 4ee6 883c 20c8 f8be a0ab 8cbe d949 dabd
000001b0: c049 d2be c7e2 a8bc fe3f 29bd b8ca 963e
000001c0: 1000 85be 8951 823e 79f8 f43e d834 e13c
000001d0: 7af3 96be a754 c4be e287 95be e8df e3be
000001e0: 6931 a73e d53a 9b3e 38f5 04be 2f6e 28be
000001f0: f360 86bd 1868 b33e 99c9 bc3e 07fc 66be

lin0.parametrizations.weight.original0 f4 [128, 1]
0.71566856 0.6819458 0.43761903 0.77881604 0.6156105 0.820525 0.6801975 0.6424728
0.5867718 0.6844069 0.64157474 0.43709257 0.5479515 0.7035182 0.780921 0.5856542
0.77801085 0.5278962 0.5613973 0.6320599 0.5154073 0.6760403 0.3762276 0.5451869
0.7170034 0.55623305 0.41507018 0.6792264 0.6342902 0.66022104 0.54577047 0.4344546
0.59392256 0.5053512 0.61612874 0.5669139 0.6853006 0.49672642 0.3987576 0.6482712
0.47277153 0.4174208 0.60142916 0.50176585 0.5630949 0.40953612 0.6616969 0.76779485
0.65627533 0.4338606 0.60319203 0.7254715 0.62156147 0.5447512 0.6265134 0.76151216
0.60923004 0.758516 0.6707346 0.549064 0.61875695 0.5746086 0.49978372 0.46727008
0.631645 0.4770319 0.5476242 0.77677196 0.61928135 0.5052961 0.62584496 0.61969477
0.3890558 0.49141562 0.8034721 0.6213789 0.6213069 0.7407817 0.60243326 0.6150662
0.8223668 0.5013387 0.6464165 0.35062248 0.6833812 0.50077456 0.45774254 0.7388694
0.42690104 0.7037823 0.6438841 0.63727486 0.48984614 0.56131184 0.5653396 0.28338897
0.45965254 0.5574989 0.58245486 0.62067527 0.46568483 0.63928956 0.77802473 0.6070889
0.24254678 0.76402056 0.4538748 0.7985764 0.7064692 0.7536701 0.4920068 0.57176185
0.71587646 0.53421867 0.72244304 0.7326186 0.69455177 0.8244127 0.39292067 0.62021947
0.6351836 0.5752284 0.6938454 0.19985098 0.6667102 0.39081022 0.67702866 0.6437307
00000000: 0e36 373f 0094 2e3f 9a0f e03e 7d60 473f
00000010: a698 1d3f ed0d 523f 6c21 2e3f 1979 243f
00000020: ad36 163f 4a35 2f3f 3e3e 243f 99ca df3e
00000030: 8d46 0c3f c519 343f 70ea 473f 6fed 153f
00000040: b82b 473f 3524 073f bcb7 0f3f adce 213f
00000050: bcf1 033f fa10 2d3f e7a0 c03e 5e91 0b3f
00000060: 898d 373f 4a65 0e3f 1484 d43e c8e1 2d3f
00000070: d860 223f 3f04 293f 9db7 0b3f d570 de3e
00000080: 4f0b 183f b25e 013f 9dba 1d3f 4521 113f
00000090: dc6f 2f3f ed52 fe3e f529 cc3e 1af5 253f
000000a0: 1c0f f23e 2eb8 d53e 43f7 193f ba73 003f
000000b0: fd26 103f b8ae d13e f864 293f 348e 443f
000000c0: a901 283f fa22 de3e cb6a 1a3f 80b8 393f
000000d0: a71e 1f3f d174 0b3f 2f63 203f 76f2 423f
000000e0: 80f6 1b3f 1b2e 423f 43b5 2b3f 758f 0c3f
000000f0: db66 1e3f 8d19 133f a7e3 ff3e 063e ef3e
00000100: 7db3 213f 863d f43e 1931 0c3f 87da 463f
00000110: 3989 1e3f 165b 013f 6037 203f 51a4 1e3f
00000120: 5232 c73e d49a fb3e 59b0 4d3f b012 1f3f
00000130: f80d 1f3f dfa3 3d3f 1139 1a3f fa74 1d3f
00000140: a186 523f bc57 003f 8d7b 253f ca84 b33e
00000150: 12f2 2e3f c332 003f 3b5d ea3e 8c26 3d3f
00000160: c692 da3e 142b 343f 97d5 243f 7224 233f
00000170: 1dcd fa3e 22b2 0f3f 19ba 103f 5c18 913e
00000180: 9457 eb3e 3fb8 0e3f c31b 153f 93e4 1e3f
00000190: 3e6e ee3e 7ba8 233f a12c 473f 2e6a 1b3f
000001a0: 2f5e 783e da96 433f 4762 e83e 816f 4c3f
000001b0: 2adb 343f 86f0 403f 51e8 fb3e fc5e 123f
000001c0: ae43 373f 8ec2 083f 07f2 383f e48c 3b3f
000001d0: 25ce 313f b60c 533f e62c c93e b4c6 1e3f
000001e0: 649b 223f 2b42 133f da9f 313f bca5 4c3e
000001f0: 85ad 2a3f 4718 c83e c051 2d3f 89cb 243f

lin0.parametrizations.weight.original1 f4 [128, 4]
0.15644538 -0.271157 0.49993715 0.3887347 -0.07292793 0.42246118 0.36819893 -0.34389937
0.11633133 -0.340132 -0.012265974 0.22874655 -0.46786958 0.49221054 0.39920825 -0.075984485
-0.31721237 0.13986003 0.30164695 -0.38306633 0.48738956 0.3210255 -0.44115546 0.34948012
-0.34241062 0.43741223 -0.20664997 0.29721954 0.44957894 0.36052397 -0.1788335 0.18733685
-0.3738864 -0.0787461 -0.42026547 0.057513673 -0.22482646 0.4719976 0.44242063 0.03652506
-0.3507503 0.10867501 0.42975062 -0.3282262 -0.20015942 0.12548092 0.33811304 0.10517141
-0.27301222 -0.2944847 0.1382667 -0.30952933 -0.4278948 -0.2764271 0.36655623 0.2931725
0.040645204 0.44931853 0.46350843 0.41388237 0.46516934 -0.23322594 -0.25673947 -0.052338146
0.31258437 0.42620108 0.48142484 0.2711688 -0.2555802 -0.03062491 -0.102186844 0.43354467
0.3319865 -0.2685387 0.269895 0.22510621 -0.09193169 -0.33384356 0.44183466 -0.27094084
0.27465943 -0.22594099 -0.19432944 0.32945302 0.29626375 -0.38256887 0.09288854 0.4596556
-0.0802563 -0.01943932 0.19636104 0.29103836 0.21590817 -0.2823754 0.35404852 -0.23606507
-0.4743699 -0.4363929 -0.2704535 0.12680554 0.36679953 0.081750646 -0.30835295 0.24367525
-0.090324305 0.3387457 -0.048828132 0.18886414 -0.3757251 0.46157432 0.28464183 0.17402044
0.39048484 0.26513493 0.30386305 0.2939931 -0.1637148 0.08359893 0.3948107 -0.48448408
-0.24022114 -0.27739832 -0.22005549 0.3157825 -0.12977539 -0.16791394 -0.352266 0.18276638
-0.35508853 0.26085284 -0.29489914 0.24622464 -0.3244246 0.13973334 -0.0023598915 -0.3464208
0.25382406 0.27541518 0.42467085 -0.17352064 0.49321645 0.119156525 0.16294098 0.24241021
-0.49981004 0.42410213 0.15871538 -0.06728882 0.442932 0.1001771 0.12838139 -0.09561486
0.36498582 -0.10518629 0.095386274 0.07977746 -0.41404313 -0.4350411 -0.09846505 -0.1774476
0.11842159 -0.14533803 0.3672538 -0.247949 -0.058973555 -0.24406384 0.29216033 0.12083365
0.18330914 0.22799072 -0.3127096 -0.39324483 -0.2494513 -0.20991376 -0.38180804 0.11157316
-0.3932142 0.16604729 -0.22367911 -0.2926754 0.25791848 0.24603423 -0.17233476 -0.008227581
0.46079442 0.4425482 0.15368946 0.011015459 0.48700842 -0.38285652 -0.44109592 -0.030859433
0.39793667 0.43678966 0.22701637 0.16336997 -0.31703916 -0.10378919 -0.11036862 -0.23063062
0.08831927 0.3227924 -0.14985481 0.45491153 0.43761572 0.20427933 0.36921024 -0.3784459
-0.2167643 0.3319656 0.13682233 0.47180602 0.25510103 0.3540276 0.25091535 -0.2011605
-0.29280627 0.23058994 0.124972336 0.46981287 -0.48198232 -0.48455438 0.2278146 -0.20342878
-0.4326407 0.35511723 0.13709182 -0.16416845 -0.49863482 0.43690327 -0.3384381 0.051871825
-0.41055647 0.23890875 -0.111717656 0.4594034 0.091098145 -0.40240917 0.22703856 -0.26873893
0.42929065 -0.35103366 -0.14043945 -0.22341572 -0.4141177 0.07039624 -0.27989528 -0.23882858
-0.1327889 0.49588814 0.057353716 0.028580744 0.37212008 0.22957611 -0.12251453 -0.038835518
00000000: 3833 203e 17d5 8abe c3f7 ff3e 3c08 c73e
00000010: 3d5b 95bd d54c d83e 9284 bc3e 9413 b0be
00000020: 1f3f ee3d c825 aebe 39f7 48bc 893c 6a3e
00000030: 9a8c efbe 0503 fc3e 0665 cc3e c19d 9bbd
00000040: a969 a2be 7837 0f3e 7871 9a3e 4521 c4be
00000050: 208b f93e 745d a43e 21df e1be 0fef b23e
00000060: 7250 afbe 7ff4 df3e 0d9c 53be 292d 983e
00000070: 362f e63e 9996 b83e 2120 37be 3bd5 3f3e
00000080: 0a6e bfbe a345 a1bd 092d d7be 7593 6b3d
00000090: e838 66be aba9 f13e f584 e23e 4d9b 153d
000000a0: 8b95 b3be 0191 de3d 4608 dc3e 440d a8be
000000b0: 97f6 4cbe 127e 003e 271d ad3e 1c64 d73d
000000c0: 42c8 8bbe b3c6 96be c995 0d3e a17a 9ebe
000000d0: 0715 dbbe da87 8dbe 42ad bb3e b51a 963e
000000e0: 967b 263d 140d e63e fa50 ed3e 64e8 d33e
000000f0: ad2a ee3e c8d2 6ebe 5b73 83be 8660 56bd
00000100: 0f0b a03e 0737 da3e 517d f63e a3d6 8a3e
00000110: 68db 82be 17e1 fabc 5647 d1bd 91f9 dd3e
00000120: 22fa a93e e87d 89be ad2f 8a3e 3e82 663e
00000130: af46 bcbd 8bed aabe 2738 e23e c2b8 8abe
00000140: 29a0 8c3e 135d 67be 4cfe 46be 11ae a83e
00000150: e2af 973e 11e0 c3be 593c be3d fb57 eb3e
00000160: 6a5d a4bd 353f 9fbc de12 493e fb02 953e
00000170: 0817 5d3e 8293 90be d945 b53e 0bbb 71be
00000180: 9de0 f2be e46e dfbe e278 8abe 50d9 013e
00000190: 26cd bb3e e26c a73d 70e0 9dbe 0186 793e
000001a0: f3fb b8bd 1470 ad3e 0200 48bd 9a65 413e
000001b0: 0a5f c0be 7853 ec3e 93bc 913e 6a32 323e
000001c0: a1ed c73e c4bf 873e f093 9b3e 4386 963e
000001d0: daa4 27be ea35 ab3d a124 ca3e 4c0e f8be
000001e0: 88fc 75be 2707 8ebe 3a56 61be 3eae a13e
000001f0: d7e3 04be a2f1 2bbe 365c b4be 1c27 3b3e
00000200: 2ace b5be 818e 853e 05fd 96be 5022 7c3e
00000210: fb1a a6be 4216 0f3e 69a8 1abb 115e b1be
00000220: 3af5 813e 3803 8d3e 756e d93e 65af 31be
00000230: de86 fc3e 5608 f43d 00da 263e 623a 783e
00000240: 1ae7 ffbe ea23 d93e 4986 223e b9ce 89bd
00000250: fcc7 e23e a729 cd3d 6976 033e b9d1 c3bd
00000260: 6cdf ba3e e96b d7bd e159 c33d 5d62 a33d
00000270: 76fd d3be b5bd debe 0ba8 c9bd d3b4 35be
00000280: 0587 f23d 7ed3 14be b108 bc3e 58e6 7dbe
00000290: 418e 71bd dfeb 79be 0a96 953e a277 f73d
000002a0: 64b5 3b3e 6676 693e 791b a0be 6357 c9be
000002b0: 2970 7fbe a2f3 56be 587c c3be 7880 e43d
000002c0: 5f53 c9be 4d08 2a3e 230c 65be 8dd9 95be
000002d0: e40d 843e 66f0 7b3e 8678 30be facc 06bc
000002e0: 3fed eb3e ad95 e23e c560 1d3e 2f7a 343c
000002f0: 2b59 f93e c505 c4be 53d7 e1be eccc fcbc
00000300: 5bbe cb3e e5a2 df3e fb76 683e 754a 273e
00000310: f552 a2be 6d8f d4bd f108 e2bd 6f2a 6cbe
00000320: bce0 b43d 0c45 a53e 8a73 19be 2aea e83e
00000330: 2b0f e03e 9a2e 513e 2009 bd3e a9c3 c1be
00000340: 76f7 5dbe 65f7 a93e 271b 0c3e 8f90 f13e
00000350: 9a9c 823e 1b43 b53e fa77 803e 05fd 4dbe
00000360: b4ea 95be c51f 6c3e 7ff1 ff3d 508b f03e
00000370: 63c6 f6be 8317 f8be 3b48 693e a24f 50be
00000380: 1583 ddbe edd1 b53e cc61 0c3e c61b 28be
00000390: 104d ffbe c9b1 df3e c247 adbe 8d77 543d
000003a0: 7534 d2be 7fa4 743e 3acc e4bd ec36 eb3e
000003b0: aa91 ba3d 9308 cebe cc7c 683e 2698 89be
000003c0: fccb db3e afba b3be 5ccf 0fbe 17c7 64be
000003d0: 3c07 d4be e72b 903d 6f4e 8fbe 7b8f 74be
000003e0: d0f9 07be 0de5 fd3e bbeb 6a3d 2a22 ea3c
000003f0: 8686 be3e 0016 6b3e e6e8 fabd fe11 1fbd

lin1.bias f4 [124]
-0.010057247 0.002645147 -0.019660905 -0.0040054824 0.041254003 -0.035815187 -0.026224976 0.05158472
-0.017468594 -0.058243427 0.031328347 0.058520626 -0.054288246 0.05474576 0.0314193 0.009140729
-0.037038073 -0.012283304 -0.046851616 0.054745745 0.031831224 -0.0044285366 -0.059573457 0.04182206
0.06787889 -0.024531815 -0.0402848 -0.0005486013 -0.020529674 0.01171431 0.010495681 -0.04610171
0.03689036 -0.031396765 -0.00037426472 -0.032599308 -0.050925024 -0.08494599 0.028427059 0.07855773
0.01704246 -0.05257924 0.071427055 -0.09290643 0.00087848736 0.09505604 0.010579889 -0.039939318
0.010124881 -0.06412883 0.051808387 0.016716154 -0.09132701 -0.028808834 -0.021031728 0.015521903
-0.030285353 0.095105916 -0.03152744 0.091784015 0.07720227 -0.00068370235 -0.012080484 -0.0064775436
0.07346199 -0.06702709 0.05277992 -0.005276111 0.08993009 -0.07350522 0.03483642 -0.073616095
-0.018661788 -0.018420372 -0.028858535 -0.0380249 -0.08797117 -0.07030574 0.058761418 0.059755217
0.0338036 0.056168683 -0.07380469 0.0028229156 0.043974325 -0.0036545016 -0.06991675 0.067980506
0.05713832 -0.07166638 0.059993945 0.03757108 0.043622166 -0.036435388 0.014470175 0.069353975
-0.0094049685 -0.07864271 0.018928371 0.065826066 -0.017599741 0.032940377 -0.032775983 -0.07422557
0.012872852 0.03304573 0.039083265 0.07949392 -0.08395136 -0.037949577 -0.06339938 -0.02446042
0.0346579 -0.020928996 0.06141269 -0.013620498 -0.077196985 -0.034434285 0.0016813389 -0.02833241
-0.06446721 -0.06901367 0.004943545 0.050280545
00000000: 27c7 24bc 345a 2d3b e80f a1bc 6c40 83bb
00000010: f5f9 283d f2b2 12bd c3d5 d6bc 804a 533d
00000020: 4c1a 8fbc a990 6ebd 2752 003d 53b3 6f3d
00000030: 5a5d 5ebd 173d 603d 86b1 003d ffc2 153c
00000040: 3cb5 17bd e93f 49bc 7be7 3fbd 133d 603d
00000050: 7561 023d 421d 91bb 4c03 74bd 9c4d 2b3d
00000060: 1604 8b3d f2f6 c8bc ad01 25bd 03d0 0fba
00000070: d92d a8bc 61ed 3f3c 14f6 2b3c 26d5 3cbd
00000080: 591a 173d e599 00bd f638 c4b9 da86 05bd
00000090: c296 50bd 2af8 adbd dddf e83c e0e2 a03d
000000a0: a19c 8b3c 545d 57bd 5948 923d ba45 bebd
000000b0: 4a4a 663a beac c23d 4557 2d3c 6997 23bd
000000c0: d4e2 253c fa55 83bd 0835 543d 51f0 883c
000000d0: a809 bbbd 8100 ecbc bb4a acbc 944f 7e3c
000000e0: fd18 f8bc e4c6 c23d eb22 01bd 42f9 bb3d
000000f0: 391c 9e3d 7d3a 33ba 39ed 45bc 9341 d4bb
00000100: 3d73 963d 8045 89bd c22f 583d 3ae3 acbb
00000110: 442d b83d e889 96bd a2b0 0e3d 09c4 96bd
00000120: 9be0 98bc 52e6 96bc bc68 ecbc ffbf 1bbd
00000130: 3b2a b4bd 75fc 8fbd d0af 703d e3c1 743d
00000140: a575 0a3d 2211 663d ea26 97bd aa00 393b
00000150: 6c1e 343d 5d80 6fbb 8330 8fbd 5d39 8b3d
00000160: df09 6a3d d3c5 92bd 36bc 753d 22e4 193d
00000170: 28ad 323d 463d 15bd 5014 6d3c 7509 8e3d
00000180: 4c17 1abc 6e0f a1bd ac0f 9b3c d1cf 863d
00000190: 552d 90bc 7dec 063d 1c40 06bd 9303 98bd
000001a0: a8e8 523c f65a 073d c615 203d b5cd a23d
000001b0: b1ee abbd 0471 1bbd 89d7 81bd 3861 c8bc
000001c0: 71f5 0d3d 4973 abbc df8b 7b3d 8228 5fbc
000001d0: 7419 9ebd f70a 0dbd 5f60 dc3a 5f19 e8bc
000001e0: 6207 84bd 0a57 8dbd 76fd a13b f9f2 4d3d

lin1.parametrizations.weight.original0 f4 [124, 1]
0.57615197 0.5630972 0.5840906 0.61046016 0.5587984 0.5912102 0.5943734 0.55740654
0.53901124 0.58565575 0.56694645 0.594751 0.57026297 0.5336789 0.6246896 0.60458255
0.5500537 0.6043562 0.57793194 0.58721167 0.57114583 0.6130358 0.5764257 0.59655166
0.54914933 0.6167595 0.59473485 0.6132696 0.5784266 0.56273586 0.6200214 0.5521054
0.587677 0.60392404 0.5777108 0.55468076 0.59194684 0.55071115 0.58931774 0.6352044
0.58319074 0.5630511 0.6171699 0.56721365 0.6023919 0.5554043 0.5999404 0.5926343
0.5850056 0.6094987 0.57010674 0.5912837 0.5016703 0.59634054 0.5951059 0.59103465
0.6020542 0.57238114 0.6196228 0.5875092 0.56039655 0.5834157 0.5619396 0.5854107
0.54476523 0.5622712 0.5960084 0.6089099 0.5973407 0.56484294 0.56768674 0.5771911
0.6235034 0.56270695 0.6338111 0.597278 0.55498475 0.5676716 0.59951353 0.6034671
0.5435038 0.56061673 0.5861827 0.5722862 0.56666094 0.59991354 0.58650666 0.5973863
0.6138375 0.5786529 0.5855985 0.5597348 0.5878825 0.542467 0.5561759 0.6007731
0.5827661 0.5498717 0.55576223 0.5867575 0.5617806 0.5561366 0.61743575 0.5988016
0.6049335 0.55277586 0.6312655 0.6145148 0.51634973 0.5647009 0.60099685 0.55533767
0.59467 0.56957966 0.585397 0.583215 0.57321435 0.56292206 0.5581826 0.58476925
0.6196479 0.580072 0.5711742 0.57719105
00000000: b27e 133f 2327 103f f686 153f 1e47 1c3f
00000010: 690d 0f3f 8d59 173f db28 183f 32b2 0e3f
00000020: a4fc 093f 89ed 153f 6723 113f 9a41 183f
00000030: c1fc 113f 2e9f 083f a8eb 1f3f ecc5 1a3f
00000040: 52d0 0c3f 17b7 1a3f 59f3 133f 8153 163f
00000050: 9d36 123f eaef 1c3f a290 133f 9cb7 183f
00000060: 0d95 0c3f f3e3 1d3f 8b40 183f 3dff 1c3f
00000070: c413 143f 750f 103f b9b9 1e3f c856 0d3f
00000080: 0072 163f c49a 1a3f dbe4 133f 8fff 0d3f
00000090: d489 173f 68fb 0c3f 87dd 163f c19c 223f
000000a0: fd4b 153f 1e24 103f d9fe 1d3f ea34 113f
000000b0: 5b36 1a3f fa2e 0e3f b295 193f e2b6 173f
000000c0: edc2 153f 1b08 1c3f 84f2 113f 5e5e 173f
000000d0: 776d 003f c6a9 183f dc58 183f 0c4e 173f
000000e0: 3920 1a3f 9287 123f 9a9f 1e3f 0167 163f
000000f0: 2676 0f3f bb5a 153f 46db 0f3f 7add 153f
00000100: bc75 0b3f 01f1 0f3f 0294 183f 85e1 1b3f
00000110: 52eb 183f 8c99 103f eb53 113f ccc2 133f
00000120: eb9d 1f3f 900d 103f 7241 223f 36e7 183f
00000130: 7b13 0e3f ed52 113f b879 193f d27c 1a3f
00000140: 1123 0b3f 9484 0f3f 1210 163f 5981 123f
00000150: b110 113f ef93 193f 4d25 163f 4fee 183f
00000160: 7424 1d3f 9922 143f c9e9 153f c84a 0f3f
00000170: 787f 163f 1edf 0a3f 8b61 0e3f 44cc 193f
00000180: 2930 153f 64c4 0c3f 6f46 0e3f bd35 163f
00000190: dad0 0f3f f85e 0e3f 4510 1e3f 104b 193f
000001a0: ecdc 1a3f b882 0d3f 9e9a 213f d850 1d3f
000001b0: 7f2f 043f 3d90 103f eeda 193f 9c2a 0e3f
000001c0: 4b3c 183f f9cf 113f 94dc 153f 944d 153f
000001d0: 2dbe 123f a91b 103f 0ee5 0e3f 70b3 153f
000001e0: 3fa1 1e3f 997f 143f 7938 123f cbc2 133f

lin1.parametrizations.weight.original1 f4 [124, 128]
-0.0430121 -0.008831041 0.07160079 0.06074903 0.026753701 -0.002465278 -0.01009625 -0.023357332
-0.01854168 0.03971749 -0.04788426 0.057233427 0.07805214 -0.044573214 0.082363784 0.058948435
-0.014041947 0.030290745 -0.03795155 -0.013877816 -0.01312085 0.03664148 0.034909178 -0.009112546
-0.013341466 0.08346509 0.041156176 -0.079050906 0.009158505 -0.050136235 0.0930544 -0.04601623
0.08071592 -0.020343296 -0.047945812 0.04087103 0.015510184 0.013793291 0.07209212 -0.06304222
-0.017171344 0.0928772 -0.008120704 0.01212114 0.05415626 0.010207937 -0.07331653 -0.014326395
0.07360486 0.054839462 0.0073764296 -0.05081416 0.06712147 -0.07911171 0.058747157 0.0053438772
0.029923618 0.060460962 -0.014648981 -0.06166321 -0.034911994 -0.025685953 -0.026526138 -0.013171608
-0.06121058 0.0442753 0.08652345 0.041394476 0.055602 -0.022349661 -0.024640875 0.0491235
0.038922906 0.06812096 -0.04685077 -0.028246569 0.021662721 0.005233613 -0.042106073 -0.06605944
0.054512482 0.08253349 0.063615195 -0.06931793 0.00016633919 0.07173658 -0.054878864 0.08284856
0.009726255 0.08152138 0.052761402 0.063736185 0.08814404 0.023139343 -0.0130240265 -0.053881228
0.041800432 0.061233968 -0.07325516 0.09908973 -0.07780862 -0.034461096 0.032437187 0.024950067
0.051698036 0.06646242 0.051532473 0.07862449 -0.038606916 0.0030992047 -0.056447767 0.074514955
0.044365235 -0.012251739 0.06169334 0.03444838 0.07295749 -0.022174716 -0.051105555 -0.013338785
0.06920748 0.023159634 -0.024009947 0.027171405 -0.03137445 0.055359676 0.08226224 0.017488396
0.0075509804 -0.0027987012 0.014275025 -0.017908154 0.029049639 -0.03613255 0.06508478 0.0112623805
0.0114431465 -0.07810755 0.0093733445 -0.021867812 -0.010244405 0.019674025 0.09537076 -0.041500833
0.0867276 0.09101227 0.03423093 0.084588684 -0.035201907 -0.0042806384 0.07516569 0.027673787
0.06676523 -0.03639637 -0.008263959 0.013588763 -0.056369875 -0.06473657 0.07204437 -0.0766911
-0.030006114 -0.00024843903 -0.068384625 0.07435599 0.019755302 -0.074624196 -0.006721261 -0.027163513
-0.065621324 -0.004145338 -0.06620015 0.00798736 0.01822443 -0.051781096 -0.027155219 0.009794867
-0.07619169 -0.087177046 -0.029363625 0.039581858 0.04989658 -0.055203304 -0.06496732 -0.039879814
-0.07511217 0.0884433 0.038315486 -0.075633146 -0.04737342 -0.08201862 0.02145322 -0.076187484
0.06442594 -0.07200993 0.025017627 0.041559283 -0.02598551 0.004518086 0.009365477 -0.008477972
0.07730179 0.022733517 -0.037102427 -0.0022502944 -0.068876214 -0.028135745 -0.034360405 0.02164808
0.039850622 -0.03420983 0.035400778 0.0328267 0.085657604 0.05130652 -0.077089146 0.023148121
0.013952346 0.09189512 0.084507115 0.0077064876 -0.027756516 -0.02552237 0.09003982 0.039784864
0.01850516 0.072177894 -0.00042662784 -0.032956004 -0.008418949 -0.035230547 -0.05629361 -0.0077296635
0.033276808 -0.053395472 0.044723544 -0.051434383 0.03452809 0.051232554 0.00927797 -0.052554954
-0.039824557 0.03042055 0.055792905 0.03336122 0.062408533 -0.015634278 0.015655048 0.04945719
-0.059553947 0.02337653 0.032342542 0.050643962 0.06566444 -0.017256541 0.0015100803 -0.027433518
00000000: 752d 30bd 12b0 10bc 6fa3 923d fad3 783d
00000010: 942a db3c 8090 21bb be6a 25bc e057 bfbc
00000020: b9e4 97bc cfae 223d 4922 44bd 996d 6a3d
00000030: cdd9 9f3d 6792 36bd 58ae a83d ea73 713d
00000040: 3210 66bc 4c24 f83c 1673 1bbd c75f 63bc
00000050: d5f8 56bc 6015 163d edfc 0e3d ca4c 15bc
00000060: 2a96 5abc bfef aa3d 6193 283d 71e5 a1bd
00000070: 8e0d 163c a75b 4dbd 4e93 be3d 847b 3cbd
00000080: 634e a53d fca6 a6bc d462 44bd 6268 273d
00000090: 6d1e 7e3c 41fd 613c 09a5 933d 481c 81bd
000000a0: ebaa 8cbc 6736 be3d b40c 05bc bf97 463c
000000b0: f4d2 5d3d 313f 273c fa26 96bd 41b9 6abc
000000c0: 25be 963d 589f 603d fab5 f13b 8222 50bd
000000d0: fb76 893d 5205 a2bd dca0 703d b11b af3b
000000e0: 6022 f53c eaa5 773d 4802 70bc 9092 7cbd
000000f0: e1ff 0ebd 596b d2bc 584d d9bc bacd 57bc
00000100: f2b7 7abd 045a 353d 3533 b13d 418d 293d
00000110: ecbe 633d a316 b7bc a9db c9bc b935 493d
00000120: a06d 1f3d 0083 8b3d 98e6 3fbd 5965 e7bc
00000130: 0576 b13c ba7e ab3b 6b77 2cbd 2c4a 87bd
00000140: 7b48 5f3d 5207 a93d af48 823d 8ff6 8dbd
00000150: 566b 2e39 a1ea 923d a9c8 60bd 81ac a93d
00000160: df5a 1f3c aef4 a63d 571c 583d 1e88 823d
00000170: dd84 b43d b88e bd3c ba62 55bc 90b2 5cbd
00000180: ee36 2b3d 78d0 7a3d cd06 96bd 8eef ca3d
00000190: 205a 9fbd 1427 0dbd dbdc 043d 1564 cc3c
000001a0: 52c1 533d 731d 883d b713 533d e005 a13d
000001b0: 4922 1ebd 071c 4b3b c635 67bd 4c9b 983d
000001c0: 52b8 353d 85bb 48bc 28b2 7c3d bf19 0d3d
000001d0: bd6a 953d c0a7 b5bc 0f54 51bd eb8a 5abc
000001e0: a7bc 8d3d 46b9 bd3c 82b0 c4bc 9196 de3c
000001f0: 7f82 00bd d4c0 623d 1b79 a83d d343 8f3c
00000200: 376e f73b 6a6a 37bb cbe1 693c 1fb4 92bc
00000210: 82f9 ed3c baff 13bd 2b4b 853d d985 383c
00000220: 097c 3b3c daf6 9fbd a892 193c 2024 b3bc
00000230: 26d8 27bc 6c2b a13c bf51 c33d c7fc 29bd
00000240: 3d9e b13d a464 ba3d bb35 0c3d d53c ad3d
00000250: e02f 10bd 9944 8cbb 78f0 993d 23b4 e23c
00000260: 35bc 883d 5c14 15bd 8e65 07bc 67a3 5e3c
00000270: 19e4 66bd 9b94 84bd 008c 933d 3910 9dbd
00000280: 62cf f5bc ec40 82b9 3d0d 8cbd f447 983d
00000290: dfd5 a13c 92d4 98bd 063e dcbb 0486 debc
000002a0: 7964 86bd 9ed5 87bb f293 87bd 6add 023c
000002b0: 664b 953c 6a18 54bd 9f74 debc a67a 203c
000002c0: 640a 9cbd e189 b2bd fc8b f0bc 9620 223d
000002d0: 5b60 4c3d dc1c 62bd 960d 85bd 0459 23bd
000002e0: 69d4 99bd c321 b53d b3f0 1c3d 8de5 9abd
000002f0: a20a 42bd 61f9 a7bd aabe af3c 2f08 9cbd
00000300: bff1 833d f179 93bd c4f1 cc3c 113a 2a3d
00000310: 90df d4bc 740c 943b a871 193c 31e7 0abc
00000320: 6750 9e3d a43b ba3c b7f8 17bd ad79 13bb
00000330: f90e 8dbd ef7c e6bc 7fbd 0cbd 5057 b13c
00000340: 683a 233d 9b1f 0cbd 6800 113d 4a75 063d
00000350: 416d af3d c926 523d eae0 9dbd 21a1 bd3c
00000360: 6198 643c 8233 bc3d 1112 ad3d b486 fc3b
00000370: a261 e3bc 4a14 d1bc cc66 b83d 74f5 223d
00000380: 2298 973c 01d2 933d 05ad dfb9 e0fc 06bd
00000390: a2ef 09bc e84d 10bd 2194 66bd 1e49 fdbb
000003a0: 434d 083d 36b5 5abd 0930 373d dcac 52bd
000003b0: 546d 0d3d 3ad9 513d a002 183c dd43 57bd
000003c0: 131f 23bd 8434 f93c 1a87 643d c6a5 083d
000003d0: 17a0 7f3d 7513 80bc 043f 803c 9f93 4a3d
000003e0: d7ee 73bd 2380 bf3c 9d79 043d 0b70 4f3d
000003f0: 147b 863d 975d 8dbc e3ed c53a 42bc e0bc

lin2.bias f4 [128]
0.05698074 -0.025285292 -0.011335149 0.061916415 -0.039733868 -0.0370852 -0.034901414 0.008283648
-0.055091314 -0.07569215 0.029831836 -0.014793794 0.02477567 0.06358427 0.04454994 0.005849933
0.006413174 -0.093031004 -0.065567486 -0.087360695 -0.033225756 0.05518723 0.03926526 0.08683925
-0.025663402 0.05902224 0.078802556 -0.016266946 -0.06373784 0.08616902 -0.00262357 -0.020605264
0.061968524 -0.021596074 0.021686869 -0.073510736 0.030460441 0.049698085 0.025068527 0.096153274
0.042385757 0.060656797 0.046408024 -0.049371988 -0.002601862 0.053495746 0.07037056 -0.057446063
0.05219307 0.061721504 -0.058497045 0.01736497 0.01330658 0.076030046 0.036888696 -0.0059207594
0.031684116 0.07636083 -0.006994872 0.009969716 -0.021068973 -0.021456866 -0.01771325 0.036573894
-0.03244882 -0.04357312 0.034161106 0.038525615 0.036709957 -0.06839307 0.08643412 -0.041384444
-0.026385672 0.006578758 0.031663068 -0.03859896 0.07297711 0.07026266 0.063410126 -0.046111096
0.04828122 0.060912836 -0.053661607 0.029833926 -0.03555791 -0.06387043 -0.07313787 -0.07213352
-0.021961713 -0.00852686 0.07613287 -0.04830913 -0.038404834 0.06887247 -0.016455498 0.08046942
-0.018889004 -0.061597493 0.038649555 0.059318278 0.06541891 0.031639334 0.0730986 -0.097553454
0.07265404 -0.0028405963 0.083587624 -0.010110184 -0.026387855 -0.063838795 0.06731144 0.011890802
0.060171742 -0.0063669235 -0.05053074 0.065195076 0.06307798 -0.011034328 0.035308953 0.052357588
-0.021169458 0.045528725 0.022012647 0.06644447 0.093975164 -0.01813464 -0.054326955 -0.00920832
00000000: a364 693d 1a23 cfbc 10b7 39bc 119c 7d3d
00000010: fbbf 22bd a7e6 17bd c9f4 0ebd 23b8 073c
00000020: 6ea7 61bd 7c04 9bbd e561 f43c ab61 72bc
00000030: 59f6 ca3c 7838 823d ff79 363d cbb0 bf3b
00000040: 9a25 d23b 0a87 bebd 3f48 86bd 2aea b2bd
00000050: bb17 08bd 010c 623d 9cd4 203d c7d8 b13d
00000060: 0e3c d2bc 4ec1 713d 3c63 a13d 4242 85bc
00000070: fc88 82bd 6279 b03d 33f0 2bbb 5fcc a8bc
00000080: b5d2 7d3d 40ea b0bc a9a8 b13c cc8c 96bd
00000090: 2d88 f93c 3890 4b3d 835c cd3c 02ec c43d
000000a0: b09c 2d3d 4373 783d 5716 3e3d 483a 4abd
000000b0: 0084 2abb 5b1e 5b3d 711e 903d 904c 6bbd
000000c0: 67c8 553d b0cf 7c3d 999a 6fbd fb40 8e3c
000000d0: d703 5a3c a4b5 9b3d 9a18 173d ee02 c2bb
000000e0: 34c7 013d 1163 9c3d 3d35 e5bb 0558 233c
000000f0: d798 acbc 4fc6 afbc 611b 91bc 82ce 153d
00000100: 0ee9 04bd ba79 32bd 84ec 0b3d 09cd 1d3d
00000110: 2e5d 163d aa11 8cbd 5f04 b13d bc82 29bd
00000120: c426 d8bc 9f92 d73b 22b1 013d f119 1ebd
00000130: 0675 953d dfe5 8f3d 2bdd 813d fdde 3cbd
00000140: 87c2 453d bd7f 793d 46cc 5bbd 4766 f43c
00000150: 2ca5 11bd 80ce 82bd 4fc9 95bd bdba 93bd
00000160: 0de9 b3bc 3eb4 0bbc 8deb 9b3d cbdf 45bd
00000170: 634e 1dbd 020d 8d3d aecd 86bc 27cd a43d
00000180: 1dbd 9abc a74d 7cbd ff4e 1e3d b9f7 723d
00000190: 59fa 853d 3f98 013d b8b4 953d 1bca c7bd
000001a0: a4cb 943d 4c29 3abb fd2f ab3d 2fa5 25bc
000001b0: 582b d8bc eabd 82bd 95da 893d a3d1 423c
000001c0: a576 763d a0a1 d0bb 52f9 4ebd ff84 853d
000001d0: 072f 813d 53c9 34bc 1fa0 103d e974 563d
000001e0: 926b adbc 547c 3a3d de53 b43c 0a14 883d
000001f0: 0d76 c03d 198f 94bc f185 5ebd 7ede 16bc

lin2.parametrizations.weight.original0 f4 [128, 1]
0.5520489 0.6105982 0.62174606 0.5410066 0.6403555 0.50305206 0.61753786 0.50406605
0.5773521 0.57630295 0.5854335 0.5502116 0.58300287 0.56561905 0.60502505 0.57077503
0.5581926 0.58610696 0.6068003 0.55577165 0.59488654 0.60088813 0.5320248 0.5852831
0.5782731 0.5947412 0.58804834 0.5923223 0.5640789 0.55267286 0.52983725 0.6445931
0.61948365 0.56516474 0.56004333 0.5751881 0.60384583 0.57919115 0.57060003 0.5475109
0.6134931 0.5880112 0.57410735 0.58322847 0.60734284 0.59125495 0.62893516 0.60170436
0.55745745 0.60245526 0.62460905 0.5613306 0.5732357 0.5730669 0.59635323 0.58279514
0.610293 0.5606647 0.5503745 0.59872794 0.596143 0.56823313 0.6018022 0.5834377
0.5812152 0.5970335 0.62334514 0.6018509 0.58389777 0.6111498 0.59365386 0.55868304
0.55725396 0.5776827 0.5889038 0.53208405 0.5832003 0.5890688 0.6040414 0.6256261
0.5999055 0.5569099 0.5874102 0.57091504 0.62600255 0.61468625 0.5670223 0.5876556
0.59246576 0.5711639 0.5730999 0.57055306 0.5654334 0.5830524 0.5438631 0.5778797
0.58782977 0.58609825 0.5704469 0.5562337 0.5408881 0.57439446 0.59382623 0.5427089
0.5908491 0.5700303 0.57364994 0.5818042 0.5916523 0.6245487 0.5228205 0.5742753
0.60828894 0.5229469 0.55399734 0.58118445 0.5245507 0.5802072 0.5490298 0.542205
0.60674155 0.5395203 0.5781296 0.58673793 0.6143484 0.5819184 0.56724143 0.56992215
00000000: 1453 0d3f 2a50 1c3f c02a 1f3f 697f 0a3f
00000010: 57ee 233f 05c8 003f f616 1e3f 790a 013f
00000020: 59cd 133f 9788 133f f8de 153f abda 0c3f
00000030: ad3f 153f 69cc 103f ece2 1a3f 501e 123f
00000040: b6e5 0e3f 1b0b 163f 4457 1b3f 0d47 0e3f
00000050: 7c4a 183f ced3 193f c732 083f 1dd5 153f
00000060: b509 143f f640 183f 568a 163f 6fa2 173f
00000070: 7a67 103f f87b 0d3f 6aa3 073f 0e04 253f
00000080: 7b96 1e3f a3ae 103f 005f 0f3f 873f 133f
00000090: a495 1a3f df45 143f d812 123f ad29 0c3f
000000a0: e20d 1d3f e787 163f b3f8 123f 764e 153f
000000b0: d27a 1b3f 7c5c 173f e501 213f 4c09 1a3f
000000c0: 88b5 0e3f 823a 1a3f 61e6 1f3f 5db3 0f3f
000000d0: 93bf 123f 83b4 123f 9baa 183f 1032 153f
000000e0: 293c 1c3f b987 0f3f 58e5 0c3f 3c46 193f
000000f0: d49c 183f ba77 113f b50f 1a3f 2c5c 153f
00000100: 85ca 143f 30d7 183f 8c93 1f3f e712 1a3f
00000110: 537a 153f 5074 1c3f b3f9 173f da05 0f3f
00000120: 32a8 0e3f 03e3 133f 66c2 163f a936 083f
00000130: 9d4c 153f 36cd 163f 75a2 1a3f 0829 203f
00000140: 6893 193f a691 0e3f 8460 163f 7d27 123f
00000150: b441 203f 145c 1d3f 6028 113f 9970 163f
00000160: d6ab 173f cc37 123f adb6 123f c40f 123f
00000170: 3ec0 103f ec42 153f 9d3a 0b3f edef 133f
00000180: 037c 163f 890a 163f cf08 123f 5565 0e3f
00000190: a477 0a3f 840b 133f ff04 183f f8ee 0a3f
000001a0: e341 173f 81ed 113f b9da 123f 1ff1 143f
000001b0: 8676 173f 6ce2 1f3f 90d7 053f b503 133f
000001c0: d3b8 1b3f d9df 053f c5d2 0d3f 81c8 143f
000001d0: f448 063f 7688 143f 388d 0c3f f2cd 0a3f
000001e0: 6a53 1b3f 011e 0a3f 4d00 143f 7534 163f
000001f0: f045 1d3f 9bf8 143f bc36 113f 6be6 113f

lin2.parametrizations.weight.original1 f4 [128, 128]
-0.060412314 0.023122597 -0.038846612 0.03146506 -0.031193612 -0.08472833 0.07251135 -0.04348539
0.060822308 0.052789453 0.06554761 -0.033671852 0.0015961854 -0.042085577 -0.009412842 -0.0746759
0.012564604 -0.051764484 0.053038303 -0.05433134 -0.07145223 -0.013863535 -0.04449642 0.047612447
0.060354624 -0.07905242 -0.0015089473 -0.06739228 -0.014621972 -0.059815563 -0.09683923 -0.06696484
-0.022037325 0.057501785 0.06880663 -0.059050553 -0.06317506 0.08931353 -0.05796693 0.031009082
0.036535647 -0.08272249 0.059908345 -0.011465334 0.08371701 -0.019525515 -0.03408026 -0.03450126
0.028013896 0.010654793 0.037637077 -0.06798799 -0.033811744 -0.070103936 -0.003316961 0.033656638
-0.07555624 -0.082485534 0.009474684 -0.0048591234 -0.006850873 0.07027885 0.027962893 0.06292302
-0.09160148 -0.066255234 -0.021445995 -0.071117766 0.04465132 -0.018448059 -0.093456715 -0.0845717
-0.043418985 0.022307351 -0.062878154 0.038256627 0.049324952 0.04418662 0.02870826 0.04125272
0.062683746 -0.018304577 -0.012123547 -0.04532788 -0.08018197 -0.059192907 0.0068601044 -0.0017782171
0.022087542 -0.019928914 0.06837148 0.013353291 -0.057333276 -0.09638066 -0.0302509 -0.05663865
-0.01092571 0.027558787 -0.043674298 -0.087921314 0.06348106 0.07701769 -0.0655761 -0.088028006
-0.07394336 0.022941813 -0.014417932 -0.06522222 0.02138652 -0.0043744897 -0.027461862 0.040956497
-0.026141718 0.046315763 0.007995305 0.031996183 -0.049667064 -0.06814034 0.057003893 0.012551997
-0.018194938 0.024925744 0.010019171 -0.06836373 -0.05731527 0.06368821 0.060622793 0.062464852
0.015497231 0.08666521 0.033072304 0.07512934 0.083085746 -0.038587444 0.047306083 0.09055213
0.03940664 -0.052137185 -0.026220964 0.049030695 0.052093446 -0.0663321 -0.024246948 -0.05866021
-0.009679891 -0.040692434 0.048499882 -0.024390785 -0.07744441 0.026053969 -0.051574774 0.071619526
-0.006049723 -0.020994036 0.04262674 0.03655938 0.06617101 0.0013181947 0.05404884 0.009316857
0.056367643 0.0040022787 -0.075596355 -0.07313781 -0.013575481 0.03043072 0.013394986 0.06578202
0.016543638 0.042805046 -0.06453755 0.06945233 0.05603039 0.076674365 0.062857084 0.043844033
0.09132574 0.040738724 0.08264943 0.0016900828 -0.05131575 0.026780138 0.019890018 -0.07312993
0.037600532 0.088657044 -0.047255773 0.00639571 -0.07220274 0.090615675 0.09655444 0.03103637
0.06635071 0.05913348 0.055125102 0.089675404 -0.01863868 0.041777343 0.043075025 0.031396795
0.03777684 -0.051539212 -0.055472452 -0.0629477 -0.05961081 -0.050163943 0.031423084 -0.006149038
-0.011822193 0.07133595 0.07554132 -0.0051579243 0.01603295 0.067930326 -0.039577246 0.000709591
-0.038174726 0.07834603 0.012159491 -0.03674392 0.07230408 -0.042720664 0.058351964 0.08130308
0.026116116 -0.07392927 0.088630974 0.00045166028 -0.043750346 0.090118274 -0.08004822 -0.025286756
-0.01764686 -0.043052018 0.02730944 0.057289664 0.09943342 -0.01150468 0.032498617 0.069740444
-0.035172995 -0.04421656 -0.051281333 0.008594314 0.020496998 -0.056122195 -0.07355904 0.07377612
-0.043276172 -0.075637855 0.011600965 -0.031971697 0.016231645 -0.061192192 -0.02465109 -0.022070624
00000000: e772 77bd 9a6b bd3c a01d 1fbd 82e1 003d
00000010: bf89 ffbc 0c86 adbd d580 943d bc1d 32bd
00000020: d020 793d c139 583d d33d 863d 7feb 09bd
00000030: 1837 d13a ed61 2cbd 5238 1abc aeef 98bd
00000040: c5db 4d3c ff06 54bd b13e 593d 8a8a 5ebd
00000050: 8c55 92bd e123 63bc e141 36bd 4505 433d
00000060: 6936 773d 3ce6 a1bd dfc7 c5ba f704 8abd
00000070: ff90 6fbc 2a01 75bd a553 c6bd dd24 89bd
00000080: 9f87 b4bc fe86 6b3d 7eea 8c3d fede 71bd
00000090: ed61 81bd 03ea b63d bb6e 6dbd c206 fe3c
000000a0: 67a6 153d 696a a9bd 7462 753d 19d9 3bbc
000000b0: d373 ab3d f9f3 9fbc be97 0bbd 3151 0dbd
000000c0: 667d e53c 7191 2e3c 5629 1a3d 4a3d 8bbd
000000d0: 2f7e 0abd a792 8fbd 5f61 59bb 8bdb 093d
000000e0: 3bbd 9abd 2dee a8bd b43b 1b3c 4839 9fbb
000000f0: 4a7d e0bb 5cee 8f3d 7012 e53c c9dd 803d
00000100: 8f99 bbbd d3b0 87bd 83af afbc 31a6 91bd
00000110: 4de4 363d 6220 97bc 3c66 bfbd ed33 adbd
00000120: 1bd8 31bd e8bd b63c 43c6 80bd fbb2 1c3d
00000130: f608 4a3d 07fd 343d 962d eb3c 9df8 283d
00000140: 5660 803d 7bf3 95bc d7a1 46bc baa9 39bd
00000150: 7236 a4bd 4374 72bd baca e03b 1113 e9ba
00000160: eff0 b43c f641 a3bc 5906 8c3d c3c7 5a3c
00000170: 4cd6 6abd 3963 c5bd bcd0 f7bc eefd 67bd
00000180: c001 33bc f7c2 e13c d2e3 32bd 1710 b4bd
00000190: 5c02 823d 73bb 9d3d c34c 86bd 0748 b4bd
000001a0: 9e6f 97bd 78f0 bb3c 3139 6cbc 3a93 85bd
000001b0: c832 af3c e157 8fbb b3f7 e0bc 00c2 273d
000001c0: 2827 d6bc 99b5 3d3d bdfe 023c 6e0e 033d
000001d0: b16f 4bbd 2a8d 8bbd ea7c 693d e4a6 4d3c
000001e0: 8d0d 95bc 1331 cc3c 7327 243c 4902 8cbd
000001f0: 6bc3 6abd f76e 823d 9b4f 783d 25db 7f3d
00000200: 19e8 7d3c 887d b13d d376 073d 69dd 993d
00000210: dc28 aa3d de0d 1ebd 06c4 413d 6573 b93d
00000220: db68 213d cd8d 55bd 59cd d6bc 69d4 483d
00000230: f05f 553d 20d9 87bd 89a1 c6bc b045 70bd
00000240: 6898 1ebc 1cad 26bd d0a7 463d 2fcf c7bc
00000250: 2d9b 9ebd 226f d53c 1240 53bd 42ad 923d
00000260: c13c c6bb affb abbc 6099 2e3d 4abf 153d
00000270: ab84 873d 46c7 ac3a 5162 5d3d bba5 183c
00000280: c2e1 663d 8c25 833b 43d2 9abd 47c9 95bd
00000290: b26b 5ebc d849 f93c a576 5b3c b9b8 863d
000002a0: 8686 873c 5854 2f3d 432c 84bd 063d 8e3d
000002b0: 1f80 653d 7307 9d3d 37bb 803d cd95 333d
000002c0: fd08 bb3d a6dd 263d 1b44 a93d c585 dd3a
000002d0: 7730 52bd 0562 db3c 64f0 a23c 25c5 95bd
000002e0: 0403 1a3d d391 b53d 458f 41bd 1b93 d13b
000002f0: 08df 93bd b694 b93d 56be c53d fc3f fe3c
00000300: e2e2 873d f335 723d dcca 613d bda7 b73d
00000310: 25b0 98bc b81e 2b3d 706f 303d ed99 003d
00000320: e3bb 1a3d c81a 53bd 1537 63bd b9ea 80bd
00000330: 772a 74bd b578 4dbd 7eb5 003d df7d c9bb
00000340: dfb1 41bc 9518 923d 68b5 9a3d ce03 a9bb
00000350: 8857 833c 0e1f 8b3d c01b 22bd d903 3a3a
00000360: 1a5d 1cbd e273 a03d 9a38 473c cb80 16bd
00000370: 2914 943d ddfb 2ebd 7802 6f3d 3b82 a63d
00000380: 77f1 d53c 3b68 97bd 2884 b53d d1cc ec39
00000390: 9033 33bd ee8f b83d 52f0 a3bd 2c26 cfbc
000003a0: 2690 90bc 5057 30bd 0cb8 df3c 91a8 6a3d
000003b0: c0a3 cb3d 207e 3cbc 451d 053d 14d4 8e3d
000003c0: 8f11 10bd 6c1c 35bd 600c 52bd 2acf 0c3c
000003d0: 52e9 a73c 63e0 65bd 1fa6 96bd ef17 973d
000003e0: 5b42 31bd 05e8 9abd f911 3e3c c1f4 02bd
000003f0: 3af8 843c aaa4 7abd 15f1 c9bc 74cd b4bc

lin3.bias f4 [128]
0.001303211 -0.04217655 -0.047381073 -0.0104869455 -0.092744514 0.044994693 0.03146069 0.030850753
-0.030522713 0.024489397 -0.09439075 0.040273625 0.01644627 -0.0008712041 0.0009006318 -0.026883574
0.032707967 0.0058881454 -0.08523244 -0.043343555 -0.046849176 -0.0012392473 0.010644093 0.0953676
-0.03213582 0.06121898 0.009982229 -0.007940072 -0.035603262 0.090675816 0.09162647 -0.034268405
-0.043272983 0.072962455 -0.062002957 0.07047134 -0.06376486 0.00141056 0.052075665 0.014946978
-0.026947064 0.024198556 -0.047264274 -0.04905048 -0.048002098 0.07879717 -0.0034172835 -0.026882494
-0.019283796 -0.042220216 -0.0129699 0.08595017 0.06732162 -0.026097493 -0.046656974 0.007860262
0.043766446 0.027259614 -0.002576932 0.011829636 -0.08819012 -0.0059077865 -0.024775645 0.013378695
-0.04296667 0.044326898 0.002334054 0.07308898 0.009845241 -0.02242758 0.05947319 -0.0018830629
-0.027764026 -0.010533609 -0.050046355 0.049678523 0.046250027 0.061432682 -0.010907206 0.10024317
-0.020389283 -0.020772517 0.072667964 -0.049548753 0.091251254 0.09897279 -0.006673557 0.054886147
0.063213125 -0.08380365 -0.08274745 -0.010252716 -0.033066776 -0.056502715 -0.006331907 0.035305005
-0.0045467177 0.016920906 -0.00739076 0.075964496 -0.014787365 0.06260903 -0.008062724 -0.040247314
0.08799999 -0.0066577285 0.05366215 -0.05800775 0.07469904 -0.07814267 -0.010024553 -0.050513983
-0.051997297 -0.039752003 -0.04140687 -0.024854854 0.07125053 -0.023992918 0.06813564 -0.0037339074
0.0077738427 -0.08236848 0.08032675 -0.0022530537 -0.047316696 0.0921573 0.055525508 -0.0649169
00000000: 81d0 aa3a 51c1 2cbd a812 42bd 70d1 2bbc
00000010: d6f0 bdbd 5b4c 383d eddc 003d b8ba fc3c
00000020: c50a fabc fd9d c83c f04f c1bd f5f5 243d
00000030: 54ba 863c 8461 64ba 6118 6c3a f13a dcbc
00000040: caf8 053d 58f1 c03b 588e aebd 0389 31bd
00000050: ece4 3fbd 3d6e a2ba 9064 2e3c 1750 c33d
00000060: d9a0 03bd c1c0 7a3d 818c 233c 1317 02bc
00000070: bad4 11bd 3eb4 b93d a9a6 bb3d 075d 0cbd
00000080: 033f 31bd 576d 953d d0f6 7dbd 4753 903d
00000090: 2797 82bd 8ae2 b83a 4b4d 553d 2be4 743c
000000a0: 17c0 dcbc 0d3c c63c 2f98 41bd 28e9 48bd
000000b0: d99d 44bd 6960 a13d 81f4 5fbb ad38 dcbc
000000c0: 0df9 9dbc 1bef 2cbd b47f 54bc a506 b03d
000000d0: ebdf 893d 69ca d5bc 621b 3fbd 54c8 003c
000000e0: 7244 333d 8e4f df3c bfe1 28bb 17d1 413c
000000f0: 069d b4bd 1b96 c1bb 4bf6 cabc 5032 5b3c
00000100: d2fd 2fbd 1f90 353d eef6 183b adaf 953d
00000110: ef4d 213c 0bba b7bc 299a 733d 1bd1 f6ba
00000120: 6271 e3bc 2995 2cbc 68fd 4cbd b57b 4b3d
00000130: ab70 3d3d d6a0 7b3d 23b4 32bc 4b4c cd3d
00000140: 6d07 a7bc 202b aabc f1d2 943d a2f3 4abd
00000150: f0e1 ba3d 3fb2 ca3d dbad dabb 4cd0 603d
00000160: e275 813d 40a1 abbd 7f77 a9bd 02fb 27bc
00000170: 0771 07bd 646f 67bd e37b cfbb fb9b 103d
00000180: a2fc 94bb b69d 8a3c 302e f2bb 4693 9b3d
00000190: b446 72bc 2a39 803d 8419 04bc 5eda 24bd
000001a0: 5739 b43d 1329 dabb d8cc 5b3d 8999 6dbd
000001b0: cffb 983d 4409 a0bd 063e 24bc c0e7 4ebd
000001c0: 1efb 54bd ffd2 22bd 409a 29bd 689c cbbc
000001d0: cceb 913d cc8c c4bc b38a 8b3d 92b4 74bb
000001e0: b8bb fe3b ceb0 a8bd 5a82 a43d f8a7 13bb
000001f0: 27cf 41bd f7bc bc3d b76e 633d 27f3 84bd

lin3.parametrizations.weight.original0 f4 [128, 1]
0.55693936 0.5666525 0.57730454 0.57351136 0.5726079 0.5831529 0.56364655 0.5592358
0.52303797 0.6012714 0.55109435 0.612611 0.5558745 0.5100784 0.5892726 0.5700523
0.58418 0.58424026 0.6051126 0.5820762 0.57272696 0.55632836 0.54123807 0.55829304
0.59964114 0.6272105 0.5793825 0.6103192 0.6001729 0.61644983 0.5910291 0.57597864
0.5693209 0.5764429 0.55091244 0.5577671 0.6073727 0.62017673 0.57247394 0.59845555
0.59672165 0.5900687 0.5634488 0.6427713 0.57458454 0.572881 0.55373406 0.5687064
0.5489001 0.5723002 0.5929909 0.61942154 0.56584424 0.5899276 0.55259347 0.63050824
0.56844825 0.60648215 0.57222736 0.5950261 0.5720842 0.5568581 0.56117433 0.57408065
0.58175755 0.58501387 0.642121 0.57820964 0.61923236 0.56168735 0.54426384 0.59058243
0.58729005 0.59476537 0.60593617 0.6024646 0.56837237 0.566599 0.6139349 0.59986204
0.61945856 0.59156775 0.56759083 0.60683197 0.5451439 0.5249146 0.57728255 0.5927526
0.56103534 0.6036248 0.58938193 0.5403032 0.56189954 0.57273364 0.59826803 0.5673003
0.5848548 0.5552314 0.5706253 0.6535014 0.560736 0.5817312 0.59530914 0.565227
0.5956639 0.5713529 0.6135688 0.5778708 0.58899117 0.54306203 0.5907688 0.54906017
0.59994787 0.5614807 0.5720094 0.6071382 0.5600761 0.5700028 0.5664461 0.6052485
0.5647216 0.5707047 0.6006429 0.5567697 0.60973805 0.5774031 0.60422415 0.55845946
00000000: 9493 0e3f 2310 113f 3bca 133f a4d1 123f
00000010: 6e96 123f 8249 153f 244b 103f 142a 0f3f
00000020: d1e5 053f ecec 193f 8514 0d3f 13d4 1c3f
00000030: cb4d 0e3f 7f94 023f 92da 163f f3ee 113f
00000040: d28c 153f c590 153f a9e8 1a3f f202 153f
00000050: 3c9e 123f 896b 0e3f 948e 0a3f 4bec 0e3f
00000060: 1582 193f de90 203f 6952 143f e13d 1c3f
00000070: eea4 193f a8cf 1d3f af4d 173f 5673 133f
00000080: 04bf 113f c391 133f 9908 0d3f d3c9 0e3f
00000090: c77c 1b3f e7c3 1e3f a78d 123f 6234 193f
000000a0: c0c2 183f be0e 173f 2e3e 103f a98c 243f
000000b0: f917 133f 54a8 123f 84c1 0d3f be96 113f
000000c0: b884 0c3f 4482 123f 40ce 173f 6992 1e3f
000000d0: 2bdb 103f 7f05 173f c476 0d3f fd68 213f
000000e0: d385 113f 6a42 1b3f 7e7d 123f a153 183f
000000f0: 1c74 123f 418e 0e3f 1fa9 0f3f f3f6 123f
00000100: 10ee 143f 78c3 153f 0b62 243f 8c05 143f
00000110: 0386 1e3f beca 0f3f e054 0b3f 6930 173f
00000120: a458 163f 8b42 183f a21e 1b3f 1f3b 1a3f
00000130: da80 113f a20c 113f d62a 1d3f 8f90 193f
00000140: d694 1e3f fc70 173f a24d 113f 5759 1b3f
00000150: 8d8e 0b3f ce60 063f cac8 133f a2be 173f
00000160: 03a0 0f3f 2887 1a3f bce1 163f 4f51 0a3f
00000170: a6d8 0f3f ac9e 123f 1828 193f 983a 113f
00000180: 0bb9 153f a523 0e3f 8014 123f de4b 273f
00000190: 658c 0f3f 56ec 143f 2e66 183f b7b2 103f
000001a0: 6e7d 183f 2f44 123f d812 1d3f 57ef 133f
000001b0: 20c8 163f 1d06 0b3f a03c 173f 358f 0c3f
000001c0: 2f96 193f 33bd 0f3f 356f 123f 696d 1b3f
000001d0: 2661 0f3f b4eb 113f 9d02 113f 91f1 1a3f
000001e0: 9891 103f b419 123f bcc3 193f 7688 0e3f
000001f0: cb17 1c3f b1d0 133f 6fae 1a3f 33f7 0e3f

lin3.parametrizations.weight.original1 f4 [128, 128]
0.021561442 -0.004031587 0.007872404 0.078718975 0.061197665 0.046461437 0.003366735 0.04614666
-0.046378948 -0.06759423 0.04105891 -0.073496535 0.013915485 0.006686314 -0.00546391 -0.045325283
-0.06362321 0.07456027 -0.037893087 -0.06264918 -0.013154314 0.0139124375 0.011336842 -0.032155115
-0.0377235 -0.009350116 0.040918693 -0.018374266 0.01890743 0.0674599 -0.027571542 -0.018288942
-0.03830101 -0.072821856 0.034332946 0.04292145 -0.012837784 -0.041555263 -0.063006476 -0.005031345
0.03872838 -0.06475416 0.013948828 -0.014977431 -0.03255718 -0.034032412 -0.08162458 0.04567758
0.07110983 -0.08898876 0.044369467 -0.041646883 0.05651904 0.07395878 -0.09495598 0.06834345
-0.048682738 0.05964025 -0.057036906 -0.095776305 0.008580495 0.0058744396 0.029074732 -0.049181182
-0.028714139 0.048355196 -0.019276608 0.00021128026 0.0144306375 0.001132682 -0.048689965 -0.04509079
0.04622596 -0.05518446 0.055481087 -0.046081606 -0.08437101 -0.04636662 -0.08661216 -0.010380905
-0.067257345 0.042891044 0.03697387 -0.017949214 -0.06442498 0.048988428 -0.0073740007 -0.00033542287
-0.088239506 -0.00037628686 -0.08620428 0.06995726 0.074513555 0.07132899 0.09152939 0.06612017
0.047035664 0.015955258 -0.02961806 0.014326328 0.03642646 -0.067338675 -0.09061635 -0.07714408
-0.09286644 0.030590167 -0.028796332 0.023093764 -0.02528766 0.03403649 0.063867934 -0.062726855
0.019752838 0.07121341 0.03170889 0.024837187 0.0651917 -0.08681574 0.012073029 -0.010742748
-0.06336414 -0.0048182528 -0.050994635 0.009171022 0.070138514 -0.08488485 -0.038828474 -0.019489754
-0.03226153 -0.06886289 0.0025688391 0.046733595 -0.05095146 -0.050041195 0.016917167 0.030228492
0.052631736 0.0016183578 -0.0037399835 -0.04073705 -0.008518968 -0.028210055 -0.0652095 -0.00019747295
0.017786536 0.07330705 0.0674062 0.021655412 0.061960924 -0.006602196 0.018401552 0.07742212
0.013277485 -0.06159207 0.03603805 -0.01996914 0.03847973 0.089074634 -0.060749944 0.0036352552
-0.032720923 0.010406654 0.0653837 0.046548642 0.04599468 -0.06587665 0.044759817 -0.07029411
-0.060024284 -0.08049257 0.04320313 0.036263328 -0.0054243407 -0.013033084 -0.024418954 0.044310797
-0.08590787 -0.004233177 -0.054979894 -0.024002517 -0.07408334 -0.05368235 0.03000442 -0.085078895
0.058709435 -0.06021774 0.0503038 -0.078279555 0.07364058 0.048013788 0.0007853706 0.08552062
0.053970825 0.06820399 0.038401403 -0.015140505 0.015587543 -0.016813759 -0.038129486 0.08557803
0.0442894 0.012142335 -0.08327457 -0.024407208 0.078623496 -0.033474218 0.049776245 0.048686706
0.039272454 -0.03229741 -0.002943175 -0.03989797 0.026712857 0.074741706 -0.018671168 -0.061194107
-0.06431539 0.069006234 0.050363194 -0.01001135 0.036898185 -0.021961035 -0.027901137 0.03002156
0.06147077 0.037808836 -0.0737099 -0.049365424 -0.0787334 0.03432151 -0.038577963 0.0034206777
0.07570308 0.007211257 -0.004663007 0.04483872 0.01800271 0.075490646 -0.025046986 0.05450153
-0.0022057893 -0.04135614 0.04784858 -0.030602971 -0.0011228193 0.018039078 -0.04538937 -0.04436622
-0.004432732 -0.08174166 -0.024090638 0.079694085 0.08668601 0.052507445 -0.06881144 -0.05863781
00000000: 9fa1 b03c 671b 84bb 41fb 003c 6a37 a13d
00000010: 67aa 7a3d 594e 3e3d 71a4 5c3b 4804 3d3d
00000020: daf7 3dbd d86e 8abd 632d 283d 5a85 96bd
00000030: c6fd 633c de18 db3b 990a b3bb 01a7 39bd
00000040: e34c 82bd 0eb3 983d c835 1bbd 374e 80bd
00000050: 3185 57bc fef0 633c 29be 393c 15b5 03bd
00000060: f583 1abd 3b31 19bc 5c9a 273d a185 96bc
00000070: c1e3 9a3c 6b28 8a3d b7dd e1bc b1d2 95bc
00000080: 85e1 1cbd a023 95bd b4a0 0c3d 67ce 2f3d
00000090: 9255 52bc da35 2abd 8a09 81bd fbdd a4bb
000000a0: a6a1 1e3d d49d 84bd a089 643c e663 75bc
000000b0: ad5a 05bd 9265 0bbd ca2a a7bd 6a18 3b3d
000000c0: 08a2 913d bd3f b6bd c2bc 353d ec95 2abd
000000d0: 8280 673d b377 973d 4878 c2bd a7f7 8b3d
000000e0: 8d67 47bd 5649 743d 889f 69bd 5e26 c4bd
000000f0: 3495 0c3c 5f7e c03b 222e ee3c 3572 49bd
00000100: ea39 ebbc 1910 463d fae9 9dbc 1d8b 5d39
00000110: 7b6e 6c3c 8076 943a 216f 47bd 1fb1 38bd
00000120: 6f57 3d3d 1a09 62bd 2340 633d 11c0 3cbd
00000130: b5ca acbd edea 3dbd b761 b1bd ac14 2abc
00000140: 38be 89bd 85ae 2f3d ea71 173d 3b0a 93bc
00000150: 3ef1 83bd 17a8 483d 9aa1 f1bb b2db afb9
00000160: eab6 b4bd 5e48 c5b9 df8b b0bd c045 8f3d
00000170: 909a 983d ef14 923d c373 bb3d 036a 873d
00000180: 78a8 403d 9ab4 823c 93a1 f2bc fab8 6a3c
00000190: e933 153d dce8 89bd 1195 b9bd b7fd 9dbd
000001a0: c330 bebd 3b98 fa3c 49e6 ebbc 222f bd3c
000001b0: 1128 cfbc d969 0b3d 31cd 823d f076 80bd
000001c0: b4d0 a13c 56d8 913d 2ee1 013d 5b77 cb3c
000001d0: 3a83 853d 73cc b1bd f4cd 453c 5a02 30bc
000001e0: 0fc5 81bd 6fe2 9dbb c0df 50bd 0e42 163c
000001f0: c8a4 8f3d 1cd8 adbd 9b0a 1fbd faa8 9fbc
00000200: ab24 04bd fd07 8dbd f859 283b ba6b 3f3d
00000210: 7ab2 50bd fff7 4cbd df95 8a3c bea1 f73c
00000220: 6094 573d 141f d43a 831a 75bb e5db 26bd
00000230: 2493 0bbc c618 e7bc 8f8c 85bd be10 4fb9
00000240: 12b5 913c 0222 963d 430c 8a3d b166 b13c
00000250: bdca 7d3d 3c57 d8bb dabe 963c 7d8f 9e3d
00000260: cf89 593c f747 7cbd a29c 133d 5296 a3bc
00000270: ec9c 1d3d c36c b63d efd4 78bd 763d 6e3b
00000280: 6006 06bd ac80 2a3c e4e7 853d caa9 3e3d
00000290: eb64 3c3d 56ea 86bd 1256 373d 5cf6 8fbd
000002a0: 06dc 75bd 4ad9 a4bd c4f5 303d db88 143d
000002b0: abbe b1bb b788 55bc 420a c8bc 3d7f 353d
000002c0: 77f0 afbd 76b6 8abb 9932 61bd eda0 c4bc
000002d0: 02b9 97bd 06e2 5bbd d4cb f53c d83d aebd
000002e0: 4e79 703d e0a6 76bd 5b0b 4e3d 0851 a0bd
000002f0: dfd0 963d 1baa 443d 54e1 4d3a 6f25 af3d
00000300: 8310 5d3d 89ae 8b3d ca4a 1d3d e10f 78bc
00000310: e562 7f3c 02bd 89bc aa2d 1cbd 8943 af3d
00000320: cd68 353d a5f0 463c dc8b aabd a0f1 c7bc
00000330: 5b05 a13d 431c 09bd 2de2 4b3d b66b 473d
00000340: 27dc 203d 4a4a 04bd 48e2 40bb 0e6c 23bd
00000350: ecd4 da3c 2e12 993d 47f4 98bc aca6 7abd
00000360: cab7 83bd 2453 8d3d a349 4e3d a506 24bc
00000370: 8d22 173d a1e7 b3bc ed90 e4bc c6ef f53c
00000380: c6c8 7b3d 70dd 1a3d 37f5 96bd 6633 4abd
00000390: fa3e a1bd b694 0c3d ed03 1ebd 732d 603b
000003a0: 370a 9b3d 684c ec3b 23cc 98bb cea8 373d
000003b0: 6b7a 933c d79a 9a3d 562f cdbc ff3c 5f3d
000003c0: 018f 10bb 0e65 29bd dffc 433d 15b3 fabc
000003d0: 902b 93ba b0c6 933c 34ea 39bd 5ab9 35bd
000003e0: 7340 91bb 2c68 a7bd bb59 c5bc a736 a33d
000003f0: 6f88 b13d 0c12 573d 03ed 8cbd 332e 70bd
