experiments/SlidingSphere2D/ModelParameters/457.pth (torch, 340863 bytes, 19 tensors)

lin0.bias f4 [128]
0	0x3e9f705a	0.31140405
1	0x3ed8e119	0.42359236
2	0xbeb7e2de	-0.35915273
3	0xbd210454	-0.03931077
4	0xbe8290e9	-0.25501183
5	0xbe144a7d	-0.1448154
6	0xbe8da43b	-0.2766436
7	0xbdece4ef	-0.11567103
8	0x3cdb4a2d	0.026768768
9	0xbdd1563a	-0.102215245
10	0xbd0935bf	-0.033498522
11	0x3cff902a	0.031196672
12	0x3e82caa4	0.25545228
13	0x3e98cfc9	0.29846027
14	0x3da87ea6	0.08227281
15	0x3e9a75d1	0.30168012
16	0x3e93c6e4	0.2886268
17	0x3f02ae93	0.5104763
18	0x3c60287f	0.01368153
19	0x3e30f7b1	0.17281987
20	0x3e0975a9	0.1342379
21	0x3e91eabe	0.28499407
22	0x3c8cdd74	0.01719544
23	0xbea39419	-0.31948927
24	0xbe8929b9	-0.26789644
25	0x3d6ac5a7	0.057317402
26	0xbef846c2	-0.48491484
27	0xbe0756f6	-0.13216767
28	0xbdabfed5	-0.08398215
29	0x3e717514	0.23579818
30	0x3e07ec7f	0.1327381
31	0x3e1d68ca	0.15372005
32	0xbed79895	-0.42108598
33	0x3e34a19d	0.17639776
34	0xbece4888	-0.40289712
35	0xbde58cd0	-0.112084985
36	0xbeed67b1	-0.46368173
37	0x3dee52c8	0.11636883
38	0xbd3a30fa	-0.045456864
39	0xbd52f992	-0.05150754
40	0xbe382912	-0.17984417
41	0x3dd5945a	0.104286864
42	0x3eb413ce	0.3517136
43	0x3ee18977	0.4405019
44	0xbe70c66c	-0.23513192
45	0x3ef5f84f	0.48041007
46	0xbd93eae8	-0.07222539
47	0x3ecbc91e	0.39801878
48	0x3e9982e2	0.29982668
49	0x3c9f408c	0.019439958
50	0xbd184e92	-0.037184305
51	0xbd808693	-0.06275668
52	0xbe9fd525	-0.31217304
53	0xbe5f397c	-0.21799272
54	0x3ddbed8c	0.10738668
55	0xbd22a6f0	-0.039709985
56	0xbe91f25e	-0.28505224
57	0xbe1d5581	-0.15364648
58	0x3eac2392	0.33620888
59	0x3e94a8f8	0.29035163
60	0xbdc15fe2	-0.09442116
61	0xbd08a95e	-0.033364646
62	0xbee828b3	-0.4534355
63	0xbeb86969	-0.36017922
64	0x3e516185	0.20447357
65	0x3e909dd4	0.28245413
66	0x3ef2fcf1	0.47458604
67	0x3e753643	0.2394648
68	0xbd6d2e34	-0.05790539
69	0xbeefe2e3	-0.46852788
70	0xbd921f5e	-0.07134889
71	0x3e0682e3	0.13135867
72	0x3e52bcb3	0.20579796
73	0xbdb4e1c7	-0.08832126
74	0x3e2ce52c	0.16884297
75	0xbde311bb	-0.11087366
76	0x3ef116e4	0.47087777
77	0xbe62153b	-0.22078411
78	0xbe8c9ae0	-0.2746191
79	0x3e0bd986	0.13657197
80	0x3e6e7e40	0.23290348
81	0x3ebab54e	0.3646645
82	0x3ea351b9	0.31898287
83	0xbee66d52	-0.4500528
84	0x3e95cd76	0.29258317
85	0xbe5697fd	-0.20956416
86	0x3eb1d86d	0.34735432
87	0x3dbfcfe8	0.09365827
88	0xbe372079	-0.17883481
89	0x3e27a58f	0.1637175
90	0xbc5dfa7e	-0.0135484915
91	0x3eb9a272	0.36256748
92	0x3e49003b	0.19628994
93	0xbd8aa372	-0.06769456
94	0x3ed20c3f	0.41024968
95	0x3e24df1e	0.16100737
96	0x3d93ab3d	0.072103955
97	0xbea277c1	-0.3173199
98	0xbe94b78e	-0.2904629
99	0xbe774c29	-0.24150147
100	0x3e3d32f9	0.18476476
101	0x3e8d7733	0.27630004
102	0xbeb698fc	-0.35663593
103	0xbd9e6864	-0.07734755
104	0x3c88e6d8	0.016711637
105	0xbef8c81a	-0.48590165
106	0xbe8caba0	-0.2747469
107	0xbdda49b4	-0.10658589
108	0xbed249c0	-0.41071892
109	0xbca8e240	-0.020615697
110	0xbd293fb0	-0.041320503
111	0x3e96cab1	0.29451516
112	0xbe85000b	-0.25976595
113	0x3e82518f	0.2545285
114	0x3ef4f87e	0.47845834
115	0x3ce134c5	0.027490983
116	0xbe96f37a	-0.29482633
117	0xbec454a0	-0.38345814
118	0xbe9587da	-0.2920521
119	0xbee3dfe0	-0.4450674
120	0x3ea7316f	0.32654902
121	0x3e9b3ad5	0.30318323
122	0xbe04f538	-0.12984169
123	0xbe286e40	-0.16448307
124	0xbd8660d9	-0.06561441
125	0x3eb36818	0.35040355
126	0x3ebcc99b	0.36872563
127	0xbe66fbfb	-0.2255706

lin0.parametrizations.weight.original0 f4 [128, 1]
0	0x3f37360e	0.71566856
1	0x3f2e9400	0.6819458
2	0x3ee00f9a	0.43761903
3	0x3f47607d	0.77881604
4	0x3f1d98a6	0.6156105
5	0x3f520ded	0.820525
6	0x3f2e216c	0.6801975
7	0x3f247919	0.6424728
8	0x3f1636ae	0.58677185
9	0x3f2f354a	0.6844069
10	0x3f243e3e	0.64157474
11	0x3edfcaa0	0.43709278
12	0x3f0c468e	0.5479516
13	0x3f3419c5	0.7035182
14	0x3f47ea70	0.780921
15	0x3f15ed6f	0.5856542
16	0x3f472bb8	0.77801085
17	0x3f072435	0.5278962
18	0x3f0fb7bc	0.5613973
19	0x3f21cead	0.6320599
20	0x3f03f1bc	0.5154073
21	0x3f2d10fa	0.6760403
22	0x3ec0a0ee	0.3762278
23	0x3f0b915e	0.5451869
24	0x3f378d89	0.7170034
25	0x3f0e654a	0.55623305
26	0x3ed4841a	0.41507035
27	0x3f2de1c8	0.6792264
28	0x3f2260d8	0.6342902
29	0x3f29043f	0.66022104
30	0x3f0bb79e	0.5457705
31	0x3ede70ce	0.43445438
32	0x3f180b4f	0.59392256
33	0x3f015eb2	0.5053512
34	0x3f1dba9f	0.61612886
35	0x3f112143	0.5669138
36	0x3f2f6fdc	0.6853006
37	0x3efe52f3	0.4967266
38	0x3ecc29f5	0.3987576
39	0x3f25f51b	0.64827126
40	0x3ef20f18	0.4727714
41	0x3ed5b835	0.417421
42	0x3f19f744	0.6014292
43	0x3f0073ba	0.50176585
44	0x3f1026fd	0.5630949
45	0x3ed1aebf	0.40953633
46	0x3f2964f8	0.6616969
47	0x3f448e34	0.76779485
48	0x3f2801a9	0.65627533
49	0x3ede2301	0.4338608
50	0x3f1a6acd	0.60319215
51	0x3f39b881	0.72547156
52	0x3f1f1ea7	0.62156147
53	0x3f0b74d1	0.5447512
54	0x3f20632f	0.6265134
55	0x3f42f277	0.7615122
56	0x3f1bf680	0.60923004
57	0x3f422e1b	0.758516
58	0x3f2bb543	0.6707346
59	0x3f0c8f76	0.54906404
60	0x3f1e66db	0.61875695
61	0x3f13198f	0.57460874
62	0x3effe3a1	0.49978355
63	0x3eef3e0e	0.4672703
64	0x3f21b37d	0.631645
65	0x3ef43d86	0.4770319
66	0x3f0c311a	0.54762423
67	0x3f46da87	0.77677196
68	0x3f1e8939	0.61928135
69	0x3f015b16	0.5052961
70	0x3f20375f	0.6258449
71	0x3f1ea451	0.61969477
72	0x3ec73259	0.389056
73	0x3efb9acd	0.4914154
74	0x3f4db05a	0.80347216
75	0x3f1f12b1	0.62137896
76	0x3f1f0df8	0.6213069
77	0x3f3da3e0	0.7407818
78	0x3f1a3913	0.6024334
79	0x3f1d74fa	0.6150662
80	0x3f5286a1	0.8223668
81	0x3f0057bd	0.5013388
82	0x3f257b8d	0.6464165
83	0x3eb384ca	0.35062248
84	0x3f2ef213	0.68338126
85	0x3f0032c3	0.50077456
86	0x3eea5d42	0.45774275
87	0x3f3d268d	0.7388695
88	0x3eda92c9	0.42690113
89	0x3f342b14	0.7037823
90	0x3f24d598	0.6438842
91	0x3f232472	0.63727486
92	0x3efacd24	0.48984635
93	0x3f0fb223	0.5613119
94	0x3f10ba19	0.5653396
95	0x3e91185e	0.28338903
96	0x3eeb5798	0.45965266
97	0x3f0eb83f	0.5574989
98	0x3f151bc3	0.58245486
99	0x3f1ee493	0.62067527
100	0x3eee6e46	0.46568507
101	0x3f23a87b	0.63928956
102	0x3f472ca2	0.7780248
103	0x3f1b6a2e	0.6070889
104	0x3e785e40	0.24254704
105	0x3f4396da	0.76402056
106	0x3ee86247	0.4538748
107	0x3f4c6f82	0.7985765
108	0x3f34db2a	0.7064692
109	0x3f40f086	0.7536701
110	0x3efbe855	0.49200693
111	0x3f125efc	0.57176185
112	0x3f3743ae	0.71587646
113	0x3f08c28e	0.53421867
114	0x3f38f208	0.7224431
115	0x3f3b8ce4	0.7326186
116	0x3f31ce25	0.69455177
117	0x3f530cb6	0.8244127
118	0x3ec92cee	0.3929209
119	0x3f1ec6b5	0.6202195
120	0x3f229b64	0.6351836
121	0x3f13422b	0.5752284
122	0x3f319fda	0.6938454
123	0x3e4ca5ab	0.19985072
124	0x3f2aad85	0.6667102
125	0x3ec8184e	0.39081043
126	0x3f2d51c0	0.67702866
127	0x3f24cb89	0.6437307

lin0.parametrizations.weight.original1 f4 [128, 4]
0	0x3e203325	0.1564451
1	0xbe8ad51d	-0.27115718
2	0x3efff7cc	0.49993742
3	0x3ec70834	0.38873446
4	0xbd955b3d	-0.07292793
5	0x3ed84cd0	0.42246103
6	0x3ebc848b	0.36819872
7	0xbeb0139a	-0.34389955
8	0x3dee3f41	0.116331585
9	0xbeae25c1	-0.3401318
10	0xbc48f884	-0.012266282
11	0x3e6a3c92	0.22874668
12	0xbeef8c98	-0.46786952
13	0x3efc0305	0.49221054
14	0x3ecc650a	0.39920837
15	0xbd9b9ddf	-0.07598471
16	0xbea269a9	-0.31721237
17	0x3e0f3765	0.13985975
18	0x3e9a7178	0.30164695
19	0xbec42145	-0.38306633
20	0x3ef98b20	0.48738956
21	0x3ea45d74	0.3210255
22	0xbee1df2a	-0.44115573
23	0x3eb2ef07	0.34947988
24	0xbeaf5072	-0.34241062
25	0x3edff478	0.43741202
26	0xbe539c0d	-0.20664997
27	0x3e982d29	0.29721954
28	0x3ee62f36	0.44957894
29	0x3eb89699	0.36052397
30	0xbe372018	-0.17883337
31	0x3e3fd54e	0.18733713
32	0xbebf6e10	-0.3738866
33	0xbda145b0	-0.0787462
34	0xbed72d03	-0.4202653
35	0x3d6b9325	0.057513375
36	0xbe6638e8	-0.22482646
37	0x3ef1a9af	0.4719977
38	0x3ee284f0	0.44242048
39	0x3d159aff	0.03652477
40	0xbeb3958d	-0.35075036
41	0x3dde912b	0.10867532
42	0x3edc0846	0.42975062
43	0xbea80d3c	-0.32822597
44	0xbe4cf697	-0.20015942
45	0x3e007e09	0.12548079
46	0x3ead1d27	0.33811304
47	0x3dd76449	0.10517175
48	0xbe8bc84a	-0.27301246
49	0xbe96c6ae	-0.29448456
50	0x3e0d95b6	0.13826641
51	0xbe9e7a9b	-0.30952916
52	0xbedb1507	-0.4278948
53	0xbe8d87e2	-0.27642733
54	0x3ebbad3b	0.36655602
55	0x3e961ab5	0.2931725
56	0x3d267bae	0.040645294
57	0x3ee60d0d	0.44931832
58	0x3eed50fa	0.46350843
59	0x3ed3e86d	0.41388264
60	0x3eee2aad	0.46516934
61	0xbe6ed2b7	-0.23322569
62	0xbe837364	-0.25673974
63	0xbd5660cb	-0.052338403
64	0x3ea00b09	0.3125842
65	0x3eda3700	0.42620087
66	0x3ef67d5a	0.4814251
67	0x3e8ad6a3	0.2711688
68	0xbe82db6b	-0.25558028
69	0xbcfae194	-0.030625142
70	0xbdd14780	-0.10218716
71	0x3eddf98b	0.4335445
72	0x3ea9fa22	0.3319865
73	0xbe897de0	-0.26853848
74	0x3e8a2fb0	0.26989508
75	0x3e668251	0.2251065
76	0xbdbc46a4	-0.09193161
77	0xbeaaed83	-0.33384332
78	0x3ee23827	0.44183466
79	0xbe8ab8cb	-0.2709411
80	0x3e8ca02f	0.2746596
81	0xbe675d02	-0.22594073
82	0xbe46fe4c	-0.19432944
83	0x3ea8ae0c	0.32945287
84	0x3e97afda	0.29626352
85	0xbec3e011	-0.38256887
86	0x3dbe3c54	0.092888504
87	0x3eeb5803	0.45965585
88	0xbda45d7d	-0.08025644
89	0xbc9f3f46	-0.01943935
90	0x3e4912e2	0.1963611
91	0x3e9502f9	0.2910383
92	0x3e5d16f5	0.21590789
93	0xbe909382	-0.2823754
94	0x3eb545df	0.3540487
95	0xbe71bb1e	-0.23606536
96	0xbef2e09d	-0.4743699
97	0xbedf6ee0	-0.43639278
98	0xbe8a78eb	-0.27045378
99	0x3e01d95d	0.12680574
100	0x3ebbcd26	0.36679953
101	0x3da76d00	0.08175087
102	0xbe9de070	-0.30835295
103	0x3e79860d	0.24367543
104	0xbdb8fc15	-0.09032456
105	0x3ead700e	0.33874553
106	0xbd480036	-0.048828326
107	0x3e4165a7	0.18886434
108	0xbec05f0a	-0.3757251
109	0x3eec5378	0.46157432
110	0x3e91bc93	0.28464183
111	0x3e32327d	0.17402072
112	0x3ec7eda1	0.39048484
113	0x3e87bfc4	0.26513493
114	0x3e9b93f0	0.30386305
115	0x3e968646	0.29399318
116	0xbe27a4da	-0.1637148
117	0x3dab35bc	0.083598584
118	0x3eca249a	0.3948105
119	0xbef80e55	-0.48448434
120	0xbe75fc77	-0.24022089
121	0xbe8e0722	-0.27739817
122	0xbe61564f	-0.2200558
123	0x3ea1ae3e	0.3157825
124	0xbe04e3ce	-0.12977526
125	0xbe2bf1a8	-0.16791403
126	0xbeb45c3b	-0.35226616
127	0x3e3b270b	0.18276612
128	0xbeb5ce2a	-0.35508853
129	0x3e858e81	0.26085284
130	0xbe96fd09	-0.29489926
131	0x3e7c2245	0.24622448
132	0xbea61afb	-0.3244246
133	0x3e0f162d	0.13973303
134	0xbb1aa91f	-0.002359934
135	0xbeb15e12	-0.34642082
136	0x3e81f542	0.2538243
137	0x3e8d032f	0.2754149
138	0x3ed96e6d	0.4246706
139	0xbe31af70	-0.1735208
140	0x3efc86de	0.49321645
141	0x3df40856	0.119156525
142	0x3e26d9ef	0.16294073
143	0x3e783a75	0.2424105
144	0xbeffe71b	-0.49981007
145	0x3ed923ea	0.42410213
146	0x3e228640	0.15871525
147	0xbd89ceb2	-0.06728877
148	0x3ee2c7fc	0.442932
149	0x3dcd29c9	0.100177355
150	0x3e037657	0.12838112
151	0xbdc3d1cc	-0.095615
152	0x3ebadf6f	0.3649859
153	0xbdd76bce	-0.10518609
154	0x3dc35a06	0.09538655
155	0x3da36272	0.07977761
156	0xbed3fd76	-0.41404313
157	0xbedebdb4	-0.43504107
158	0xbdc9a7fa	-0.09846492
159	0xbe35b4e6	-0.17744789
160	0x3df2872d	0.11842189
161	0xbe14d37e	-0.14533803
162	0x3ebc08a9	0.36725357
163	0xbe7de66b	-0.24794929
164	0xbd718e8f	-0.058973845
165	0xbe79ebd2	-0.24406365
166	0x3e95960a	0.29216033
167	0x3df7778d	0.120833494
168	0x3e3bb569	0.18330921
169	0x3e69765e	0.2279906
170	0xbea01b74	-0.31270945
171	0xbec95763	-0.39324483
172	0xbe7f7016	-0.24945101
173	0xbe56f3a8	-0.20991385
174	0xbec37c60	-0.38180828
175	0x3de4804e	0.11157285
176	0xbec9535e	-0.39321417
177	0x3e2a084d	0.16604729
178	0xbe650c25	-0.22367914
179	0xbe95d994	-0.2926756
180	0x3e840de4	0.25791848
181	0x3e7bf059	0.24603404
182	0xbe307893	-0.17233495
183	0xbc06ce1d	-0.008227852
184	0x3eebed3f	0.46079442
185	0x3ee295ad	0.4425482
186	0x3e1d60b4	0.1536892
187	0x3c34796f	0.01101528
188	0x3ef9592d	0.48700848
189	0xbec405bd	-0.38285628
190	0xbee1d753	-0.44109592
191	0xbcfccda4	-0.030859776
192	0x3ecbbe5f	0.3979368
193	0x3edfa2e5	0.43678966
194	0x3e6876f0	0.22701621
195	0x3e274a62	0.16336969
196	0xbea252f9	-0.31703928
197	0xbdd48f82	-0.103789344
198	0xbde208d6	-0.110368416
199	0xbe6c2a60	-0.2306304
200	0x3db4e0d4	0.08831945
201	0x3ea54507	0.32279226
202	0xbe19739d	-0.14985509
203	0x3ee8ea28	0.45491147
204	0x3ee00f23	0.43761548
205	0x3e512eaf	0.20427965
206	0x3ebd0928	0.36921048
207	0xbec1c3ae	-0.37844604
208	0xbe5df783	-0.2167645
209	0x3ea9f75e	0.3319654
210	0x3e0c1b21	0.13682224
211	0x3ef19097	0.47180626
212	0x3e829c99	0.255101
213	0x3eb5431b	0.3540276
214	0x3e8077f7	0.25091526
215	0xbe4dfd0c	-0.20116061
216	0xbe95eab2	-0.2928062
217	0x3e6c1fc2	0.2305899
218	0x3dfff172	0.12497224
219	0x3ef08b52	0.46981293
220	0xbef6c663	-0.48198232
221	0xbef81783	-0.48455438
222	0x3e69483e	0.22781464
223	0xbe504f98	-0.20342863
224	0xbedd8315	-0.4326407
225	0x3eb5d1ed	0.35511723
226	0x3e0c61bb	0.13709156
227	0xbe281bdb	-0.16416876
228	0xbeff4d10	-0.49863482
229	0x3edfb1c2	0.43690306
230	0xbead47c7	-0.33843824
231	0x3d547745	0.051871557
232	0xbed2346d	-0.41055623
233	0x3e74a489	0.2389089
234	0xbde4cc15	-0.11171738
235	0x3eeb36f5	0.45940366
236	0x3dba9185	0.09109787
237	0xbece0893	-0.40240917
238	0x3e687cde	0.22703883
239	0xbe89982b	-0.26873907
240	0x3edbcbff	0.42929074
241	0xbeb3baa9	-0.35103348
242	0xbe0fcf64	-0.14043957
243	0xbe64c721	-0.22341587
244	0xbed40734	-0.41411746
245	0x3d902bbd	0.070395924
246	0xbe8f4e72	-0.27989537
247	0xbe748f8e	-0.23882887
248	0xbe07f9c1	-0.13278867
249	0x3efde513	0.49588832
250	0x3d6aebf9	0.057353947
251	0x3cea218f	0.028580455
252	0x3ebe868e	0.37212032
253	0x3e6b15f1	0.22957589
254	0xbdfae8c0	-0.12251425
255	0xbd1f11bf	-0.038835283

lin1.bias f4 [124]
0	0xbc24c645	-0.010057037
1	0x3b2d5c94	0.0026452886
2	0xbca10f54	-0.01966063
3	0xbb833e33	-0.0040052175
4	0x3d28fa1c	0.041254148
5	0xbd12b2aa	-0.03581492
6	0xbcd6d575	-0.026224831
7	0x3d534a9b	0.05158482
8	0xbc8f1a92	-0.017468724
9	0xbd6e905f	-0.05824315
10	0x3d0051ee	0.031328134
11	0x3d6fb389	0.058520827
12	0xbd5e5d4f	-0.054288205
13	0x3d603d5d	0.05474602
14	0x3d00b1c9	0.03141955
15	0x3c15c3e1	0.009140939
16	0xbd17b506	-0.03703787
17	0xbc493ec2	-0.012283029
18	0xbd3fe736	-0.04685136
19	0x3d603d5e	0.054746024
20	0x3d02612f	0.031830963
21	0xbb911c2d	-0.0044284076
22	0xbd74030b	-0.059573215
23	0x3d2b4dd6	0.041822277
24	0x3d8b0431	0.06787909
25	0xbcc8f67f	-0.024531601
26	0xbd25016e	-0.040284567
27	0xba0fbe2d	-0.00054833555
28	0xbca82e59	-0.020529913
29	0x3c3fee32	0.011714505
30	0x3c2bf73b	0.010495956
31	0xbd3cd4ed	-0.0461015
32	0x3d171a95	0.036890585
33	0xbd0099a6	-0.03139653
34	0xb9c440e3	-0.00037432378
35	0xbd0586e4	-0.032599345
36	0xbd5096c2	-0.050925024
37	0xbdadf84c	-0.084946245
38	0x3ce8dfe6	0.028427076
39	0x3da0e302	0.07855798
40	0x3c8b9d58	0.0170428
41	0xbd575d8a	-0.05257944
42	0x3d924843	0.07142689
43	0xbdbe45db	-0.092906676
44	0x3a665e62	0.0008787868
45	0x3dc2ace0	0.095056295
46	0x3c2d5839	0.010580116
47	0xbd239735	-0.039939124
48	0x3c25e3fb	0.010125156
49	0xbd8355e8	-0.0641287
50	0x3d543550	0.051808655
51	0x3c88f0af	0.01671633
52	0xbdbb09c9	-0.09132726
53	0xbcebfffe	-0.02880859
54	0xbcac4a1d	-0.021031434
55	0x3c7e50d2	0.015522199
56	0xbcf81977	-0.03028558
57	0x3dc2c706	0.09510617
58	0xbd012299	-0.031527136
59	0x3dbbf964	0.09178427
60	0x3d9e1c1b	0.077202044
61	0xba333ed3	-0.00068376696
62	0xbc45ec24	-0.012080226
63	0xbbd443f9	-0.0064778295
64	0x3d967333	0.07346191
65	0xbd89455c	-0.067026824
66	0x3d582fba	0.05277989
67	0xbbace191	-0.005275913
68	0x3db82d5c	0.089930266
69	0xbd9689c7	-0.07350498
70	0x3d0eb053	0.034836125
71	0xbd96c3e0	-0.07361579
72	0xbc98dff5	-0.018661479
73	0xbc96e5d8	-0.018420145
74	0xbcec684e	-0.02885833
75	0xbd1bbfb0	-0.038024604
76	0xbdb42a53	-0.08797135
77	0xbd8ffc8d	-0.07030592
78	0x3d70b013	0.058761667
79	0x3d74c224	0.05975546
80	0x3d0a75e8	0.03380385
81	0x3d661167	0.05616894
82	0xbd972702	-0.07380487
83	0x3b3905dd	0.0028232255
84	0x3d341e26	0.043974064
85	0xbb6f7b7f	-0.0036542115
86	0xbd8f305d	-0.069916464
87	0x3d8b3982	0.06798078
88	0x3d6a0a22	0.05713857
89	0xbd92c5ee	-0.07166658
90	0x3d75bc72	0.05999417
91	0x3d19e3fc	0.03757094
92	0x3d32ad6b	0.043622416
93	0xbd153d28	-0.036435276
94	0x3c6d12fb	0.014469857
95	0x3d8e0993	0.0693542
96	0xbc1a181f	-0.009405165
97	0xbda10f8f	-0.07864296
98	0x3c9b0f44	0.018928178
99	0x3d86cff2	0.06582631
100	0xbc902dde	-0.017599996
101	0x3d06ec4a	0.032940187
102	0xbd063fe6	-0.032775782
103	0xbd98037b	-0.07422539
104	0x3c52e865	0.01287279
105	0x3d075ab8	0.0330455
106	0x3d2015fe	0.039083473
107	0x3da2cdd0	0.07949412
108	0xbdabeeaa	-0.08395131
109	0xbd1b70d9	-0.037949417
110	0xbd81d764	-0.063399106
111	0xbcc861b8	-0.024460658
112	0x3d0df5b7	0.03465816
113	0xbcab72b5	-0.02092872
114	0x3d7b8c22	0.061412938
115	0xbc5f29ad	-0.013620776
116	0xbd9e1983	-0.0771971
117	0xbd0d0aa9	-0.034433994
118	0x3adc5b44	0.0016811867
119	0xbce81910	-0.028332263
120	0xbd840768	-0.06446725
121	0xbd8d570c	-0.069013685
122	0x3ba1ff5b	0.004943771
123	0x3d4df332	0.050280757

lin1.parametrizations.weight.original0 f4 [124, 1]
0	0x3f137eb2	0.57615197
1	0x3f102723	0.5630972
2	0x3f1586f6	0.5840906
3	0x3f1c471e	0.61046016
4	0x3f0f0d69	0.5587984
5	0x3f17598d	0.5912102
6	0x3f1828db	0.5943734
7	0x3f0eb232	0.55740654
8	0x3f09fca4	0.53901124
9	0x3f15ed89	0.58565575
10	0x3f112367	0.56694645
11	0x3f18419a	0.594751
12	0x3f11fcc1	0.57026297
13	0x3f089f2e	0.5336789
14	0x3f1feba8	0.6246896
15	0x3f1ac5ec	0.60458255
16	0x3f0cd052	0.5500537
17	0x3f1ab717	0.6043562
18	0x3f13f359	0.57793194
19	0x3f165382	0.5872117
20	0x3f12369d	0.57114583
21	0x3f1cefea	0.6130358
22	0x3f1390a2	0.5764257
23	0x3f18b79c	0.59655166
24	0x3f0c950d	0.54914933
25	0x3f1de3f3	0.6167595
26	0x3f18408b	0.59473485
27	0x3f1cff3d	0.6132696
28	0x3f1413c4	0.5784266
29	0x3f100f75	0.56273586
30	0x3f1eb9b9	0.6200214
31	0x3f0d56c8	0.5521054
32	0x3f167200	0.587677
33	0x3f1a9ac4	0.60392404
34	0x3f13e4db	0.5777108
35	0x3f0dff8f	0.55468076
36	0x3f1789d4	0.59194684
37	0x3f0cfb68	0.55071115
38	0x3f16dd87	0.58931774
39	0x3f229cc1	0.6352044
40	0x3f154bfd	0.58319074
41	0x3f10241e	0.5630511
42	0x3f1dfed9	0.6171699
43	0x3f1134ea	0.56721365
44	0x3f1a365b	0.6023919
45	0x3f0e2efa	0.5554043
46	0x3f1995b2	0.5999404
47	0x3f17b6e2	0.5926343
48	0x3f15c2ed	0.5850056
49	0x3f1c081b	0.6094987
50	0x3f11f284	0.57010674
51	0x3f175e5e	0.5912837
52	0x3f006d77	0.5016703
53	0x3f18a9c6	0.59634054
54	0x3f1858dd	0.59510595
55	0x3f174e0d	0.5910347
56	0x3f1a2039	0.6020542
57	0x3f128792	0.57238114
58	0x3f1e9f9b	0.6196229
59	0x3f166702	0.5875093
60	0x3f0f7626	0.56039655
61	0x3f155abb	0.5834157
62	0x3f0fdb46	0.5619396
63	0x3f15dd7a	0.5854107
64	0x3f0b75bc	0.54476523
65	0x3f0ff102	0.56227124
66	0x3f189402	0.5960084
67	0x3f1be185	0.6089099
68	0x3f18eb52	0.5973407
69	0x3f10998c	0.56484294
70	0x3f1153eb	0.56768674
71	0x3f13c2cd	0.5771912
72	0x3f1f9dec	0.62350345
73	0x3f100d90	0.56270695
74	0x3f224172	0.6338111
75	0x3f18e736	0.597278
76	0x3f0e137b	0.55498475
77	0x3f1152ed	0.5676716
78	0x3f1979b8	0.59951353
79	0x3f1a7cd2	0.6034671
80	0x3f0b2311	0.5435038
81	0x3f0f8494	0.56061673
82	0x3f161012	0.5861827
83	0x3f12815a	0.57228625
84	0x3f1110b1	0.56666094
85	0x3f1993ef	0.59991354
86	0x3f16254e	0.5865067
87	0x3f18ee4f	0.5973863
88	0x3f1d2474	0.6138375
89	0x3f142299	0.5786529
90	0x3f15e9c9	0.5855985
91	0x3f0f4ac8	0.5597348
92	0x3f167f78	0.5878825
93	0x3f0adf1e	0.542467
94	0x3f0e618a	0.5561758
95	0x3f19cc44	0.6007731
96	0x3f153029	0.5827661
97	0x3f0cc464	0.5498717
98	0x3f0e466f	0.55576223
99	0x3f1635be	0.58675754
100	0x3f0fd0da	0.5617806
101	0x3f0e5ef8	0.5561366
102	0x3f1e1045	0.61743575
103	0x3f194b10	0.5988016
104	0x3f1adcec	0.6049335
105	0x3f0d82b8	0.55277586
106	0x3f219a9e	0.6312655
107	0x3f1d50d8	0.6145148
108	0x3f042f7f	0.51634973
109	0x3f10903d	0.5647009
110	0x3f19daee	0.60099685
111	0x3f0e2a9c	0.55533767
112	0x3f183c4b	0.59467
113	0x3f11cff9	0.56957966
114	0x3f15dc94	0.585397
115	0x3f154d94	0.583215
116	0x3f12be2d	0.57321435
117	0x3f101baa	0.5629221
118	0x3f0ee50e	0.5581826
119	0x3f15b370	0.58476925
120	0x3f1ea13f	0.6196479
121	0x3f147f99	0.580072
122	0x3f12387a	0.57117426
123	0x3f13c2cb	0.57719105

lin1.parametrizations.weight.original1 f4 [124, 128]
0	0xbd302d3b	-0.043011885
1	0xbc10af46	-0.008830851
2	0x3d92a354	0.071600586
3	0x3d78d424	0.060749188
4	0x3cdb2b2a	0.02675398
5	0xbb218b95	-0.0024649848
6	0xbc2569af	-0.010095998
7	0xbcbf574c	-0.023357056
8	0xbc97e428	-0.01854141
9	0x3d22af09	0.039717708
10	0xbd44220f	-0.047884043
11	0x3d6a6dd3	0.057233643
12	0x3d9fd9e8	0.07805234
13	0xbd369228	-0.04457298
14	0x3da8ae78	0.08236402
15	0x3d71741d	0.058948625
16	0xbc660f49	-0.01404173
17	0x3cf824c8	0.030290976
18	0xbd1b72ef	-0.037951406
19	0xbc635ecd	-0.013877583
20	0xbc56f7cb	-0.013120602
21	0x3d16159a	0.036641695
22	0x3d0efd37	0.034909453
23	0xbc154c0c	-0.009112369
24	0xbc5a94f7	-0.01334118
25	0x3daaefe1	0.083465345
26	0x3d289327	0.04115596
27	0xbda1e557	-0.07905071
28	0x3c160ea0	0.00915876
29	0xbd4d5b6f	-0.050136026
30	0x3dbe9373	0.093054675
31	0xbd3c7b3e	-0.04601597
32	0x3da54e70	0.080716014
33	0xbca6a690	-0.020343095
34	0xbd446290	-0.04794556
35	0x3d276896	0.040871225
36	0x3c7e1f60	0.01551041
37	0x3c61fdd2	0.013793426
38	0x3d93a4ea	0.07209189
39	0xbd811c27	-0.06304198
40	0xbc8caa5a	-0.017171074
41	0x3dbe3686	0.09287743
42	0xbc050bca	-0.0081204865
43	0x3c4698c4	0.012121383
44	0x3d5dd32e	0.054156475
45	0x3c274007	0.010208136
46	0xbd9626dc	-0.073316306
47	0xbc6ab846	-0.014326161
48	0x3d96be3d	0.07360504
49	0x3d609f99	0.054839704
50	0x3bf1b87a	0.0073767276
51	0xbd50224b	-0.050813954
52	0x3d897724	0.067121774
53	0xbda20531	-0.079111464
54	0x3d70a119	0.058747385
55	0x3baf1dfb	0.00534415
56	0x3cf522b9	0.029923784
57	0x3d77a61a	0.06046114
58	0xbc700149	-0.014648744
59	0xbd7c925c	-0.061663017
60	0xbd0effcc	-0.034911916
61	0xbcd26ae0	-0.025685728
62	0xbcd94cdb	-0.026525905
63	0xbc57cc86	-0.013171321
64	0xbd7ab7b2	-0.06121034
65	0x3d355a40	0.044275522
66	0x3db13353	0.086523674
67	0x3d298d79	0.041394684
68	0x3d63bf2b	0.055602234
69	0xbcb7161c	-0.02234941
70	0xbcc9db06	-0.024640571
71	0x3d4935f7	0.04912373
72	0x3d1f6ddf	0.03892314
73	0x3d8b82ef	0.06812083
74	0xbd3fe659	-0.046850536
75	0xbce764c2	-0.028246287
76	0x3cb1767f	0.021662949
77	0x3bab8130	0.005233906
78	0xbd2c771d	-0.042105783
79	0xbd874a18	-0.06605929
80	0x3d5f48b1	0.054512683
81	0x3da90770	0.08253372
82	0x3d8248ca	0.0636154
83	0xbd8df674	-0.06931773
84	0x392ea2fa	0.00016654647
85	0x3d92ea7b	0.0717363
86	0xbd60c876	-0.054878674
87	0x3da9ac9c	0.08284876
88	0x3c1f5bdd	0.009726492
89	0x3da6f4ce	0.081521615
90	0x3d581ca7	0.0527617
91	0x3d828836	0.063736364
92	0x3db484f6	0.08814423
93	0x3cbd8f4c	0.023139618
94	0xbc5561c5	-0.013023798
95	0xbd5cb256	-0.053881012
96	0x3d2b3709	0.041800532
97	0x3d7ad0ce	0.061234288
98	0xbd9606b5	-0.07325498
99	0x3dcaefb8	0.09909004
100	0xbd9f5a05	-0.07780842
101	0xbd0d26d1	-0.034460846
102	0x3d04dd23	0.032437455
103	0x3ccc646d	0.02495023
104	0x3d53c15c	0.051698074
105	0x3d881d7b	0.06646248
106	0x3d5313f8	0.051532716
107	0x3da10609	0.07862479
108	0xbd1e2204	-0.03860666
109	0x3b4b1e68	0.0030993465
110	0xbd6735a0	-0.056447625
111	0x3d989b67	0.07451516
112	0x3d35b89c	0.04436551
113	0xbc48bab9	-0.012251549
114	0x3d7cb269	0.061693583
115	0x3d0d19ee	0.034448557
116	0x3d956ae3	0.07295778
117	0xbcb5a72a	-0.022174437
118	0xbd5153ce	-0.051105313
119	0xbc5a89c4	-0.01333851
120	0x3d8dbcbf	0.06920766
121	0x3cbdb9a4	0.02315981
122	0xbcc4afec	-0.024009667
123	0x3cde9623	0.0271712
124	0xbd00823a	-0.031374194
125	0x3d62c0fe	0.055359833
126	0x3da87928	0.08226234
127	0x3c8f4461	0.01748866
128	0x3bf77081	0.0075512533
129	0xbb376a19	-0.0027986823
130	0x3c69e176	0.0142749455
131	0xbc92b3fd	-0.01790809
132	0x3cedf98d	0.02904966
133	0xbd13ff72	-0.036132284
134	0x3d854b49	0.065085
135	0x3c388716	0.011262676
136	0x3c3b7c94	0.011443276
137	0xbd9ff6c4	-0.07810739
138	0x3c1992b0	0.009373352
139	0xbcb323be	-0.02186763
140	0xbc27d7fc	-0.010244366
141	0x3ca12bd1	0.019674214
142	0x3dc351e1	0.095371015
143	0xbd29fc87	-0.041500594
144	0x3db19e5e	0.08672784
145	0x3dba64ba	0.09101243
146	0x3d0c3603	0.034231197
147	0x3dad3ce2	0.08458878
148	0xbd102f92	-0.035201617
149	0xbb8c4229	-0.004280348
150	0x3d99f09d	0.075165965
151	0x3ce2b445	0.02767385
152	0x3d88bc4d	0.066765405
153	0xbd151414	-0.0363961
154	0xbc07648a	-0.0082637165
155	0x3c5ea41f	0.013588934
156	0xbd66e3d1	-0.056369606
157	0xbd84949b	-0.06473657
158	0x3d938c1b	0.07204457
159	0xbd9d1021	-0.07669092
160	0xbcf5cec6	-0.030005824
161	0xb98247a2	-0.00024848903
162	0xbd8c0d22	-0.068384424
163	0x3d984805	0.07435612
164	0x3ca1d62c	0.019755445
165	0xbd98d476	-0.07462399
166	0xbbdc3bd3	-0.006720999
167	0xbcde85cf	-0.027163414
168	0xbd86645e	-0.06562112
169	0xbb87d3a1	-0.004145101
170	0xbd8793f5	-0.066200174
171	0x3c02de10	0.007987514
172	0x3c954b1b	0.01822429
173	0xbd541844	-0.051780954
174	0xbcde7417	-0.027154965
175	0x3c207ba8	0.009795107
176	0xbd9c0a46	-0.07619147
177	0xbdb289e1	-0.087177046
178	0xbcf08b5e	-0.02936333
179	0x3d2220b8	0.039581984
180	0x3d4c60ab	0.049896877
181	0xbd621ca0	-0.05520308
182	0xbd850d7b	-0.06496712
183	0xbd2358ec	-0.039879724
184	0xbd99d460	-0.075112104
185	0x3db521c9	0.08844335
186	0x3d1cf0dd	0.038315643
187	0xbd9ae57c	-0.07563302
188	0xbd420a69	-0.04737321
189	0xbda7f961	-0.08201862
190	0x3cafbf40	0.0214535
191	0xbd9c0814	-0.07618728
192	0x3d83f1d3	0.06442609
193	0xbd9379d0	-0.07200968
194	0x3cccf212	0.025017772
195	0x3d2a3a2d	0.041559387
196	0xbcd4df39	-0.025985347
197	0x3b940dc8	0.0045182444
198	0x3c1972d8	0.00936576
199	0xbc0ae602	-0.00847769
200	0x3d9e5087	0.07730203
201	0x3cba3beb	0.02273365
202	0xbd17f869	-0.037102137
203	0xbb137833	-0.0022502064
204	0xbd8d0edc	-0.068876
205	0xbce67c76	-0.02813552
206	0xbd0cbd45	-0.03436019
207	0x3cb15758	0.021648094
208	0x3d233a68	0.039850622
209	0xbd0c1f5a	-0.034209587
210	0x3d110092	0.035400935
211	0x3d067511	0.032826487
212	0x3daf6d4b	0.08565768
213	0x3d5226e4	0.05130662
214	0xbd9de0d5	-0.07708899
215	0x3cbda167	0.023148252
216	0x3c649997	0.013952634
217	0x3dbc339a	0.0918953
218	0x3dad1236	0.08450739
219	0x3bfc87af	0.0077066044
220	0xbce36174	-0.02775643
221	0xbcd113b6	-0.025522094
222	0x3db866e4	0.09004
223	0x3d22f589	0.03978494
224	0x3c97989b	0.018505385
225	0x3d93d223	0.07217815
226	0xb9df9195	-0.00042642342
227	0xbd06fc92	-0.032955714
228	0xbc09ef40	-0.008418858
229	0xbd104dc6	-0.03523042
230	0xbd6693da	-0.056293346
231	0xbbfd49f8	-0.007729765
232	0x3d084d88	0.033277065
233	0xbd5ab4f7	-0.053395238
234	0x3d373009	0.044723544
235	0xbd52ac9e	-0.05143415
236	0x3d0d6d1b	0.03452788
237	0x3d51d969	0.05123273
238	0x3c18039a	0.009278202
239	0xbd574395	-0.052554686
240	0xbd231edf	-0.039824363
241	0x3cf93519	0.030420827
242	0x3d648743	0.055793058
243	0x3d08a5e4	0.03336133
244	0x3d7fa067	0.06240883
245	0xbc8012e1	-0.015634002
246	0x3c803faa	0.015655357
247	0x3d4a93e7	0.049457457
248	0xbd73eeb4	-0.059553817
249	0x3cbf8049	0.0233766
250	0x3d0479f2	0.03234286
251	0x3d4f6fd3	0.050643753
252	0x3d867af9	0.06566424
253	0xbc8d5dc1	-0.01725662
254	0x3ac5f508	0.0015102932
255	0xbce0bc51	-0.027433546

lin2.bias f4 [128]
0	0x3d69645b	0.056980472
1	0xbccf22ad	-0.02528509
2	0xbc39b658	-0.011334978
3	0x3d7d9c07	0.061916377
4	0xbd22c020	-0.039734006
5	0xbd17e6d5	-0.037085373
6	0xbd0ef482	-0.03490115
7	0x3c07b72f	0.0082834205
8	0xbd61a728	-0.055091053
9	0xbd9b0457	-0.07569187
10	0x3cf46252	0.029832039
11	0xbc7261a4	-0.014793787
12	0x3ccaf6d3	0.024775898
13	0x3d823899	0.063584514
14	0x3d367a46	0.044550203
15	0x3bbfb0a2	0.0058499137
16	0x3bd22868	0.006413508
17	0xbdbe871d	-0.093031146
18	0xbd86482f	-0.06556737
19	0xbdb2ea4c	-0.08736095
20	0xbd081775	-0.033225495
21	0x3d620c1c	0.05518733
22	0x3d20d4dc	0.0392655
23	0x3db1d8e9	0.086839505
24	0xbcd23b87	-0.02566315
25	0x3d71c11a	0.059022047
26	0x3da16342	0.0788026
27	0xbc8541eb	-0.016266784
28	0xbd8288d6	-0.06373756
29	0x3db07984	0.08616927
30	0xbb2bebba	-0.0026233033
31	0xbca8cbd9	-0.020605015
32	0x3d7dd2fc	0.06196879
33	0xbcb0ea99	-0.02159624
34	0x3cb1a93b	0.02168714
35	0xbd968cd5	-0.0735108
36	0x3cf988b3	0.030460691
37	0x3d4b907f	0.04969835
38	0x3ccd5d16	0.0250688
39	0x3dc4ec24	0.09615353
40	0x3d2d9cf8	0.042386025
41	0x3d787382	0.06065703
42	0x3d3e161d	0.046407808
43	0xbd4a3a09	-0.049371753
44	0xbb2a7f7e	-0.0026015933
45	0x3d5b1ea1	0.053496007
46	0x3d901e94	0.07037082
47	0xbd6b4cb2	-0.05744619
48	0x3d55c827	0.052192833
49	0x3d7ccff7	0.06172177
50	0xbd6f9a53	-0.058496784
51	0x3c8e4191	0.017365249
52	0x3c5a030d	0.013306391
53	0x3d9bb591	0.076029904
54	0x3d1718e2	0.036888964
55	0xbbc20474	-0.005920941
56	0x3d01c76e	0.03168433
57	0x3d9c6333	0.07636108
58	0xbbe536f1	-0.006995075
59	0x3c235929	0.009969988
60	0xbcac9907	-0.021069063
61	0xbcafc5c1	-0.021456601
62	0xbc911af3	-0.017713046
63	0x3d15ceac	0.03657405
64	0xbd04e8e0	-0.03244865
65	0xbd32797e	-0.043572895
66	0x3d0becc5	0.034161348
67	0x3d1dcd51	0.038525883
68	0x3d165d3b	0.036710005
69	0xbd8c1187	-0.068392806
70	0x3db10481	0.08643437
71	0xbd298265	-0.04138412
72	0xbcd82686	-0.026385557
73	0x3bd79115	0.0065785744
74	0x3d01b10e	0.031662993
75	0xbd1e1a2f	-0.03859919
76	0x3d957524	0.072977334
77	0x3d8fe601	0.07026292
78	0x3d81dd4d	0.06341038
79	0xbd3cdeb7	-0.046110835
80	0x3d45c2cd	0.04828148
81	0x3d797f99	0.060912702
82	0xbd5bcc61	-0.053661708
83	0x3cf46604	0.029833801
84	0xbd11a4da	-0.035557605
85	0xbd82ce6b	-0.06387027
86	0xbd95c96a	-0.07313807
87	0xbd93baa5	-0.07213334
88	0xbcb3e957	-0.021961851
89	0xbc0bb329	-0.008526602
90	0x3d9beb83	0.0761328
91	0xbd45df79	-0.048308823
92	0xbd1d4e1d	-0.038404573
93	0x3d8d0cf8	0.06887239
94	0xbc86ce36	-0.01645575
95	0x3da4cd45	0.080469646
96	0xbc9abd9d	-0.018889243
97	0xbd7c4d61	-0.06159723
98	0x3d1e4f2e	0.03864973
99	0x3d72f783	0.059318077
100	0x3d85fa48	0.06541878
101	0x3d019864	0.03163947
102	0x3d95b4da	0.07309885
103	0xbdc7ca36	-0.097553656
104	0x3d94cbb9	0.072654195
105	0xbb3a2c26	-0.0028407662
106	0x3dab301b	0.08358785
107	0xbc25a633	-0.010110426
108	0xbcd82ac2	-0.026387576
109	0xbd82bdc9	-0.06383855
110	0x3d89da82	0.0673113
111	0x3c42d08e	0.011890544
112	0x3d7676e6	0.060171984
113	0xbbd0a3f5	-0.0063672015
114	0xbd4ef919	-0.050530527
115	0x3d8584e4	0.065194875
116	0x3d812eec	0.06307778
117	0xbc34c83d	-0.011034069
118	0x3d109fd7	0.035308685
119	0x3d567529	0.052357826
120	0xbcad6afc	-0.021169178
121	0x3d3a7c6c	0.045528814
122	0x3cb45364	0.02201242
123	0x3d881428	0.066444695
124	0x3dc0762f	0.09397542
125	0xbc948f60	-0.018134773
126	0xbd5e861b	-0.05432711
127	0xbc16dd57	-0.009208045

lin2.parametrizations.weight.original0 f4 [128, 1]
0	0x3f0d5314	0.5520489
1	0x3f1c502a	0.6105982
2	0x3f1f2ac0	0.62174606
3	0x3f0a7f69	0.5410066
4	0x3f23ee57	0.6403555
5	0x3f00c805	0.50305206
6	0x3f1e16f6	0.61753786
7	0x3f010a79	0.50406605
8	0x3f13cd59	0.5773521
9	0x3f138898	0.576303
10	0x3f15def8	0.5854335
11	0x3f0cdaab	0.5502116
12	0x3f153fad	0.58300287
13	0x3f10cc69	0.56561905
14	0x3f1ae2ec	0.60502505
15	0x3f121e50	0.57077503
16	0x3f0ee5b7	0.5581927
17	0x3f160b1b	0.58610696
18	0x3f1b5744	0.6068003
19	0x3f0e470d	0.55577165
20	0x3f184a7c	0.59488654
21	0x3f19d3ce	0.60088813
22	0x3f0832c7	0.5320248
23	0x3f15d51d	0.5852831
24	0x3f1409b5	0.5782731
25	0x3f1840f6	0.5947412
26	0x3f168a56	0.58804834
27	0x3f17a26f	0.5923223
28	0x3f10677b	0.564079
29	0x3f0d7bf8	0.55267286
30	0x3f07a36a	0.52983725
31	0x3f25040e	0.6445931
32	0x3f1e967b	0.61948365
33	0x3f10aea3	0.56516474
34	0x3f0f5f00	0.56004333
35	0x3f133f87	0.5751881
36	0x3f1a95a4	0.60384583
37	0x3f1445df	0.57919115
38	0x3f1212d8	0.57060003
39	0x3f0c29ad	0.5475109
40	0x3f1d0de2	0.6134931
41	0x3f1687e7	0.5880112
42	0x3f12f8b3	0.57410735
43	0x3f154e76	0.58322847
44	0x3f1b7ad2	0.60734284
45	0x3f175c7c	0.59125495
46	0x3f2101e6	0.6289352
47	0x3f1a094c	0.60170436
48	0x3f0eb588	0.55745745
49	0x3f1a3a82	0.60245526
50	0x3f1fe661	0.62460905
51	0x3f0fb35d	0.5613306
52	0x3f12bf93	0.5732357
53	0x3f12b483	0.5730669
54	0x3f18aa9b	0.59635323
55	0x3f153210	0.58279514
56	0x3f1c3c29	0.610293
57	0x3f0f87b9	0.5606647
58	0x3f0ce558	0.5503745
59	0x3f19463c	0.59872794
60	0x3f189cd4	0.596143
61	0x3f1177ba	0.56823313
62	0x3f1a0fb5	0.6018022
63	0x3f155c2c	0.5834377
64	0x3f14ca85	0.5812152
65	0x3f18d730	0.5970335
66	0x3f1f938c	0.62334514
67	0x3f1a12e7	0.6018509
68	0x3f157a53	0.58389777
69	0x3f1c7450	0.6111498
70	0x3f17f9b3	0.59365386
71	0x3f0f05db	0.5586831
72	0x3f0ea832	0.55725396
73	0x3f13e303	0.5776827
74	0x3f16c266	0.5889038
75	0x3f0836a9	0.53208405
76	0x3f154c9e	0.58320034
77	0x3f16cd36	0.5890688
78	0x3f1aa275	0.6040414
79	0x3f202908	0.6256261
80	0x3f199368	0.5999055
81	0x3f0e91a6	0.5569099
82	0x3f166084	0.5874102
83	0x3f12277d	0.57091504
84	0x3f2041b5	0.6260026
85	0x3f1d5c14	0.61468625
86	0x3f112860	0.5670223
87	0x3f167099	0.5876556
88	0x3f17abd6	0.59246576
89	0x3f1237cc	0.5711639
90	0x3f12b6ad	0.5730999
91	0x3f120fc5	0.5705531
92	0x3f10c03e	0.5654334
93	0x3f1542ec	0.5830524
94	0x3f0b3a9d	0.5438631
95	0x3f13efed	0.5778797
96	0x3f167c03	0.58782977
97	0x3f160a89	0.58609825
98	0x3f1208cf	0.5704469
99	0x3f0e6555	0.5562337
100	0x3f0a77a4	0.5408881
101	0x3f130b84	0.57439446
102	0x3f1804ff	0.59382623
103	0x3f0aeef8	0.5427089
104	0x3f1741e3	0.5908491
105	0x3f11ed81	0.5700303
106	0x3f12dab9	0.57364994
107	0x3f14f11f	0.5818042
108	0x3f177687	0.59165233
109	0x3f1fe26c	0.6245487
110	0x3f05d790	0.5228205
111	0x3f1303b5	0.5742753
112	0x3f1bb8d3	0.60828894
113	0x3f05dfd9	0.5229469
114	0x3f0dd2c5	0.55399734
115	0x3f14c881	0.58118445
116	0x3f0648f4	0.5245507
117	0x3f148876	0.5802072
118	0x3f0c8d38	0.5490298
119	0x3f0acdf2	0.542205
120	0x3f1b536a	0.60674155
121	0x3f0a1e01	0.5395203
122	0x3f14004d	0.5781296
123	0x3f163475	0.58673793
124	0x3f1d45f0	0.6143484
125	0x3f14f89b	0.5819184
126	0x3f1136bc	0.56724143
127	0x3f11e66b	0.56992215

lin2.parametrizations.weight.original1 f4 [128, 128]
0	0xbd777337	-0.06041261
1	0x3cbd6b00	0.02312231
2	0xbd1f1df0	-0.03884691
3	0x3d00e134	0.03146477
4	0xbcff8a62	-0.031193916
5	0xbdad862d	-0.084728576
6	0x3d9480b2	0.07251109
7	0xbd321e0b	-0.043485682
8	0x3d7920ba	0.060822226
9	0x3d58396d	0.05278914
10	0x3d863dbe	0.06554745
11	0xbd09ebc7	-0.03367212
12	0x3ad12d19	0.0015958875
13	0xbd2c623d	-0.042085875
14	0xbc1a3903	-0.009413007
15	0xbd98efcf	-0.07467615
16	0x3c4dda94	0.01256432
17	0xbd54073d	-0.051764715
18	0x3d593e6b	0.053038042
19	0xbd5e8ad2	-0.054331608
20	0xbd9255a4	-0.07145241
21	0xbc6324b4	-0.013863731
22	0xbd364228	-0.044496685
23	0x3d4304fd	0.04761218
24	0x3d77361a	0.06035433
25	0xbda1e662	-0.0790527
26	0xbac5d23c	-0.0015092562
27	0xbd8a051c	-0.06739256
28	0xbc6f9204	-0.014622215
29	0xbd75017c	-0.05981587
30	0xbdc653ca	-0.0968395
31	0xbd892503	-0.066965126
32	0xbcb48840	-0.022037625
33	0x3d6b86c8	0.057501584
34	0x3d8cea60	0.06880641
35	0xbd71df48	-0.05905083
36	0xbd816213	-0.06317534
37	0x3db6ea10	0.08931363
38	0xbd6d6efc	-0.05796717
39	0x3cfe061c	0.031008773
40	0x3d15a667	0.036535647
41	0xbda96a8b	-0.082722746
42	0x3d756256	0.059908234
43	0xbc3bd9e5	-0.011465524
44	0x3dab73d3	0.08371701
45	0xbc9ff49c	-0.019525819
46	0xbd0b980c	-0.03408055
47	0xbd0d5177	-0.03450152
48	0x3ce57cc0	0.028013587
49	0x3c2e9051	0.010654525
50	0x3d1a2907	0.037636783
51	0xbd8b3d6c	-0.06798825
52	0xbd0a7e76	-0.03381201
53	0xbd8f92cd	-0.07010422
54	0xbb596521	-0.003317185
55	0x3d09db4d	0.033656407
56	0xbd9abd59	-0.075556464
57	0xbda8ee56	-0.08248584
58	0x3c1b3a5c	0.009474363
59	0xbb9f3bb7	-0.0048594135
60	0xbbe07eff	-0.0068510766
61	0x3d8fee36	0.07027857
62	0x3ce511ca	0.027962584
63	0x3d80ddab	0.0629228
64	0xbdbb99af	-0.09160172
65	0xbd87b0f1	-0.06625546
66	0xbcafb029	-0.021446304
67	0xbd91a656	-0.07111804
68	0x3d36e408	0.04465106
69	0xbc972105	-0.018448362
70	0xbdbf6657	-0.09345692
71	0xbdad3413	-0.08457198
72	0xbd31d86f	-0.043419298
73	0x3cb6bd60	0.022307098
74	0xbd80c665	-0.06287841
75	0x3d1cb2ac	0.038256332
76	0x3d4a08c2	0.04932476
77	0x3d34fd41	0.044186834
78	0x3ceb2cfc	0.028707974
79	0x3d28f84e	0.041252427
80	0x3d806057	0.06268375
81	0xbc95f41e	-0.01830488
82	0xbc46a2f7	-0.012123815
83	0xbd39aa11	-0.045328204
84	0xbda43690	-0.080182195
85	0xbd727477	-0.0591931
86	0x3be0c872	0.0068598324
87	0xbae91cec	-0.0017785109
88	0x3cb4f049	0.022087233
89	0xbca34256	-0.019929092
90	0x3d8c0631	0.068371184
91	0x3c5ac760	0.013353199
92	0xbd6ad694	-0.057333544
93	0xbdc56361	-0.09638096
94	0xbcf7d132	-0.03025112
95	0xbd67fe3d	-0.056638945
96	0xbc330254	-0.010925848
97	0x3ce1c28d	0.02755859
98	0xbd32e41b	-0.04367457
99	0xbdb4103d	-0.0879216
100	0x3d820276	0.06348126
101	0x3d9dbb55	0.077017464
102	0xbd864ce8	-0.065576375
103	0xbdb4482d	-0.08802829
104	0xbd976fc0	-0.073943615
105	0x3cbbefe2	0.022941533
106	0xbc6c3a7c	-0.014418241
107	0xbd859360	-0.0652225
108	0x3caf3252	0.0213863
109	0xbb8f5a50	-0.0043747798
110	0xbce0f83e	-0.027462121
111	0x3d27c1cc	0.040956303
112	0xbcd627cd	-0.026142025
113	0x3d3db551	0.046315495
114	0x3c02fd71	0.007994995
115	0x3d030e3a	0.03199599
116	0xbd4b6fdf	-0.049667235
117	0xbd8b8d50	-0.068140626
118	0x3d697c9c	0.057003602
119	0x3c4da5b1	0.012551711
120	0xbc950e03	-0.018195158
121	0x3ccc3097	0.024925513
122	0x3c242643	0.010018888
123	0xbd8c0267	-0.06836396
124	0xbd6ac31d	-0.05731498
125	0x3d826ed2	0.063687935
126	0x3d784fe2	0.060623057
127	0x3d7fdb43	0.062464964
128	0x3c7de913	0.015497464
129	0x3db17da9	0.08666546
130	0x3d077701	0.033072475
131	0x3d99dd84	0.07512954
132	0x3daa28fa	0.08308597
133	0xbd1e0db9	-0.038587306
134	0x3d41c44d	0.047306348
135	0x3db9737d	0.09055231
136	0x3d21688c	0.039406344
137	0xbd558d8e	-0.05213695
138	0xbcd6ccd3	-0.026220715
139	0x3d48d498	0.04903087
140	0x3d556031	0.05209369
141	0xbd87d901	-0.06633187
142	0xbcc6a11c	-0.024246745
143	0xbd70458a	-0.058660068
144	0xbc1e9753	-0.009679633
145	0xbd26ace2	-0.040692218
146	0x3d46a7f8	0.04850003
147	0xbcc7ceb9	-0.024390565
148	0xbd9e9b22	-0.07744433
149	0x3cd56eb5	0.026053766
150	0xbd533fd6	-0.05157455
151	0x3d92ad5e	0.071619734
152	0xbbc63a9b	-0.006049467
153	0xbcabfb35	-0.020993808
154	0x3d2e99a1	0.04262698
155	0x3d15bf83	0.036559593
156	0x3d8784c6	0.066171214
157	0x3aacd000	0.0013184547
158	0x3d5d6269	0.05404893
159	0x3c18a6b8	0.009317093
160	0x3d66e207	0.0563679
161	0x3b8326d9	0.0040024337
162	0xbd9ad22c	-0.07559618
163	0xbd95c92f	-0.07313763
164	0xbc5e6ab7	-0.0135752475
165	0x3cf9494d	0.03043046
166	0x3c5b7703	0.013395074
167	0x3d86b8d7	0.06578224
168	0x3c87862d	0.016543472
169	0x3d2f54a8	0.042805344
170	0xbd842c28	-0.06453735
171	0x3d8e3ce8	0.06945211
172	0x3d657fc4	0.05603005
173	0x3d9d0791	0.07667459
174	0x3d80bb55	0.06285731
175	0x3d339595	0.043843824
176	0x3dbb0912	0.091325894
177	0x3d26ddd5	0.0407389
178	0x3da94439	0.082649656
179	0x3add8d95	0.0016903157
180	0xbd52303d	-0.051315535
181	0x3cdb6232	0.026780222
182	0x3ca2f035	0.01988993
183	0xbd95c518	-0.07312983
184	0x3d1a033a	0.037600733
185	0x3db591f8	0.08865732
186	0xbd418efd	-0.047255505
187	0x3bd19532	0.0063959593
188	0xbd93df02	-0.0722027
189	0x3db994d4	0.0906159
190	0x3dc5be71	0.096554644
191	0x3cfe403d	0.03103649
192	0x3d87e2bd	0.06635044
193	0x3d723641	0.05913377
194	0x3d61cb22	0.055125363
195	0x3db7a7d8	0.089675605
196	0xbc98afd0	-0.018638521
197	0x3d2b1eeb	0.041777533
198	0x3d306f8e	0.043075137
199	0x3d009a16	0.031396948
200	0x3d1abc28	0.037777096
201	0xbd531a9e	-0.051539056
202	0xbd6336d9	-0.05547223
203	0xbd80ea97	-0.062947445
204	0xbd742a4d	-0.059610654
205	0xbd4d787c	-0.05016373
206	0x3d00b5c1	0.031423334
207	0xbbc97bf7	-0.006148811
208	0xbc41b0dc	-0.011821952
209	0x3d9218ad	0.07133613
210	0x3d9ab573	0.0755414
211	0xbba9019d	-0.005157663
212	0x3c8357dc	0.016033106
213	0x3d8b1eec	0.06793007
214	0xbd221b7b	-0.03957699
215	0x3a3a1299	0.0007098108
216	0xbd1c5cd9	-0.038174484
217	0x3da073e3	0.07834604
218	0x3c4739ae	0.012159748
219	0xbd168092	-0.036743708
220	0x3d941447	0.0723043
221	0xbd2efba3	-0.04272045
222	0x3d6f025a	0.058351852
223	0x3da6824e	0.081303224
224	0x3cd5f0f7	0.026115878
225	0xbd976837	-0.07392924
226	0x3db5844e	0.08863126
227	0x39ecf020	0.00045192335
228	0xbd333356	-0.04375013
229	0x3db88ff2	0.090118304
230	0xbda3f034	-0.080047995
231	0xbccf25c5	-0.025286565
232	0xbc908faa	-0.01764663
233	0xbd305714	-0.043051794
234	0x3cdfb886	0.027309667
235	0x3d6aa886	0.057289623
236	0x3dcba3e6	0.099433705
237	0xbc3c7cfd	-0.011504409
238	0x3d051cff	0.032498356
239	0x3d8ed3fc	0.069740266
240	0xbd10116a	-0.035172857
241	0xbd351c26	-0.044216298
242	0xbd520c26	-0.051281117
243	0x3c0ccf1b	0.0085943
244	0x3ca7e923	0.02049691
245	0xbd65e023	-0.056121957
246	0xbd96a601	-0.073558815
247	0x3d971807	0.0737763
248	0xbd31424c	-0.043276116
249	0xbd9ae7e6	-0.07563762
250	0x3c3e1311	0.0116012255
251	0xbd02f4ae	-0.031971626
252	0x3c84f7a4	0.016231366
253	0xbd7aa4aa	-0.061192192
254	0xbcc9f0c3	-0.024650937
255	0xbcb4cd81	-0.022070648

lin3.bias f4 [128]
0	0x3aaac992	0.0013030043
1	0xbd2cc12b	-0.042176407
2	0xbd421269	-0.04738084
3	0xbc2bd238	-0.010487132
4	0xbdbdf0f1	-0.092744716
5	0x3d384c22	0.04499448
6	0x3d00dcc7	0.03146055
7	0x3cfcba32	0.030850504
8	0xbcfa0ae7	-0.030522777
9	0x3cc89e8e	0.024489667
10	0xbdc1501a	-0.09439106
11	0x3d24f5b4	0.040273383
12	0x3c86bae3	0.016446536
13	0xba646e01	-0.00087139016
14	0x3a6c2bb4	0.0009009198
15	0xbcdc3b67	-0.026883794
16	0x3d05f912	0.032708235
17	0x3bc0f3e1	0.0058884476
18	0xbdae8e73	-0.08523264
19	0xbd3188be	-0.043343298
20	0xbd3fe516	-0.046849333
21	0xbaa273bf	-0.0012394114
22	0x3c2e65a5	0.010644351
23	0x3dc35039	0.09536786
24	0xbd03a08a	-0.032135524
25	0x3d7ac097	0.061218824
26	0x3c238da8	0.009982504
27	0xbc0216e4	-0.007940028
28	0xbd11d474	-0.035603
29	0x3db9b45c	0.09067604
30	0x3dbba6c7	0.0916267
31	0xbd0c5d28	-0.03426853
32	0xbd313ebd	-0.043272723
33	0x3d956d39	0.07296223
34	0xbd7df680	-0.06200266
35	0x3d905334	0.0704712
36	0xbd829709	-0.06376464
37	0x3ab8ebfa	0.0014108412
38	0x3d554d30	0.052075565
39	0x3c74e541	0.0149472365
40	0xbcdcc07a	-0.026947249
41	0x3cc63bb1	0.024198385
42	0xbd4197e7	-0.047264006
43	0xbd48e8e0	-0.049050212
44	0xbd449e27	-0.04800239
45	0x3da1608b	0.07879742
46	0xbb5ff7a0	-0.0034174696
47	0xbcdc3930	-0.026882738
48	0xbc9df9a3	-0.019284075
49	0xbd2ceee8	-0.042220026
50	0xbc547e9c	-0.012969639
51	0x3db006bd	0.08595035
52	0x3d89e00a	0.06732185
53	0xbcd5cacf	-0.026097683
54	0xbd3f1b28	-0.046656758
55	0x3c00c95f	0.007860511
56	0x3d3344b3	0.04376669
57	0x3cdf4f2b	0.02725943
58	0xbb28e2ea	-0.0025770017
59	0x3c41d217	0.0118298745
60	0xbdb49d21	-0.088190325
61	0xbbc193c0	-0.0059075058
62	0xbccaf5b8	-0.024775371
63	0x3c5b3383	0.013378981
64	0xbd2ffd84	-0.04296638
65	0x3d359067	0.044327166
66	0x3b18f518	0.0023339447
67	0x3d95afcb	0.073089205
68	0x3c214f13	0.009845513
69	0xbcb7ba4a	-0.022427697
70	0x3d739a69	0.05947343
71	0xbaf6d6dd	-0.0018832345
72	0xbce371d0	-0.027764231
73	0xbc2c9402	-0.010533335
74	0xbd4cfd21	-0.05004609
75	0x3d4b7bfb	0.049678784
76	0x3d3d7078	0.046249837
77	0x3d7ba0f8	0.06143281
78	0xbc32b3dd	-0.010907141
79	0x3dcd4c6d	0.10024343
80	0xbca706fb	-0.02038907
81	0xbcaa2b9a	-0.020772744
82	0x3d94d2d9	0.072667785
83	0xbd4af35a	-0.049548484
84	0x3dbae20f	0.091251485
85	0x3dcab25d	0.09897301
86	0xbbdaabbc	-0.0066733044
87	0x3d60d004	0.05488588
88	0x3d817600	0.06321335
89	0xbdaba151	-0.08380378
90	0xbda977a0	-0.0827477
91	0xbc27fbeb	-0.010252933
92	0xbd0770c9	-0.033066545
93	0xbd676f14	-0.056502417
94	0xbbcf7cf8	-0.006332036
95	0x3d109bbf	0.03530478
96	0xbb94fe1a	-0.004546893
97	0x3c8a9e47	0.016921176
98	0xbbf22c09	-0.0073905033
99	0x3d9b932b	0.075964294
100	0xbc7245b3	-0.014787125
101	0x3d803917	0.06260889
102	0xbc041853	-0.00806244
103	0xbd24da92	-0.040247507
104	0x3db43972	0.08800019
105	0xbbda2a56	-0.006657879
106	0x3d5bcd0c	0.053662345
107	0xbd6d9989	-0.05800775
108	0x3d98fbed	0.07469926
109	0xbda00957	-0.078142814
110	0xbc243f1b	-0.010024811
111	0xbd4ee779	-0.05051372
112	0xbd54fb1e	-0.051997297
113	0xbd22d326	-0.039752148
114	0xbd2999f6	-0.041406594
115	0xbccb9be1	-0.024854602
116	0x3d91ebb1	0.07125033
117	0xbcc48d48	-0.02399315
118	0x3d8b8a91	0.06813539
119	0xbb74affc	-0.003733634
120	0x3bfeb9c4	0.00777361
121	0xbda8b0ef	-0.082368724
122	0x3da4827c	0.080327004
123	0xbb13abe0	-0.0022532865
124	0xbd41cedf	-0.04731643
125	0x3dbcbd19	0.09215755
126	0x3d636efd	0.05552577
127	0xbd84f345	-0.064917125

lin3.parametrizations.weight.original0 f4 [128, 1]
0	0x3f0e9394	0.55693936
1	0x3f111023	0.5666525
2	0x3f13ca3b	0.57730454
3	0x3f12d1a4	0.57351136
4	0x3f12966e	0.5726079
5	0x3f154982	0.5831529
6	0x3f104b24	0.56364655
7	0x3f0f2a14	0.5592358
8	0x3f05e5d1	0.52303797
9	0x3f19ecec	0.6012714
10	0x3f0d1484	0.5510943
11	0x3f1cd413	0.612611
12	0x3f0e4dcb	0.5558745
13	0x3f02947f	0.5100784
14	0x3f16da92	0.5892726
15	0x3f11eef3	0.5700523
16	0x3f158cd2	0.58418
17	0x3f1590c6	0.5842403
18	0x3f1ae8a9	0.6051126
19	0x3f1502f2	0.5820762
20	0x3f129e3c	0.57272696
21	0x3f0e6b89	0.55632836
22	0x3f0a8e94	0.54123807
23	0x3f0eec4b	0.55829304
24	0x3f198215	0.59964114
25	0x3f2090de	0.6272105
26	0x3f145269	0.5793825
27	0x3f1c3de1	0.6103192
28	0x3f19a4ee	0.6001729
29	0x3f1dcfa8	0.61644983
30	0x3f174daf	0.5910291
31	0x3f137356	0.57597864
32	0x3f11bf04	0.5693209
33	0x3f1391c3	0.5764429
34	0x3f0d0899	0.55091244
35	0x3f0ec9d3	0.5577671
36	0x3f1b7cc7	0.6073727
37	0x3f1ec3e7	0.62017673
38	0x3f128da7	0.57247394
39	0x3f193462	0.59845555
40	0x3f18c2c0	0.59672165
41	0x3f170ebe	0.5900687
42	0x3f103e2e	0.5634488
43	0x3f248ca9	0.6427713
44	0x3f1317f9	0.57458454
45	0x3f12a854	0.572881
46	0x3f0dc184	0.55373406
47	0x3f1196be	0.5687064
48	0x3f0c84b8	0.5489001
49	0x3f128244	0.5723002
50	0x3f17ce40	0.5929909
51	0x3f1e9269	0.61942154
52	0x3f10db2b	0.56584424
53	0x3f17057f	0.5899276
54	0x3f0d76c4	0.55259347
55	0x3f2168fd	0.63050824
56	0x3f1185d3	0.56844825
57	0x3f1b426a	0.60648215
58	0x3f127d7e	0.57222736
59	0x3f1853a1	0.5950261
60	0x3f12741c	0.5720842
61	0x3f0e8e41	0.5568581
62	0x3f0fa91f	0.56117433
63	0x3f12f6f4	0.5740807
64	0x3f14ee11	0.5817576
65	0x3f15c379	0.5850139
66	0x3f24620b	0.642121
67	0x3f14058c	0.57820964
68	0x3f1e8603	0.61923236
69	0x3f0fcabe	0.56168735
70	0x3f0b54e0	0.54426384
71	0x3f173069	0.59058243
72	0x3f1658a4	0.58729005
73	0x3f18428b	0.59476537
74	0x3f1b1ea2	0.60593617
75	0x3f1a3b1f	0.6024646
76	0x3f1180da	0.56837237
77	0x3f110ca2	0.566599
78	0x3f1d2ad6	0.6139349
79	0x3f19908f	0.59986204
80	0x3f1e94d6	0.61945856
81	0x3f1770fc	0.59156775
82	0x3f114da2	0.56759083
83	0x3f1b5957	0.60683197
84	0x3f0b8e8d	0.5451439
85	0x3f0660ce	0.5249146
86	0x3f13c8ca	0.57728255
87	0x3f17bea2	0.5927526
88	0x3f0fa003	0.56103534
89	0x3f1a8728	0.6036248
90	0x3f16e1bc	0.58938193
91	0x3f0a514f	0.5403032
92	0x3f0fd8a6	0.56189954
93	0x3f129ead	0.5727337
94	0x3f192818	0.59826803
95	0x3f113a98	0.5673003
96	0x3f15b90b	0.5848548
97	0x3f0e23a5	0.5552314
98	0x3f121480	0.5706253
99	0x3f274bde	0.6535014
100	0x3f0f8c65	0.560736
101	0x3f14ec56	0.5817312
102	0x3f18662e	0.59530914
103	0x3f10b2b7	0.565227
104	0x3f187d6e	0.5956639
105	0x3f12442f	0.5713529
106	0x3f1d12d8	0.6135688
107	0x3f13ef57	0.5778708
108	0x3f16c820	0.58899117
109	0x3f0b061d	0.54306203
110	0x3f173ca0	0.5907688
111	0x3f0c8f35	0.54906017
112	0x3f19962f	0.59994787
113	0x3f0fbd33	0.5614807
114	0x3f126f35	0.5720094
115	0x3f1b6d69	0.6071382
116	0x3f0f6126	0.5600761
117	0x3f11ebb4	0.5700028
118	0x3f11029d	0.5664461
119	0x3f1af191	0.6052485
120	0x3f109198	0.5647216
121	0x3f1219b4	0.5707047
122	0x3f19c3bc	0.6006429
123	0x3f0e8876	0.5567697
124	0x3f1c17cb	0.60973805
125	0x3f13d0b1	0.5774031
126	0x3f1aae6f	0.60422415
127	0x3f0ef733	0.55845946
