experiments/SlidingSphere2D/ModelParameters/74.pth (torch, 340709 bytes, 19 tensors)

lin0.bias f4 [128]
0	0x3e9f6f57	0.31139633
1	0x3ed8e004	0.4235841
2	0xbeb7e300	-0.35915375
3	0xbd20fbc8	-0.039302617
4	0xbe829217	-0.25502083
5	0xbe144cf0	-0.14482474
6	0xbe8da525	-0.27665058
7	0xbdece8ef	-0.11567866
8	0x3cdb3d7d	0.026762718
9	0xbdd1557b	-0.10221382
10	0xbd092c50	-0.033489525
11	0x3cff7e5b	0.03118818
12	0x3e82c99d	0.25544444
13	0x3e98ceee	0.29845375
14	0x3da87ab9	0.082265325
15	0x3e9a773d	0.30169097
16	0x3e93c5f5	0.28861967
17	0x3f02ae07	0.51046795
18	0x3c60046d	0.01367293
19	0x3e30f66a	0.172815
20	0x3e09785f	0.13424824
21	0x3e91e990	0.28498507
22	0x3c8ccd25	0.017187664
23	0xbea393ca	-0.31948692
24	0xbe892abd	-0.2679042
25	0x3d6abd4e	0.05730944
26	0xbef847f3	-0.48492393
27	0xbe07560f	-0.13216422
28	0xbdac0025	-0.08398465
29	0x3e717466	0.23579559
30	0x3e07ea20	0.13272905
31	0x3e1d6aab	0.15372722
32	0xbed7999c	-0.42109382
33	0x3e349f4f	0.17638896
34	0xbece4a04	-0.40290844
35	0xbde586b8	-0.11207336
36	0xbeed68ac	-0.4636892
37	0x3dee4e4f	0.1163603
38	0xbd3a3657	-0.04546198
39	0xbd530372	-0.051516958
40	0xbe38272d	-0.17983694
41	0x3dd5900b	0.10427865
42	0x3eb412c6	0.35170573
43	0x3ee18a7e	0.44050974
44	0xbe70c684	-0.23513228
45	0x3ef5f731	0.48040155
46	0xbd93ebb0	-0.07222688
47	0x3ecbc8b7	0.3980157
48	0x3e99838c	0.29983175
49	0x3c9f2e8b	0.019431373
50	0xbd185a25	-0.037195344
51	0xbd808bcd	-0.06276665
52	0xbe9fd49e	-0.31216902
53	0xbe5f3ac5	-0.21799763
54	0x3ddbe8df	0.10737776
55	0xbd22b1dd	-0.039720405
56	0xbe91f340	-0.28505898
57	0xbe1d5786	-0.15365419
58	0x3eac23a3	0.3362094
59	0x3e94a853	0.2903467
60	0xbdc164a8	-0.09443027
61	0xbd08b302	-0.03337384
62	0xbee8278e	-0.45342678
63	0xbeb86ae3	-0.36019048
64	0x3e515f6f	0.20446561
65	0x3e909ec8	0.2824614
66	0x3ef2fbe9	0.47457817
67	0x3e753823	0.23947196
68	0xbd6d2c1f	-0.057903405
69	0xbeefe425	-0.46853748
70	0xbd921a71	-0.071339495
71	0x3e068117	0.13135181
72	0x3e52babf	0.2057905
73	0xbdb4dc8e	-0.0883113
74	0x3e2ce819	0.16885413
75	0xbde316ec	-0.110883564
76	0x3ef115ed	0.4708704
77	0xbe6217e1	-0.22079422
78	0xbe8c9c5f	-0.27463052
79	0x3e0bdb42	0.13657859
80	0x3e6e80d6	0.23291335
81	0x3ebab671	0.36467317
82	0x3ea350ab	0.31897482
83	0xbee66dfa	-0.4500578
84	0x3e95cc50	0.2925744
85	0xbe5698ba	-0.20956698
86	0x3eb1d73e	0.3473453
87	0x3dbfcacd	0.09364853
88	0xbe3721e9	-0.1788403
89	0x3e27a3cb	0.16371076
90	0xbc5e2192	-0.0135578085
91	0x3eb9a16b	0.36255965
92	0x3e48fecb	0.19628446
93	0xbd8aa85a	-0.06770392
94	0x3ed20c15	0.41024843
95	0x3e24e169	0.16101612
96	0x3d93a618	0.07209414
97	0xbea278f2	-0.317329
98	0xbe94b64d	-0.29045334
99	0xbe7749d9	-0.24149264
100	0x3e3d30b1	0.18475606
101	0x3e8d75d0	0.27628946
102	0xbeb69a56	-0.35664624
103	0xbd9e671f	-0.077345125
104	0x3c88d463	0.016702836
105	0xbef8c953	-0.48591098
106	0xbe8cab60	-0.274745
107	0xbdda4eee	-0.10659586
108	0xbed249a0	-0.41071796
109	0xbca8f443	-0.020624286
110	0xbd294a3d	-0.041330565
111	0x3e96cc02	0.2945252
112	0xbe850113	-0.25977382
113	0x3e825065	0.2545196
114	0x3ef4f776	0.47845048
115	0x3ce13794	0.027492322
116	0xbe96f341	-0.29482463
117	0xbec455ee	-0.3834681
118	0xbe95893f	-0.29206273
119	0xbee3e14c	-0.44507825
120	0x3ea73045	0.32654014
121	0x3e9b3a4e	0.3031792
122	0xbe04f555	-0.12984212
123	0xbe286b95	-0.1644729
124	0xbd866499	-0.06562156
125	0x3eb368b5	0.35040823
126	0x3ebcc8d3	0.36871967
127	0xbe66fe01	-0.22557832

lin0.parametrizations.weight.original0 f4 [128, 1]
0	0x3f373568	0.71565866
1	0x3f2e935b	0.68193597
2	0x3ee00f45	0.4376165
3	0x3f4760d9	0.7788215
4	0x3f1d9801	0.61560065
5	0x3f520d45	0.820515
6	0x3f2e20e3	0.6801893
7	0x3f247873	0.6424629
8	0x3f1635fb	0.5867612
9	0x3f2f35a1	0.68441206
10	0x3f243edf	0.64158434
11	0x3edfc959	0.43708304
12	0x3f0c45e0	0.5479412
13	0x3f341937	0.70350975
14	0x3f47e9cc	0.7809112
15	0x3f15ed16	0.5856489
16	0x3f472b15	0.7780011
17	0x3f072397	0.5278868
18	0x3f0fb740	0.5613899
19	0x3f21ce07	0.63205
20	0x3f03f243	0.5154154
21	0x3f2d1086	0.6760334
22	0x3ec09f94	0.37621748
23	0x3f0b915f	0.54518694
24	0x3f378cfa	0.7169949
25	0x3f0e64a9	0.55622345
26	0x3ed482e8	0.41506124
27	0x3f2de1e9	0.67922837
28	0x3f22606f	0.63428396
29	0x3f2903a2	0.6602117
30	0x3f0bb6e4	0.54575944
31	0x3ede720d	0.4344639
32	0x3f180abf	0.593914
33	0x3f015e2a	0.5053431
34	0x3f1db9e3	0.61611766
35	0x3f112205	0.56692535
36	0x3f2f6f4e	0.6852921
37	0x3efe51c9	0.49671772
38	0x3ecc296e	0.39875358
39	0x3f25f46d	0.6482609
40	0x3ef21006	0.4727785
41	0x3ed5b6e3	0.41741094
42	0x3f19f68c	0.60141826
43	0x3f007422	0.50177205
44	0x3f1026bd	0.5630911
45	0x3ed1ad7e	0.40952677
46	0x3f296495	0.661691
47	0x3f448de0	0.76778984
48	0x3f28015a	0.6562706
49	0x3ede21aa	0.4338506
50	0x3f1a6a0d	0.6031807
51	0x3f39b7cc	0.72546077
52	0x3f1f1eba	0.6215626
53	0x3f0b7474	0.5447457
54	0x3f206299	0.6265045
55	0x3f42f1c2	0.76150143
56	0x3f1bf5fc	0.6092222
57	0x3f422d87	0.7585072
58	0x3f2bb4fd	0.6707304
59	0x3f0c8ec6	0.54905355
60	0x3f1e6665	0.6187499
61	0x3f1318cf	0.5745973
62	0x3effe4cb	0.49979243
63	0x3eef3c93	0.46725902
64	0x3f21b2d5	0.631635
65	0x3ef43dfa	0.47703534
66	0x3f0c3067	0.54761356
67	0x3f46daa9	0.776774
68	0x3f1e88be	0.619274
69	0x3f015a78	0.5052867
70	0x3f20380e	0.6258553
71	0x3f1ea407	0.61969036
72	0x3ec73114	0.3890463
73	0x3efb9c27	0.49142572
74	0x3f4dafb0	0.803462
75	0x3f1f1201	0.62136847
76	0x3f1f0d7f	0.6212997
77	0x3f3da332	0.7407714
78	0x3f1a3855	0.60242206
79	0x3f1d7553	0.6150715
80	0x3f528638	0.8223605
81	0x3f00570f	0.5013284
82	0x3f257b06	0.64640844
83	0x3eb38424	0.35061753
84	0x3f2ef169	0.6833711
85	0x3f003277	0.50077003
86	0x3eea5bff	0.45773312
87	0x3f3d25df	0.7388591
88	0x3eda91f4	0.42689478
89	0x3f342a7a	0.70377314
90	0x3f24d4e9	0.64387375
91	0x3f2323f5	0.6372674
92	0x3efacbce	0.48983616
93	0x3f0fb175	0.5613015
94	0x3f10b975	0.56532985
95	0x3e911792	0.28338295
96	0x3eeb56ac	0.45964563
97	0x3f0eb79a	0.55748904
98	0x3f151c4a	0.5824629
99	0x3f1ee50d	0.62068254
100	0x3eee6ce4	0.46567452
101	0x3f23a7d5	0.63927966
102	0x3f472bed	0.778014
103	0x3f1b6a27	0.6070885
104	0x3e785b95	0.24253686
105	0x3f43963b	0.7640111
106	0x3ee86219	0.45387343
107	0x3f4c6ecd	0.7985657
108	0x3f34db4b	0.70647115
109	0x3f40efea	0.7536608
110	0x3efbe76b	0.49199995
111	0x3f125efc	0.57176185
112	0x3f374320	0.715868
113	0x3f08c1e9	0.53420883
114	0x3f38f155	0.72243243
115	0x3f3b8c78	0.73261213
116	0x3f31ce25	0.69455177
117	0x3f530c0e	0.8244027
118	0x3ec92b8a	0.3929103
119	0x3f1ec600	0.62020874
120	0x3f229afa	0.63517725
121	0x3f13421e	0.5752276
122	0x3f319fed	0.6938465
123	0x3e4ca853	0.19986086
124	0x3f2aacf3	0.6667015
125	0x3ec816fd	0.3908004
126	0x3f2d5153	0.67702216
127	0x3f24caeb	0.6437213

lin0.parametrizations.weight.original1 f4 [128, 4]
0	0x3e2035ff	0.15645598
1	0xbe8ad3ff	-0.27114865
2	0x3efff645	0.49992576
3	0x3ec709a0	0.3887453
4	0xbd955abd	-0.072926976
5	0x3ed84de1	0.42246917
6	0x3ebc85d4	0.36820853
7	0xbeb01276	-0.34389085
8	0x3dee3a64	0.11632231
9	0xbeae2712	-0.34014183
10	0xbc48cd40	-0.012255967
11	0x3e6a3b00	0.22874069
12	0xbeef8d61	-0.4678755
13	0x3efc02bf	0.49220845
14	0x3ecc6420	0.3992014
15	0xbd9b9994	-0.07597652
16	0xbea2696a	-0.3172105
17	0x3e0f3a4a	0.1398708
18	0x3e9a720f	0.30165145
19	0xbec420dc	-0.3830632
20	0x3ef98b41	0.48739055
21	0x3ea45d45	0.3210241
22	0xbee1dd8f	-0.44114348
23	0x3eb2f083	0.3494912
24	0xbeaf4ff1	-0.34240678
25	0x3edff5cc	0.43742216
26	0xbe539bab	-0.20664851
27	0x3e982ca9	0.29721573
28	0x3ee62fca	0.44958335
29	0x3eb89619	0.36052015
30	0xbe3721a6	-0.1788393
31	0x3e3fd260	0.18732595
32	0xbebf6cf2	-0.37387806
33	0xbda1439a	-0.07874222
34	0xbed72e2e	-0.4202742
35	0x3d6b9e3e	0.05752396
36	0xbe6638e2	-0.22482637
37	0x3ef1a8bd	0.4719905
38	0x3ee285f8	0.44242835
39	0x3d15a57c	0.03653477
40	0xbeb394c7	-0.35074446
41	0x3dde8b46	0.10866408
42	0x3edc087d	0.42975226
43	0xbea80ea9	-0.32823685
44	0xbe4cf688	-0.20015919
45	0x3e007fa8	0.12548697
46	0x3ead1d27	0.33811304
47	0x3dd75e19	0.105159946
48	0xbe8bc6ed	-0.27300206
49	0xbe96c7b3	-0.29449233
50	0x3e0d98a1	0.13827755
51	0xbe9e7bcd	-0.30953828
52	0xbedb1509	-0.42789486
53	0xbe8d866a	-0.27641612
54	0x3ebbae7e	0.36656564
55	0x3e961b19	0.2931755
56	0x3d26780b	0.040641826
57	0x3ee60e5f	0.4493284
58	0x3eed50a5	0.4635059
59	0x3ed3e6df	0.41387078
60	0x3eee2aae	0.46516937
61	0xbe6ed548	-0.23323548
62	0xbe8371d0	-0.2567277
63	0xbd565772	-0.052329488
64	0x3ea00c2e	0.31259292
65	0x3eda3842	0.42621046
66	0x3ef67bd1	0.4814134
67	0x3e8ad728	0.27117276
68	0xbe82da8c	-0.25557363
69	0xbcfad0b0	-0.030617088
70	0xbdd1418c	-0.1021758
71	0x3eddfaa9	0.433553
72	0x3ea9f9c1	0.3319836
73	0xbe897f50	-0.26854944
74	0x3e8a2ece	0.26988834
75	0x3e667f83	0.2250958
76	0xbdbc487d	-0.091935135
77	0xbeaaeee8	-0.33385396
78	0x3ee237e0	0.44183254
79	0xbe8ab749	-0.2709296
80	0x3e8c9f0c	0.27465093
81	0xbe675fa1	-0.22595073
82	0xbe46fe71	-0.19432999
83	0x3ea8af13	0.3294607
84	0x3e97b13f	0.29627416
85	0xbec3e011	-0.38256887
86	0x3dbe3d68	0.09289056
87	0x3eeb569f	0.45964524
88	0xbda45a86	-0.080250785
89	0xbc9f3caf	-0.019438116
90	0x3e4911fa	0.19635764
91	0x3e9503b7	0.29104397
92	0x3e5d19da	0.21591893
93	0xbe9093eb	-0.28237852
94	0x3eb544b9	0.35403994
95	0xbe71b834	-0.23605424
96	0xbef2e0cc	-0.4743713
97	0xbedf6fda	-0.43640023
98	0xbe8a775e	-0.27044195
99	0x3e01d73c	0.12679762
100	0x3ebbcd9a	0.366803
101	0x3da768bd	0.08174274
102	0xbe9de0aa	-0.30835468
103	0x3e798406	0.24366769
104	0xbdb8f753	-0.09031548
105	0x3ead7139	0.33875445
106	0xbd47f8d0	-0.04882127
107	0x3e41637f	0.18885611
108	0xbec05f78	-0.37572837
109	0x3eec540c	0.46157873
110	0x3e91bc64	0.28464043
111	0x3e322f88	0.17400944
112	0x3ec7ede7	0.39048693
113	0x3e87bfb9	0.2651346
114	0x3e9b93cb	0.30386195
115	0x3e968567	0.29398653
116	0xbe27a51a	-0.16371575
117	0x3dab3c1f	0.083610766
118	0x3eca25eb	0.39482054
119	0xbef80ccc	-0.48447263
120	0xbe75fefe	-0.24023053
121	0xbe8e0837	-0.27740642
122	0xbe61532b	-0.22004382
123	0x3ea1ad99	0.31577757
124	0xbe04e550	-0.12978101
125	0xbe2bf084	-0.16790968
126	0xbeb45b27	-0.35225794
127	0x3e3b29b7	0.18277632
128	0xbeb5cdb1	-0.35508493
129	0x3e858f1c	0.26085746
130	0xbe96fc1d	-0.29489222
131	0x3e7c2438	0.24623191
132	0xbea61b35	-0.32442632
133	0x3e0f1969	0.13974537
134	0xbb1a9150	-0.0023585148
135	0xbeb15d64	-0.34641564
136	0x3e81f3c3	0.25381288
137	0x3e8d04bd	0.27542678
138	0x3ed96fe3	0.42468175
139	0xbe31ad73	-0.17351322
140	0x3efc86df	0.49321648
141	0x3df407c1	0.119155414
142	0x3e26dc93	0.1629508
143	0x3e783790	0.24239945
144	0xbeffe66d	-0.49980488
145	0x3ed92410	0.42410326
146	0x3e2287e0	0.15872145
147	0xbd89cff8	-0.0672912
148	0x3ee2c8a5	0.44293705
149	0x3dcd24f6	0.10016815
150	0x3e03791b	0.12839167
151	0xbdc3cef2	-0.09560956
152	0x3ebade9a	0.36497957
153	0xbdd76fa3	-0.1051934
154	0x3dc354ea	0.095376804
155	0x3da35f43	0.07977154
156	0xbed3fd80	-0.41404343
157	0xbedebe5e	-0.43504614
158	0xbdc9aa96	-0.0984699
159	0xbe35b1f7	-0.1774367
160	0x3df2818e	0.11841117
161	0xbe14d304	-0.14533621
162	0x3ebc0a21	0.36726478
163	0xbe7de37a	-0.24793807
164	0xbd718424	-0.05896391
165	0xbe79ee03	-0.244072
166	0x3e95957c	0.2921561
167	0x3df77ac6	0.12083964
168	0x3e3bb45b	0.18330519
169	0x3e6977da	0.22799626
170	0xbea01c89	-0.3127177
171	0xbec956c1	-0.39324
172	0xbe7f72dd	-0.2494616
173	0xbe56f276	-0.20990929
174	0xbec37af1	-0.38179734
175	0x3de48625	0.111583985
176	0xbec9540e	-0.3932194
177	0x3e2a08a6	0.16604862
178	0xbe650b69	-0.22367634
179	0xbe95d84b	-0.2926658
180	0x3e840da3	0.25791654
181	0x3e7bf287	0.24604236
182	0xbe30767e	-0.17232701
183	0xbc06a7e4	-0.008218739
184	0x3eebed7f	0.46079633
185	0x3ee29509	0.4425433
186	0x3e1d633f	0.1536989
187	0x3c3492e4	0.01102135
188	0x3ef95861	0.4870024
189	0xbec40733	-0.38286743
190	0xbee1d705	-0.4410936
191	0xbcfcb562	-0.030848209
192	0x3ecbbd6b	0.39792952
193	0x3edfa266	0.43678588
194	0x3e6878e0	0.2270236
195	0x3e274d56	0.16338095
196	0xbea251fb	-0.3170317
197	0xbdd48c5e	-0.103783354
198	0xbde20ca8	-0.1103757
199	0xbe6c2cae	-0.23063919
200	0x3db4dd67	0.08831292
201	0x3ea54608	0.32279992
202	0xbe1970b0	-0.14984393
203	0x3ee8eaf7	0.45491764
204	0x3ee0109d	0.43762675
205	0x3e512b74	0.20426732
206	0x3ebd07bc	0.36919963
207	0xbec1c2a4	-0.37843812
208	0xbe5df54c	-0.21675605
209	0x3ea9f8a1	0.331975
210	0x3e0c1c5a	0.1368269
211	0x3ef18f33	0.47179565
212	0x3e829d4e	0.2551064
213	0x3eb54272	0.35402256
214	0x3e8078cc	0.2509216
215	0xbe4dfbc0	-0.20115566
216	0xbe95eb7a	-0.29281217
217	0x3e6c20a1	0.23059322
218	0x3dfff39e	0.12497638
219	0x3ef08a86	0.46980685
220	0xbef6c5dd	-0.48197833
221	0xbef8179b	-0.4845551
222	0x3e69475c	0.22781128
223	0xbe50515e	-0.20343539
224	0xbedd82ec	-0.43263948
225	0x3eb5d289	0.35512188
226	0x3e0c646e	0.13710186
227	0xbe2818ca	-0.16415706
228	0xbeff4c6a	-0.49862987
229	0x3edfb308	0.43691278
230	0xbead46c4	-0.33843052
231	0x3d548120	0.051880956
232	0xbed235e2	-0.41056734
233	0x3e74a2d6	0.23890242
234	0xbde4d14d	-0.111727335
235	0x3eeb3573	0.45939216
236	0x3dba96a3	0.09110763
237	0xbece08ab	-0.40240988
238	0x3e687a1e	0.22702834
239	0xbe89971b	-0.26873097
240	0x3edbcb1d	0.429284
241	0xbeb3bbcc	-0.35104215
242	0xbe0fce06	-0.14043435
243	0xbe64c55f	-0.22340916
244	0xbed40892	-0.4141279
245	0x3d903190	0.07040703
246	0xbe8f4d9e	-0.27988905
247	0xbe748cac	-0.23881787
248	0xbe07fc26	-0.13279781
249	0x3efde3e1	0.4958792
250	0x3d6ae38e	0.05734592
251	0x3cea3644	0.028590329
252	0x3ebe852d	0.3721098
253	0x3e6b183a	0.2295846
254	0xbdfaee44	-0.12252477
255	0xbd1f1a68	-0.038843542

lin1.bias f4 [124]
0	0xbc24e3c7	-0.010064072
1	0x3b2d0d57	0.0026405656
2	0xbca122d4	-0.019669928
3	0xbb8388c4	-0.0040141065
4	0x3d28f490	0.041248858
5	0xbd12bca9	-0.03582445
6	0xbcd6dff9	-0.026229845
7	0x3d5346c1	0.051581148
8	0xbc8f1102	-0.017464165
9	0xbd6e9a6e	-0.058252744
10	0x3d0059b1	0.031335536
11	0x3d6fac14	0.058513716
12	0xbd5e5f51	-0.05429012
13	0x3d6033e6	0.054736994
14	0x3d00a896	0.031410776
15	0x3c15a62d	0.009133858
16	0xbd17bc7f	-0.037045
17	0xbc496581	-0.012292267
18	0xbd3ff086	-0.04686024
19	0x3d603332	0.054736324
20	0x3d026a94	0.031839922
21	0xbb91404e	-0.0044327145
22	0xbd740c1a	-0.059581853
23	0x3d2b45fc	0.04181479
24	0x3d8b001d	0.06787131
25	0xbcc905ff	-0.024538992
26	0xbd2509f4	-0.040292695
27	0xba120ff5	-0.0005571836
28	0xbca81d4b	-0.02052178
29	0x3c3fd27e	0.0117079
30	0x3c2bd0a3	0.010486755
31	0xbd3cdca4	-0.046108857
32	0x3d171257	0.036882725
33	0xbd00a23c	-0.03140472
34	0xb9c338e8	-0.00037235697
35	0xbd058520	-0.03259766
36	0xbd509721	-0.050925378
37	0xbdadf37f	-0.08493709
38	0x3ce8de40	0.02842629
39	0x3da0de2d	0.07854877
40	0x3c8b853c	0.017031305
41	0xbd575618	-0.05257234
42	0x3d924ba0	0.071433306
43	0xbdbe412e	-0.09289776
44	0x3a63c1fd	0.00086882693
45	0x3dc2a824	0.095047265
46	0x3c2d3864	0.010572527
47	0xbd239e7d	-0.039946068
48	0x3c25bd57	0.010115943
49	0xbd8358a6	-0.06413393
50	0x3d542b61	0.05179918
51	0x3c88e41b	0.016710332
52	0xbdbb0518	-0.09131831
53	0xbcec1153	-0.028816855
54	0xbcac5f1a	-0.021041442
55	0x3c7e2709	0.015512236
56	0xbcf808e8	-0.030277684
57	0x3dc2c240	0.095097065
58	0xbd012dbe	-0.031537764
59	0x3dbbf47c	0.09177491
60	0x3d9e2045	0.07720999
61	0xba32ae23	-0.00068161095
62	0xbc461078	-0.012088887
63	0xbbd3f401	-0.0064682965
64	0x3d9674eb	0.07346519
65	0xbd894a6c	-0.06703648
66	0x3d583130	0.052781284
67	0xbbad196f	-0.005282573
68	0x3db829ef	0.08992373
69	0xbd968e78	-0.073513925
70	0x3d0ebb0c	0.03484635
71	0xbd96c9a6	-0.0736268
72	0xbc98f60f	-0.018672017
73	0xbc96f66c	-0.01842805
74	0xbcec7710	-0.028865367
75	0xbd1bca6e	-0.03803485
76	0xbdb426a2	-0.08796431
77	0xbd8ff8fa	-0.070299104
78	0x3d70a6f7	0.05875298
79	0x3d74b929	0.059746895
80	0x3d0a6cb9	0.033795092
81	0x3d66081c	0.056160077
82	0xbd97237f	-0.07379817
83	0x3b38588d	0.0028128952
84	0x3d34278b	0.043983024
85	0xbb701da9	-0.0036638773
86	0xbd8f35b2	-0.069926634
87	0x3d8b345b	0.067970954
88	0x3d6a010c	0.057129905
89	0xbd92c1dd	-0.07165883
90	0x3d75b422	0.05998624
91	0x3d19e950	0.03757602
92	0x3d32a44f	0.043613728
93	0xbd15417f	-0.036439415
94	0x3c6d3fdf	0.01448056
95	0x3d8e0548	0.06934601
96	0xbc19fc35	-0.00939851
97	0xbda10ae5	-0.07863406
98	0x3c9b1d30	0.018934816
99	0x3d86cb4f	0.06581747
100	0xbc901b6a	-0.017591197
101	0x3d06f348	0.032946855
102	0xbd064758	-0.032782882
103	0xbd980704	-0.07423213
104	0x3c52f188	0.012874968
105	0x3d076323	0.03305353
106	0x3d200e6d	0.039076257
107	0x3da2c9e9	0.079486676
108	0xbdabefec	-0.08395371
109	0xbd1b76fa	-0.03795526
110	0xbd81dc89	-0.06340892
111	0xbcc8509e	-0.024452504
112	0x3d0dec42	0.03464914
113	0xbcab862f	-0.020938007
114	0x3d7b8305	0.061404247
115	0xbc5f02b7	-0.013611487
116	0xbd9e1719	-0.07719249
117	0xbd0d151d	-0.034443963
118	0x3add0584	0.0016862606
119	0xbce823c0	-0.02833736
120	0xbd84063c	-0.064465016
121	0xbd8d564c	-0.069012254
122	0x3ba1bfca	0.004936193
123	0x3d4deb74	0.050273374

lin1.parametrizations.weight.original0 f4 [124, 1]
0	0x3f137e33	0.5761444
1	0x3f1026aa	0.56308997
2	0x3f158657	0.5840811
3	0x3f1c4681	0.6104508
4	0x3f0f0d07	0.55879253
5	0x3f1758f7	0.59120125
6	0x3f18286d	0.59436685
7	0x3f0eb208	0.55740404
8	0x3f09fcf1	0.5390158
9	0x3f15ece5	0.585646
10	0x3f1123f6	0.566955
11	0x3f184126	0.5947441
12	0x3f11fc9c	0.57026076
13	0x3f089e8a	0.5336691
14	0x3f1feb21	0.62468153
15	0x3f1ac578	0.60457563
16	0x3f0ccfcb	0.55004567
17	0x3f1ab672	0.6043464
18	0x3f13f2bf	0.57792276
19	0x3f1652d3	0.5872013
20	0x3f123741	0.5711556
21	0x3f1cef9c	0.61303115
22	0x3f13900b	0.5764167
23	0x3f18b72e	0.5965451
24	0x3f0c947f	0.5491409
25	0x3f1de36c	0.61675143
26	0x3f184000	0.59472656
27	0x3f1cfea7	0.6132607
28	0x3f141438	0.5784335
29	0x3f100f00	0.5627289
30	0x3f1eb913	0.6200115
31	0x3f0d562c	0.5520961
32	0x3f16716c	0.5876682
33	0x3f1a9a2e	0.6039151
34	0x3f13e4d0	0.57771015
35	0x3f0dff7a	0.5546795
36	0x3f1789d4	0.59194684
37	0x3f0cfbfc	0.55072
38	0x3f16dd11	0.5893107
39	0x3f229c23	0.63519496
40	0x3f154b57	0.58318084
41	0x3f10248c	0.56305766
42	0x3f1dfe6c	0.6171634
43	0x3f11357f	0.56722254
44	0x3f1a35c7	0.6023831
45	0x3f0e2e54	0.5553944
46	0x3f19953e	0.5999335
47	0x3f17b668	0.59262705
48	0x3f15c247	0.5849957
49	0x3f1c07c2	0.6094934
50	0x3f11f1e0	0.57009697
51	0x3f175dd7	0.59127563
52	0x3f006e09	0.501679
53	0x3f18a932	0.5963317
54	0x3f18582f	0.5950956
55	0x3f174d5e	0.5910243
56	0x3f1a20b4	0.6020615
57	0x3f1286ec	0.57237124
58	0x3f1e9ee6	0.6196121
59	0x3f166658	0.58749914
60	0x3f0f7689	0.56040245
61	0x3f155b0b	0.58342046
62	0x3f0fdaa9	0.56193024
63	0x3f15de19	0.5854202
64	0x3f0b75e0	0.5447674
65	0x3f0ff054	0.56226087
66	0x3f189431	0.5960112
67	0x3f1be0f5	0.6089013
68	0x3f18ead8	0.59733343
69	0x3f1098f0	0.56483364
70	0x3f115490	0.5676966
71	0x3f13c216	0.57718027
72	0x3f1f9d3d	0.623493
73	0x3f100cf3	0.5626976
74	0x3f2240eb	0.63380307
75	0x3f18e690	0.5972681
76	0x3f0e13e4	0.554991
77	0x3f11535a	0.5676781
78	0x3f197921	0.59950453
79	0x3f1a7c3e	0.6034583
80	0x3f0b227b	0.5434949
81	0x3f0f8402	0.560608
82	0x3f161075	0.5861886
83	0x3f1280a5	0.57227546
84	0x3f1110df	0.5666637
85	0x3f199360	0.599905
86	0x3f16249a	0.586496
87	0x3f18eda9	0.5973764
88	0x3f1d23de	0.61382854
89	0x3f142313	0.5786602
90	0x3f15e92f	0.58558935
91	0x3f0f4afb	0.55973786
92	0x3f167eda	0.5878731
93	0x3f0adec0	0.5424614
94	0x3f0e6239	0.55618626
95	0x3f19cbc0	0.6007652
96	0x3f153092	0.5827724
97	0x3f0cc4e8	0.54987955
98	0x3f0e46e7	0.5557694
99	0x3f16350f	0.5867471
100	0x3f0fd154	0.56178784
101	0x3f0e5f5e	0.5561427
102	0x3f1e0fb7	0.6174273
103	0x3f194aa7	0.59879535
104	0x3f1adce9	0.6049333
105	0x3f0d8332	0.55278313
106	0x3f219a1e	0.6312579
107	0x3f1d503b	0.61450547
108	0x3f042f4b	0.51634663
109	0x3f108fe5	0.56469566
110	0x3f19da5a	0.60098803
111	0x3f0e2b06	0.555344
112	0x3f183bb3	0.59466094
113	0x3f11cf54	0.5695698
114	0x3f15dbf0	0.58538723
115	0x3f154e1a	0.583223
116	0x3f12be66	0.57321775
117	0x3f101afc	0.56291175
118	0x3f0ee581	0.55818945
119	0x3f15b30f	0.58476347
120	0x3f1ea12a	0.61964667
121	0x3f147f88	0.580071
122	0x3f1237c2	0.5711633
123	0x3f13c233	0.577182

lin1.parametrizations.weight.original1 f4 [124, 128]
0	0xbd303520	-0.043019414
1	0xbc10ca2d	-0.008837265
2	0x3d92a73e	0.07160805
3	0x3d78ce3e	0.060743563
4	0x3cdb176e	0.02674457
5	0xbb222f52	-0.0024747443
6	0xbc258d29	-0.010104456
7	0xbcbf6ad9	-0.023366379
8	0xbc97f75c	-0.018550567
9	0x3d22a71b	0.039710145
10	0xbd442a0c	-0.04789166
11	0x3d6a65ab	0.057225864
12	0x3d9fd5d4	0.07804456
13	0xbd369ab2	-0.044581123
14	0x3da8a9e1	0.08235527
15	0x3d716d1b	0.05894194
16	0xbc662e02	-0.014049055
17	0x3cf81418	0.030283019
18	0xbd1b787a	-0.037956692
19	0xbc637f83	-0.013885382
20	0xbc571abe	-0.013128934
21	0x3d160d6b	0.03663389
22	0x3d0ef31c	0.034899816
23	0xbc156550	-0.009118393
24	0xbc5abd1c	-0.013350751
25	0x3daaeb24	0.08345631
26	0x3d289b26	0.041163586
27	0xbda1e917	-0.079057865
28	0x3c15eadc	0.009150233
29	0xbd4d6301	-0.050143246
30	0x3dbe8e53	0.0930449
31	0xbd3c84b7	-0.046025004
32	0x3da54c5b	0.08071204
33	0xbca6b4dd	-0.020349914
34	0xbd446bcb	-0.047954362
35	0x3d276144	0.040864244
36	0x3c7dff8e	0.0155028235
37	0x3c61eaaa	0.013788858
38	0x3d93a976	0.072100565
39	0xbd8120de	-0.06305097
40	0xbc8cbd82	-0.017180208
41	0x3dbe31fa	0.09286876
42	0xbc052a9a	-0.008127833
43	0x3c467648	0.012113161
44	0x3d5dcb0d	0.054148722
45	0x3c2723c5	0.010201399
46	0xbd962b31	-0.07332457
47	0xbc6ad987	-0.014334089
48	0x3d96baa3	0.07359817
49	0x3d6096b9	0.05483124
50	0x3bf164ea	0.007366766
51	0xbd5029d4	-0.05082114
52	0x3d89717d	0.06711099
53	0xbda209d3	-0.0791203
54	0x3d7098c5	0.058739442
55	0x3baed17e	0.005335032
56	0x3cf516b1	0.029918047
57	0x3d779f56	0.06045469
58	0xbc702312	-0.014656799
59	0xbd7c9974	-0.06166978
60	0xbd0f02fe	-0.034914963
61	0xbcd27ac5	-0.025693307
62	0xbcd95dba	-0.02653395
63	0xbc57f559	-0.013181054
64	0xbd7ac06b	-0.06121866
65	0x3d3551f1	0.0442676
66	0x3db12f09	0.08651549
67	0x3d2985dc	0.041387424
68	0x3d63b6a8	0.055594116
69	0xbcb7283a	-0.022358049
70	0xbcc9f07a	-0.024650801
71	0x3d492d91	0.04911572
72	0x3d1f6549	0.038914952
73	0x3d8b8594	0.068125874
74	0xbd3feeee	-0.04685872
75	0xbce7790b	-0.02825596
76	0x3cb1665e	0.021655258
77	0x3bab2ec0	0.005224079
78	0xbd2c8198	-0.042115778
79	0xbd874d26	-0.06606512
80	0x3d5f4141	0.05450559
81	0x3da90322	0.08252551
82	0x3d8244bb	0.063607655
83	0xbd8dfa82	-0.06932546
84	0x3927685f	0.00015965242
85	0x3d92efd9	0.071746536
86	0xbd60cf80	-0.054885387
87	0x3da9a8d5	0.08284155
88	0x3c1f3a32	0.009718465
89	0x3da6f03c	0.0815129
90	0x3d5811c6	0.052751325
91	0x3d828497	0.06372946
92	0x3db4813e	0.088137135
93	0x3cbd7bbc	0.02313029
94	0xbc5581dc	-0.013031449
95	0xbd5cba44	-0.053888574
96	0x3d2b3321	0.041796807
97	0x3d7ac551	0.06122333
98	0xbd960a63	-0.073262
99	0x3dcae9c8	0.099078715
100	0xbd9f5e01	-0.07781602
101	0xbd0d2fe8	-0.034469515
102	0x3d04d323	0.03242792
103	0x3ccc58b0	0.024944633
104	0x3d53bfa4	0.051696435
105	0x3d881c16	0.06645982
106	0x3d530ae8	0.051524073
107	0x3da10067	0.07861405
108	0xbd1e2b50	-0.038615525
109	0x3b4acefb	0.0030946124
110	0xbd673b0e	-0.056452803
111	0x3d9897a1	0.07450796
112	0x3d35ae8e	0.04435592
113	0xbc48d5e1	-0.012258024
114	0x3d7ca988	0.061685115
115	0x3d0d1367	0.03444233
116	0x3d956568	0.07294732
117	0xbcb5bb50	-0.022184044
118	0xbd515ca5	-0.051113743
119	0xbc5ab071	-0.013347731
120	0x3d8db932	0.06920089
121	0x3cbdad0d	0.023153806
122	0xbcc4c3f2	-0.024019215
123	0x3cdea4e2	0.027178232
124	0xbd008b7e	-0.03138303
125	0x3d62bb0a	0.055354156
126	0x3da87701	0.08225823
127	0x3c8f3180	0.017479658
128	0x3bf7240f	0.0075421403
129	0xbb377534	-0.0027993442
130	0x3c69ece5	0.014277671
131	0xbc92b8e1	-0.017910423
132	0x3cedf794	0.029048719
133	0xbd140944	-0.03614165
134	0x3d8546fb	0.06507679
135	0x3c385d6a	0.01125274
136	0x3c3b69f2	0.011438834
137	0xbd9ffa22	-0.07811381
138	0x3c199132	0.009372996
139	0xbcb330d7	-0.021873875
140	0xbc27ddf6	-0.010245791
141	0x3ca11e26	0.019667696
142	0x3dc34d20	0.09536195
143	0xbd2a0536	-0.041508876
144	0x3db199a4	0.08671883
145	0x3dba615c	0.09100601
146	0x3d0c2bfc	0.034221634
147	0x3dad3aaf	0.08458459
148	0xbd103a11	-0.035211626
149	0xbb8c939f	-0.0042900587
150	0x3d99eb7f	0.075156204
151	0x3ce2af69	0.027671533
152	0x3d88b8e0	0.06675887
153	0xbd151ded	-0.036405493
154	0xbc078706	-0.008271938
155	0x3c5e8bfe	0.013583181
156	0xbd66ed94	-0.056378916
157	0xbd8494fe	-0.064737305
158	0x3d938846	0.072037265
159	0xbd9d13d2	-0.07669796
160	0xbcf5e37d	-0.030015701
161	0xb981680e	-0.00024682324
162	0xbd8c112b	-0.06839212
163	0x3d984555	0.07435099
164	0x3ca1cbec	0.019750558
165	0xbd98d893	-0.07463183
166	0xbbdc8544	-0.0067297537
167	0xbcde8d3d	-0.027166957
168	0xbd866856	-0.06562869
169	0xbb881609	-0.0041530174
170	0xbd879318	-0.06619853
171	0x3c02c805	0.007982259
172	0x3c955540	0.018229127
173	0xbd541d8c	-0.05178599
174	0xbcde8666	-0.027163696
175	0x3c2059b5	0.009787013
176	0xbd9c0ec6	-0.07620005
177	0xbdb28a3f	-0.087177746
178	0xbcf0a05b	-0.029373338
179	0x3d221bf2	0.039577432
180	0x3d4c55e3	0.049886595
181	0xbd6224e0	-0.055210948
182	0xbd85115d	-0.064974524
183	0xbd235c7b	-0.039883118
184	0xbd99d5eb	-0.07511505
185	0x3db520ab	0.088441215
186	0x3d1ceae5	0.03830995
187	0xbd9ae82b	-0.07563814
188	0xbd42120d	-0.047380496
189	0xbda7f98a	-0.08201893
190	0x3cafab56	0.021444004
191	0xbd9c0be9	-0.07619459
192	0x3d83eec5	0.06442026
193	0xbd937e76	-0.07201855
194	0x3ccce7ba	0.02501284
195	0x3d2a3611	0.041555468
196	0xbcd4eae4	-0.02599091
197	0x3b93e14b	0.004512941
198	0x3c194b2c	0.009356301
199	0xbc0b0d95	-0.008487125
200	0x3d9e4bf0	0.07729328
201	0x3cba3246	0.02272905
202	0xbd1802cd	-0.037112046
203	0xbb13aa20	-0.0022531822
204	0xbd8d12fd	-0.06888387
205	0xbce68c7b	-0.028143158
206	0xbd0cc550	-0.03436786
207	0x3cb155f3	0.02164743
208	0x3d233a72	0.03985066
209	0xbd0c283e	-0.034218065
210	0x3d10fa8c	0.03539519
211	0x3d067cbb	0.032833796
212	0x3daf6b93	0.0856544
213	0x3d52230c	0.051302955
214	0xbd9de3ee	-0.0770949
215	0x3cbd980a	0.023143787
216	0x3c647092	0.0139428545
217	0x3dbc3031	0.09188879
218	0x3dad0cfe	0.08449744
219	0x3bfc6677	0.0077026444
220	0xbce367c7	-0.027759446
221	0xbcd12743	-0.025531417
222	0x3db86342	0.09003307
223	0x3d22f247	0.039781835
224	0x3c978883	0.018497711
225	0x3d93cd48	0.07216889
226	0xb9e32448	-0.00043323846
227	0xbd07070d	-0.03296571
228	0xbc09fc41	-0.008421958
229	0xbd10528c	-0.035234973
230	0xbd669d7b	-0.05630253
231	0xbbfd2d55	-0.0077263513
232	0x3d084437	0.03326818
233	0xbd5abd69	-0.05340329
234	0x3d372f60	0.044722915
235	0xbd52b506	-0.05144217
236	0x3d0d74d6	0.03453525
237	0x3d51d2f7	0.051226582
238	0x3c17e2ae	0.009270353
239	0xbd574d9b	-0.052564245
240	0xbd232615	-0.03983124
241	0x3cf9216b	0.030411443
242	0x3d648199	0.055787656
243	0x3d08a1aa	0.0333573
244	0x3d7f9594	0.06239851
245	0xbc802658	-0.015643284
246	0x3c8029d1	0.01564494
247	0x3d4a89fc	0.049448
248	0xbd73f3bb	-0.05955861
249	0x3cbf7b00	0.02337408
250	0x3d046e99	0.032332037
251	0x3d4f776c	0.050651
252	0x3d867efa	0.065671876
253	0xbc8d57de	-0.017253812
254	0x3ac5070e	0.001503201
255	0xbce0ba0e	-0.027432468

lin2.bias f4 [128]
0	0x3d696e3a	0.056989886
1	0xbccf311d	-0.025291974
2	0xbc39ce7d	-0.011340735
3	0x3d7d9dd0	0.06191808
4	0xbd22bb02	-0.039729126
5	0xbd17e075	-0.037079293
6	0xbd0efe23	-0.034910332
7	0x3c07d722	0.008291038
8	0xbd61b084	-0.05509998
9	0xbd9b0975	-0.07570163
10	0x3cf453e4	0.029825158
11	0xbc7262e0	-0.014794081
12	0x3ccae651	0.024768027
13	0x3d8233df	0.0635755
14	0x3d36709b	0.044540983
15	0x3bbfb668	0.005850602
16	0x3bd1cac2	0.0064023444
17	0xbdbe842c	-0.093025535
18	0xbd864aaa	-0.0655721
19	0xbdb2e54c	-0.08735141
20	0xbd082105	-0.033234615
21	0x3d620834	0.055183604
22	0x3d20cc30	0.03925723
23	0x3db1d401	0.08683015
24	0xbcd24d76	-0.025671702
25	0x3d71c87e	0.059029095
26	0x3da16214	0.07880035
27	0xbc854d6a	-0.016272265
28	0xbd828e2d	-0.06374774
29	0x3db074ac	0.086160034
30	0xbb2c80ba	-0.0026321844
31	0xbca8dd84	-0.02061344
32	0x3d7dc95c	0.06195961
33	0xbcb0de5a	-0.0215904
34	0x3cb19603	0.021677976
35	0xbd968b43	-0.07350781
36	0x3cf97722	0.030452315
37	0x3d4b86d2	0.04968912
38	0x3ccd49c6	0.025059592
39	0x3dc4e743	0.09614422
40	0x3d2d9313	0.04237659
41	0x3d786af4	0.060648873
42	0x3d3e1e0f	0.046415385
43	0xbd4a4294	-0.0493799
44	0xbb2b159f	-0.0026105416
45	0x3d5b1545	0.05348708
46	0x3d90198a	0.07036121
47	0xbd6b47de	-0.057441585
48	0x3d55d0de	0.052201144
49	0x3d7cc643	0.061712515
50	0xbd6fa3c9	-0.058505807
51	0x3c8e2d85	0.01735569
52	0x3c5a1d70	0.0133126825
53	0x3d9bb88c	0.07603559
54	0x3d170efa	0.036879517
55	0xbbc1d164	-0.005914854
56	0x3d01bf61	0.031676654
57	0x3d9c5e74	0.07635203
58	0xbbe4fdcb	-0.0069882623
59	0x3c2332c3	0.009960833
60	0xbcac9243	-0.021065837
61	0xbcafd8b8	-0.021465644
62	0xbc9129aa	-0.017720062
63	0x3d15c89c	0.03656827
64	0xbd04ef22	-0.032454617
65	0xbd3281c3	-0.04358078
66	0x3d0be3ec	0.03415291
67	0x3d1dc38b	0.038516562
68	0x3d165b29	0.03670803
69	0xbd8c168c	-0.06840238
70	0x3db0ffb9	0.08642525
71	0xbd298e08	-0.041395217
72	0xbcd82eea	-0.026389558
73	0x3bd7c4bf	0.0065847333
74	0x3d01b415	0.03166588
75	0xbd1e11c9	-0.03859118
76	0x3d9570e8	0.07296926
77	0x3d8fe12a	0.070253685
78	0x3d81d891	0.06340135
79	0xbd3ce830	-0.04611987
80	0x3d45b95b	0.048272472
81	0x3d7984a9	0.06091753
82	0xbd5bc875	-0.053657968
83	0x3cf46f32	0.029838178
84	0xbd11b007	-0.035568263
85	0xbd82d1bf	-0.06387662
86	0xbd95c580	-0.07313061
87	0xbd93be3e	-0.0721402
88	0xbcb3df48	-0.021957055
89	0xbc0bd7a1	-0.008535297
90	0x3d9bed44	0.07613614
91	0xbd45ea9a	-0.048319437
92	0xbd1d578c	-0.03841357
93	0x3d8d0ead	0.06887565
94	0xbc86bbd5	-0.016446987
95	0x3da4c8e2	0.08046128
96	0xbc9aac98	-0.018881127
97	0xbd7c56da	-0.061606266
98	0x3d1e4887	0.038643386
99	0x3d72ff02	0.059325226
100	0x3d85fcd7	0.06542366
101	0x3d019348	0.0316346
102	0x3d95afdd	0.07308934
103	0xbdc7c643	-0.09754612
104	0x3d94c896	0.07264821
105	0xbb39ccf1	-0.0028350914
106	0x3dab2ba3	0.083579324
107	0xbc2583e0	-0.010102242
108	0xbcd83edf	-0.026397167
109	0xbd82c272	-0.06384744
110	0x3d89dd63	0.06731679
111	0x3c42f4fe	0.011899231
112	0x3d766de7	0.060163405
113	0xbbd05608	-0.006357912
114	0xbd4f00d8	-0.050537914
115	0x3d8588b8	0.06520218
116	0x3d8132b0	0.06308496
117	0xbc34ecfe	-0.011042831
118	0x3d10a9a7	0.035318043
119	0x3d566c80	0.052349567
120	0xbcad7ecd	-0.021178627
121	0x3d3a7903	0.045525562
122	0x3cb46387	0.022020115
123	0x3d880fb7	0.06643622
124	0x3dc0714e	0.09396611
125	0xbc9485aa	-0.018130142
126	0xbd5e8020	-0.05432141
127	0xbc1703fc	-0.009217259

lin2.parametrizations.weight.original0 f4 [128, 1]
0	0x3f0d539b	0.55205697
1	0x3f1c4fac	0.6105907
2	0x3f1f2a71	0.62174135
3	0x3f0a7fe2	0.54101384
4	0x3f23eea2	0.64036
5	0x3f00c864	0.5030577
6	0x3f1e1659	0.6175285
7	0x3f010af0	0.50407314
8	0x3f13ccb5	0.57734233
9	0x3f1387ec	0.57629275
10	0x3f15de78	0.58542585
11	0x3f0cda96	0.55021036
12	0x3f153f18	0.582994
13	0x3f10cbd4	0.5656102
14	0x3f1ae24e	0.60501564
15	0x3f121e4c	0.5707748
16	0x3f0ee4ff	0.5581817
17	0x3f160b67	0.5861115
18	0x3f1b56e5	0.60679466
19	0x3f0e47a7	0.5557808
20	0x3f1849d8	0.59487677
21	0x3f19d354	0.60088086
22	0x3f083239	0.53201634
23	0x3f15d489	0.5852743
24	0x3f140917	0.5782637
25	0x3f18414c	0.59474635
26	0x3f168a8a	0.58805144
27	0x3f17a1fa	0.5923153
28	0x3f1066cb	0.5640685
29	0x3f0d7b6a	0.5526644
30	0x3f07a2c6	0.5298275
31	0x3f250386	0.644585
32	0x3f1e95fb	0.619476
33	0x3f10aef0	0.56516933
34	0x3f0f5e61	0.56003386
35	0x3f133fbd	0.5751913
36	0x3f1a9500	0.60383606
37	0x3f14453b	0.5791814
38	0x3f121244	0.5705912
39	0x3f0c2918	0.54750204
40	0x3f1d0d3e	0.6134833
41	0x3f168767	0.5880036
42	0x3f12f920	0.57411385
43	0x3f154de0	0.5832195
44	0x3f1b7a2c	0.60733294
45	0x3f175bd6	0.59124506
46	0x3f210137	0.6289248
47	0x3f1a0994	0.60170865
48	0x3f0eb60f	0.5574655
49	0x3f1a39dd	0.6024454
50	0x3f1fe5bc	0.6245992
51	0x3f0fb2b9	0.56132084
52	0x3f12bfef	0.5732412
53	0x3f12b4c9	0.57307106
54	0x3f18aa05	0.5963443
55	0x3f153269	0.58280045
56	0x3f1c3b85	0.6102832
57	0x3f0f8717	0.56065506
58	0x3f0ce5c1	0.55038077
59	0x3f19459f	0.5987186
60	0x3f189d15	0.5961469
61	0x3f117720	0.56822395
62	0x3f1a0f17	0.60179275
63	0x3f155bc4	0.5834315
64	0x3f14ca13	0.5812084
65	0x3f18d6a2	0.59702504
66	0x3f1f92e6	0.62333524
67	0x3f1a124a	0.60184157
68	0x3f1579f4	0.5838921
69	0x3f1c73b2	0.6111404
70	0x3f17f915	0.59364444
71	0x3f0f0523	0.55867213
72	0x3f0ea7d3	0.5572483
73	0x3f13e362	0.57768834
74	0x3f16c284	0.5889056
75	0x3f08372a	0.53209174
76	0x3f154beb	0.58318967
77	0x3f16cc9a	0.5890595
78	0x3f1aa1d1	0.6040316
79	0x3f202864	0.6256163
80	0x3f1992c7	0.5998959
81	0x3f0e91d4	0.55691266
82	0x3f1660bd	0.5874136
83	0x3f1227b1	0.57091814
84	0x3f204102	0.62599194
85	0x3f1d5b94	0.6146786
86	0x3f1128d4	0.56702924
87	0x3f167030	0.58764935
88	0x3f17ac1d	0.59247
89	0x3f123738	0.5711551
90	0x3f12b644	0.57309365
91	0x3f120f10	0.57054234
92	0x3f10bf99	0.56542355
93	0x3f15431b	0.5830552
94	0x3f0b3b2c	0.54387164
95	0x3f13f01b	0.57788247
96	0x3f167c8a	0.5878378
97	0x3f1609f4	0.5860894
98	0x3f120851	0.5704394
99	0x3f0e6588	0.55623674
100	0x3f0a77b9	0.5408893
101	0x3f130b00	0.5743866
102	0x3f180465	0.59381706
103	0x3f0aef72	0.54271615
104	0x3f17416c	0.590842
105	0x3f11edd3	0.57003516
106	0x3f12da23	0.573641
107	0x3f14f196	0.5818113
108	0x3f1775d9	0.59164196
109	0x3f1fe1ca	0.624539
110	0x3f05d7e6	0.5228256
111	0x3f13041e	0.5742816
112	0x3f1bb836	0.6082796
113	0x3f05e06d	0.5229557
114	0x3f0dd236	0.5539888
115	0x3f14c8e1	0.58119017
116	0x3f064941	0.52455527
117	0x3f1487e0	0.5801983
118	0x3f0c8dc5	0.54903823
119	0x3f0acd4c	0.5421951
120	0x3f1b52c1	0.6067315
121	0x3f0a1da2	0.53951466
122	0x3f1400b4	0.5781357
123	0x3f1633d4	0.58672833
124	0x3f1d4553	0.61433905
125	0x3f14f8e5	0.5819228
126	0x3f11371b	0.5672471
127	0x3f11e5c6	0.5699123

lin2.parametrizations.weight.original1 f4 [128, 128]
0	0xbd77685f	-0.06040227
1	0x3cbd7f9d	0.02313214
2	0xbd1f1323	-0.03883661
3	0x3d00eba7	0.031474736
4	0xbcff74fb	-0.03118371
5	0xbdad8180	-0.08471966
6	0x3d9485b8	0.07252067
7	0xbd321363	-0.04347552
8	0x3d79241d	0.060825456
9	0x3d5844bd	0.05279993
10	0x3d8640d8	0.06555337
11	0xbd09e1d3	-0.03366263
12	0x3ad279fc	0.0016058083
13	0xbd2c576a	-0.042075552
14	0xbc1a215e	-0.009407369
15	0xbd98eb30	-0.074667335
16	0x3c4e0274	0.012573827
17	0xbd53fece	-0.051756673
18	0x3d5947e7	0.053047087
19	0xbd5e80dd	-0.054322112
20	0xbd925210	-0.071445584
21	0xbc6308b4	-0.013857055
22	0xbd36387a	-0.044487454
23	0x3d430eff	0.047621723
24	0x3d7740c6	0.060364507
25	0xbda1e0e1	-0.0790422
26	0xbac478f8	-0.0014989665
27	0xbd8a0003	-0.067382835
28	0xbc6f6fa0	-0.014614016
29	0xbd74f651	-0.059805218
30	0xbdc64eb1	-0.09682978
31	0xbd891fc1	-0.0669551
32	0xbcb47307	-0.022027506
33	0x3d6b8e41	0.05750871
34	0x3d8ceed1	0.06881488
35	0xbd71d533	-0.059041213
36	0xbd815cd0	-0.06316531
37	0x3db6e7dd	0.08930943
38	0xbd6d65f5	-0.057958562
39	0x3cfe1c5e	0.031019386
40	0x3d15a667	0.036535647
41	0xbda965af	-0.08271348
42	0x3d7566c7	0.05991247
43	0xbc3bbea1	-0.011459024
44	0x3dab743c	0.08371779
45	0xbc9fdf3f	-0.019515632
46	0xbd0b8da3	-0.034070622
47	0xbd0d47de	-0.034492366
48	0x3ce5929c	0.02802401
49	0x3c2eb64b	0.010663579
50	0x3d1a33c5	0.037647028
51	0xbd8b386f	-0.06797873
52	0xbd0a74bc	-0.033802733
53	0xbd8f8d62	-0.070093885
54	0xbb58e71a	-0.0033096732
55	0x3d09e3b1	0.03366441
56	0xbd9ab8f2	-0.07554807
57	0xbda8e8a3	-0.08247497
58	0x3c1b67f2	0.009485232
59	0xbb9eea54	-0.0048497114
60	0xbbe0457e	-0.0068442216
61	0x3d8ff37c	0.07028863
62	0x3ce527ff	0.027973173
63	0x3d80e1e2	0.06293084
64	0xbdbb9513	-0.09159293
65	0xbd87ac80	-0.06624699
66	0xbcaf9a21	-0.0214358
67	0xbd91a129	-0.07110817
68	0x3d36ed4c	0.044659898
69	0xbc970b6e	-0.018438067
70	0xbdbf6260	-0.093449354
71	0xbdad2e87	-0.0845614
72	0xbd31cd12	-0.04340846
73	0x3cb6cfb2	0.022315834
74	0xbd80c189	-0.06286914
75	0x3d1cbd60	0.03826654
76	0x3d4a1011	0.04933173
77	0x3d34f52d	0.04417913
78	0x3ceb418d	0.02871778
79	0x3d2902f0	0.041262567
80	0x3d805fa1	0.0626824
81	0xbc95deda	-0.01829474
82	0xbc467cf4	-0.012114752
83	0xbd399e82	-0.04531718
84	0xbda43263	-0.08017423
85	0xbd726d0e	-0.059186034
86	0x3be114f5	0.0068689534
87	0xbae7d473	-0.0017687216
88	0x3cb50649	0.022097724
89	0xbca33579	-0.019922959
90	0x3d8c0bca	0.06838186
91	0x3c5ad507	0.013356454
92	0xbd6accb6	-0.057324134
93	0xbdc55dc4	-0.09637025
94	0xbcf7c183	-0.03024364
95	0xbd67f39c	-0.05662881
96	0xbc32eea9	-0.010921159
97	0x3ce1d0bf	0.027565358
98	0xbd32da0f	-0.043664988
99	0xbdb40aba	-0.087911084
100	0x3d81feb0	0.06347406
101	0x3d9dbfc5	0.07702593
102	0xbd8647c9	-0.06556661
103	0xbdb442b9	-0.08801789
104	0xbd976ad8	-0.07393426
105	0x3cbc03cf	0.022951035
106	0xbc6c0f48	-0.01440794
107	0xbd858dfc	-0.06521222
108	0x3caf41fa	0.021393765
109	0xbb8f0927	-0.0043651047
110	0xbce0e587	-0.027453197
111	0x3d27c907	0.0409632
112	0xbcd6120d	-0.026131654
113	0x3d3dbf29	0.046324883
114	0x3c0328e2	0.008005353
115	0x3d03158e	0.032002978
116	0xbd4b6989	-0.049661193
117	0xbd8b87cd	-0.06813011
118	0x3d69872b	0.05701367
119	0x3c4dce0c	0.012561332
120	0xbc94fe6f	-0.01818773
121	0x3ccc4143	0.024933463
122	0x3c244df8	0.010028355
123	0xbd8bfdf6	-0.068355486
124	0xbd6acd7b	-0.057324868
125	0x3d8273eb	0.06369766
126	0x3d784636	0.060613833
127	0x3d7fd6f5	0.06246086
128	0x3c7dc824	0.015489612
129	0x3db178ef	0.086656444
130	0x3d0770a1	0.033066396
131	0x3d99d9b8	0.0751223
132	0x3daa24b5	0.083077826
133	0xbd1e12ef	-0.038592275
134	0x3d41baac	0.047297165
135	0x3db96fdd	0.09054539
136	0x3d217334	0.039416507
137	0xbd5595fe	-0.052144997
138	0xbcd6de7c	-0.026229136
139	0x3d48ce2e	0.049024753
140	0x3d555750	0.05208522
141	0xbd87dd8a	-0.06634052
142	0xbcc6af7b	-0.024253597
143	0xbd704afc	-0.05866526
144	0xbc1ebbbe	-0.009688316
145	0xbd26b50a	-0.040699996
146	0x3d46a260	0.048494697
147	0xbcc7de59	-0.024398016
148	0xbd9e9d18	-0.07744807
149	0x3cd57d20	0.02606064
150	0xbd534819	-0.05158243
151	0x3d92a940	0.07161188
152	0xbbc6826f	-0.0060580294
153	0xbcac0b6c	-0.02100154
154	0x3d2e90a6	0.042618416
155	0x3d15b7c7	0.036552217
156	0x3d8780ff	0.06616401
157	0x3aabad1f	0.0013097859
158	0x3d5d5eb8	0.05404541
159	0x3c18851b	0.009309079
160	0x3d66d8bd	0.05635904
161	0x3b82fb55	0.0039972463
162	0xbd9ad58e	-0.075602636
163	0xbd95ccd2	-0.07314457
164	0xbc5e8bf7	-0.013583175
165	0x3cf95bfd	0.030439371
166	0x3c5b6a61	0.013392062
167	0x3d86b466	0.06577377
168	0x3c879259	0.016549276
169	0x3d2f49cc	0.042794988
170	0xbd84302d	-0.06454501
171	0x3d8e4130	0.06946027
172	0x3d658c29	0.05604187
173	0x3d9d030d	0.076665975
174	0x3d80b700	0.062849045
175	0x3d339d33	0.04385109
176	0x3dbb05e0	0.0913198
177	0x3d26d758	0.04073271
178	0x3da9400b	0.08264168
179	0x3adc890c	0.0016825511
180	0xbd523851	-0.05132324
181	0x3cdb5bf7	0.02677725
182	0x3ca2f6d7	0.019893093
183	0xbd95c74b	-0.07313403
184	0x3d19fbb6	0.037593566
185	0x3db58cc7	0.08864742
186	0xbd4198c0	-0.047264814
187	0x3bd14f1e	0.0063876053
188	0xbd93e02f	-0.07220494
189	0x3db9906d	0.0906075
190	0x3dc5ba85	0.096547164
191	0x3cfe373f	0.031032203
192	0x3d87e7d7	0.06636017
193	0x3d722bca	0.05912379
194	0x3d61c1a8	0.055116326
195	0x3db7a3e4	0.089668065
196	0xbc98bb30	-0.018643945
197	0x3d2b17fb	0.041770916
198	0x3d306b0d	0.04307084
199	0x3d009460	0.0313915
200	0x3d1ab2d7	0.03776821
201	0xbd53209e	-0.051544778
202	0xbd633f1e	-0.055480115
203	0xbd80ef7f	-0.0629568
204	0xbd743042	-0.059616335
205	0xbd4d8036	-0.0501711
206	0x3d00aca1	0.03141463
207	0xbbc9bbbc	-0.006156413
208	0xbc41d2f6	-0.011830082
209	0x3d921540	0.07132959
210	0x3d9ab394	0.07553783
211	0xbba94a9e	-0.0051663658
212	0x3c834c8c	0.016027711
213	0x3d8b23e6	0.067939565
214	0xbd2224cf	-0.039585885
215	0x3a38279e	0.00070249464
216	0xbd1c65c2	-0.03818298
217	0x3da0732c	0.07834467
218	0x3c4715ad	0.012151164
219	0xbd16883c	-0.036751017
220	0x3d941002	0.07229616
221	0xbd2f037b	-0.04272793
222	0x3d6f068c	0.058355853
223	0x3da67f7a	0.08129783
224	0x3cd60226	0.026124071
225	0xbd97692d	-0.073931076
226	0x3db57ef0	0.08862102
227	0x39e85980	0.0004431717
228	0xbd333b4a	-0.043757714
229	0x3db88efe	0.090116486
230	0xbda3f466	-0.080056
231	0xbccf3396	-0.025293153
232	0xbc90a06e	-0.017654624
233	0xbd305f54	-0.043059662
234	0x3cdfa81d	0.027301842
235	0x3d6aaa79	0.05729148
236	0x3dcb9e73	0.09942331
237	0xbc3ca342	-0.011513533
238	0x3d05267c	0.032507405
239	0x3d8ed770	0.06974685
240	0xbd101689	-0.03517774
241	0xbd352581	-0.04422522
242	0xbd521444	-0.051288858
243	0x3c0cd15d	0.008594838
244	0x3ca7efc5	0.020500073
245	0xbd65e8da	-0.056130268
246	0xbd96aa68	-0.07356721
247	0x3d971475	0.07376949
248	0xbd3144b7	-0.043278422
249	0xbd9aec75	-0.07564632
250	0x3c3dee06	0.011592394
251	0xbd02f7a2	-0.031974442
252	0x3c850bd3	0.01624099
253	0xbd7aa476	-0.061192
254	0xbcc9fbec	-0.024656259
255	0xbcb4cb51	-0.022069605

lin3.bias f4 [128]
0	0x3aabb0c1	0.0013098941
1	0xbd2cc68f	-0.042181548
2	0xbd421aff	-0.047389027
3	0xbc2bb7f7	-0.010480872
4	0xbdbded28	-0.092737496
5	0x3d3853f3	0.045001935
6	0x3d00e21a	0.031465627
7	0x3cfccbc3	0.03085888
8	0xbcfa0608	-0.030520454
9	0x3cc88b75	0.02448056
10	0xbdc14a4b	-0.094379984
11	0x3d24feb5	0.04028197
12	0x3c86a7e1	0.016437473
13	0xba62ce11	-0.0008651922
14	0x3a69a8c4	0.00089133927
15	0xbcdc2bb9	-0.026876317
16	0x3d05ef55	0.032698948
17	0x3bc09ef7	0.005878325
18	0xbdae8aaa	-0.08522542
19	0xbd31920f	-0.043352183
20	0xbd3fdf47	-0.046843793
21	0xbaa1bc74	-0.0012339489
22	0x3c2e4185	0.010635738
23	0x3dc34b7b	0.09535881
24	0xbd03ab40	-0.03214574
25	0x3d7ac692	0.061224528
26	0x3c2366e1	0.009973259
27	0xbc021d6c	-0.007941585
28	0xbd11ddd9	-0.03561196
29	0x3db9aff5	0.09066764
30	0x3dbba272	0.09161843
31	0xbd0c5870	-0.034264028
32	0xbd31483c	-0.04328178
33	0x3d95718d	0.07297049
34	0xbd7e0186	-0.06201317
35	0x3d905630	0.07047689
36	0xbd829b3d	-0.063772656
37	0x3ab7b184	0.0014014696
38	0x3d555117	0.052079286
39	0x3c74c08a	0.014938483
40	0xbcdcb330	-0.026940912
41	0x3cc6481a	0.024204303
42	0xbd41a1bd	-0.047273386
43	0xbd48f2c1	-0.049059633
44	0xbd449395	-0.047992308
45	0x3da15bc5	0.07878832
46	0xbb5f8f62	-0.0034112562
47	0xbcdc27d9	-0.02687447
48	0xbc9de5bd	-0.019274587
49	0xbd2cf5fa	-0.04222677
50	0xbc54a39c	-0.012978461
51	0x3db00350	0.08594382
52	0x3d89db7e	0.06731318
53	0xbcd5bd13	-0.026091134
54	0xbd3f2345	-0.046664495
55	0x3c00a63a	0.0078521315
56	0x3d333be1	0.043758277
57	0x3cdf5c5b	0.027265718
58	0xbb28bbf5	-0.0025746797
59	0x3c41b043	0.011821809
60	0xbdb4993d	-0.088182904
61	0xbbc1e273	-0.0059168874
62	0xbccb091d	-0.024784619
63	0x3c5b0b4f	0.013369395
64	0xbd3007e2	-0.042976268
65	0x3d358668	0.044317633
66	0x3b1932b1	0.0023376162
67	0x3d95ab6e	0.07308088
68	0x3c2128b5	0.0098363655
69	0xbcb7b1d9	-0.022423672
70	0x3d7391ae	0.059465103
71	0xbaf616e2	-0.001877513
72	0xbce36313	-0.027757203
73	0xbc2cbaa7	-0.010542548
74	0xbd4d06d8	-0.050055355
75	0x3d4b726b	0.049669664
76	0x3d3d777e	0.046256535
77	0x3d7b9c05	0.06142809
78	0xbc32bd62	-0.01090941
79	0x3dcd478c	0.10023412
80	0xbca71650	-0.020396382
81	0xbcaa1b35	-0.020764926
82	0x3d94d660	0.07267451
83	0xbd4afd1d	-0.049557794
84	0x3dbadd83	0.09124281
85	0x3dcaadf1	0.09896458
86	0xbbdaf2bf	-0.0066817696
87	0x3d60d9c4	0.054895177
88	0x3d8171d7	0.06320541
89	0xbdab9ec5	-0.08379892
90	0xbda972f4	-0.08273879
91	0xbc27dd31	-0.010245607
92	0xbd077938	-0.033074588
93	0xbd677a23	-0.056512963
94	0xbbcf58b0	-0.006327711
95	0x3d10a40b	0.035312694
96	0xbb94ccd7	-0.0045410204
97	0x3c8a8b2f	0.016912071
98	0xbbf273f7	-0.007399078
99	0x3d9b9718	0.07597178
100	0xbc72678f	-0.014795198
101	0x3d803bfb	0.0626144
102	0xbc044037	-0.008071951
103	0xbd24d354	-0.0402406
104	0x3db435ae	0.08799301
105	0xbbd9ffbd	-0.006652801
106	0x3d5bc5f7	0.05365559
107	0xbd6d9942	-0.058007486
108	0x3d98f77a	0.074690774
109	0xbda00676	-0.07813732
110	0xbc241a7d	-0.010016081
111	0xbd4ef126	-0.050522946
112	0xbd54fb85	-0.05199768
113	0xbd22cd95	-0.03974684
114	0xbd29a417	-0.041416254
115	0xbccbadd1	-0.024863156
116	0x3d91efb2	0.071257964
117	0xbcc47c97	-0.02398519
118	0x3d8b8f69	0.06814463
119	0xbb7548ff	-0.0037427542
120	0x3bfefaf2	0.00778138
121	0xbda8ac3a	-0.082359746
122	0x3da47d8a	0.08031757
123	0xbb132986	-0.002245517
124	0xbd41d8b2	-0.047325797
125	0x3dbcb83b	0.09214827
126	0x3d63656d	0.05551665
127	0xbd84ef1b	-0.06490918

lin3.parametrizations.weight.original0 f4 [128, 1]
0	0x3f0e93f2	0.55694497
1	0x3f110fbb	0.5666463
2	0x3f13c9ad	0.5772961
3	0x3f12d203	0.573517
4	0x3f1296e5	0.57261497
5	0x3f1549a8	0.58315516
6	0x3f104b6a	0.5636507
7	0x3f0f2a7d	0.55924207
8	0x3f05e5ec	0.5230396
9	0x3f19ec4f	0.60126203
10	0x3f0d1535	0.55110484
11	0x3f1cd481	0.61261755
12	0x3f0e4d27	0.55586475
13	0x3f0294d8	0.5100837
14	0x3f16d9ec	0.5892627
15	0x3f11ef6d	0.5700596
16	0x3f158c2c	0.5841701
17	0x3f159018	0.58422995
18	0x3f1ae920	0.6051197
19	0x3f150255	0.58206683
20	0x3f129e94	0.5727322
21	0x3f0e6bdb	0.55633324
22	0x3f0a8e00	0.54122925
23	0x3f0eebb1	0.55828387
24	0x3f19816f	0.59963125
25	0x3f20905c	0.62720275
26	0x3f1451cc	0.5793731
27	0x3f1c3dd2	0.6103183
28	0x3f19a458	0.60016394
29	0x3f1dcf0b	0.6164405
30	0x3f174d67	0.5910248
31	0x3f137396	0.57598245
32	0x3f11be6a	0.56931174
33	0x3f1391b2	0.5764419
34	0x3f0d07f3	0.55090255
35	0x3f0eca27	0.5577721
36	0x3f1b7c40	0.60736465
37	0x3f1ec342	0.6201669
38	0x3f128d6e	0.57247055
39	0x3f1933c6	0.59844625
40	0x3f18c323	0.59672755
41	0x3f170e5c	0.59006286
42	0x3f103d8f	0.5634393
43	0x3f248c08	0.6427617
44	0x3f13189f	0.57459444
45	0x3f12a7af	0.57287115
46	0x3f0dc1e5	0.55373985
47	0x3f119745	0.56871444
48	0x3f0c855c	0.5489099
49	0x3f1281d7	0.5722937
50	0x3f17cda8	0.5929818
51	0x3f1e91f5	0.6194146
52	0x3f10daa3	0.56583613
53	0x3f1705e8	0.5899339
54	0x3f0d7641	0.55258566
55	0x3f21686e	0.6304997
56	0x3f11852f	0.5684385
57	0x3f1b41fc	0.6064756
58	0x3f127d95	0.5722287
59	0x3f18530b	0.59501714
60	0x3f127496	0.57209146
61	0x3f0e8da4	0.55684876
62	0x3f0fa881	0.5611649
63	0x3f12f64a	0.5740706
64	0x3f14ed66	0.5817474
65	0x3f15c2cd	0.5850037
66	0x3f246245	0.6421245
67	0x3f14057f	0.57820886
68	0x3f1e8572	0.6192237
69	0x3f0fcaf2	0.56169045
70	0x3f0b5509	0.5442663
71	0x3f1730c2	0.59058774
72	0x3f165918	0.58729696
73	0x3f1841e7	0.5947556
74	0x3f1b1e01	0.6059266
75	0x3f1a3a80	0.60245514
76	0x3f118055	0.56836444
77	0x3f110c03	0.56658953
78	0x3f1d2aa5	0.61393195
79	0x3f199124	0.5998709
80	0x3f1e9450	0.61945057
81	0x3f177176	0.591575
82	0x3f114d2e	0.5675839
83	0x3f1b58ba	0.6068226
84	0x3f0b8f22	0.5451528
85	0x3f066137	0.5249209
86	0x3f13c836	0.5772737
87	0x3f17bf3e	0.5927619
88	0x3f0f9f81	0.5610276
89	0x3f1a8776	0.60362947
90	0x3f16e24a	0.5893904
91	0x3f0a51c3	0.5403101
92	0x3f0fd818	0.5618911
93	0x3f129dfe	0.57272327
94	0x3f19285e	0.5982722
95	0x3f113b00	0.5673065
96	0x3f15b964	0.5848601
97	0x3f0e22ff	0.5552215
98	0x3f1213ea	0.57061636
99	0x3f274b64	0.6534941
100	0x3f0f8bde	0.56072795
101	0x3f14ec85	0.581734
102	0x3f186591	0.5952998
103	0x3f10b325	0.5652335
104	0x3f187cd9	0.595655
105	0x3f12447b	0.5713574
106	0x3f1d125a	0.6135613
107	0x3f13ef57	0.5778708
108	0x3f16c77c	0.5889814
109	0x3f0b0675	0.5430673
110	0x3f173d3d	0.5907782
111	0x3f0c8e99	0.54905087
112	0x3f19961a	0.5999466
113	0x3f0fbd89	0.5614858
114	0x3f126e8f	0.5719995
115	0x3f1b6cd5	0.6071294
116	0x3f0f6098	0.56006765
117	0x3f11ec33	0.57001036
118	0x3f11033a	0.5664555
119	0x3f1af0f0	0.6052389
120	0x3f10920e	0.5647286
121	0x3f121a48	0.5707135
122	0x3f19c317	0.6006331
123	0x3f0e88fb	0.55677766
124	0x3f1c172e	0.6097287
125	0x3f13d014	0.5773938
126	0x3f1aadcb	0.6042144
127	0x3f0ef7b6	0.55846727
