experiments/OneLinParamW1dDiscreteInterpolation/SdfSamples/model_cylinder_0.4.npz (npz, 46251 bytes, 2 tensors)

pos f4 [633, 4]
0	0xbe2de048	-0.16980088
1	0x3f2cb45a	0.67462695
2	0xbe8d3134	-0.27576602
3	0xbd9bf434	-0.076149374
4	0xbe931088	-0.2872355
5	0xbed5aa94	-0.41731703
6	0x3eb445d0	0.35209513
7	0x3d5ecdc0	0.054395437
8	0xbec68890	-0.38776064
9	0xbe464060	-0.19360495
10	0xbe175df8	-0.1478194
11	0x3c757120	0.014980584
12	0xbe8c4bf0	-0.27401686
13	0x3e72d8e8	0.23715556
14	0xbe9ac124	-0.3022548
15	0x3c02a780	0.007974505
16	0xbdeeefa0	-0.116667986
17	0x3f4027d2	0.7506076
18	0xbedaf3d8	-0.42764163
19	0x3d313c70	0.04327053
20	0x3e89e6ec	0.26933992
21	0x3f601cc6	0.87543905
22	0x3e6a79e0	0.22898054
23	0xbd3e6248	-0.046480447
24	0x3ed25da4	0.41087067
25	0x3f661498	0.89875174
26	0x3e362a90	0.17789674
27	0x3d438050	0.04772979
28	0x3e15dc38	0.14634788
29	0x3f3dd8f4	0.7415917
30	0x3ecdb45c	0.40176666
31	0x3ce206c0	0.02759111
32	0x3e5c48c8	0.21512139
33	0xbf015cae	-0.5053204
34	0xbeaab448	-0.3334067
35	0xbb52ca00	-0.0032163858
36	0x3c0be000	0.0085372925
37	0xbe84dffc	-0.25952137
38	0x3eb87338	0.36025405
39	0xbd226298	-0.039644808
40	0x3e569178	0.2095393
41	0x3f76d480	0.96418
42	0xbea07a04	-0.3134309
43	0xbcbc3c30	-0.022977918
44	0xbe0d94f8	-0.13826358
45	0xbe56ec40	-0.2098856
46	0x3ef17adc	0.47164047
47	0x3dbb5ea4	0.09148911
48	0xbede54e8	-0.43424153
49	0xbe88cf78	-0.26720786
50	0xbd4ba960	-0.049722075
51	0x3d17e018	0.037078947
52	0x3ebe7bd0	0.37203836
53	0x3f4467f2	0.7672111
54	0xbe2e4e90	-0.17022157
55	0x3c159900	0.009130716
56	0xbe8614b0	-0.26187658
57	0x3c841840	0.016124845
58	0xbea7d5a4	-0.32780182
59	0x3ca04340	0.019563317
60	0x3eb58cf0	0.3545909
61	0x3f1bf706	0.609238
62	0x3e92e384	0.28689206
63	0x3d65d9d0	0.056115925
64	0x3eaf15e0	0.34196377
65	0xbe9b1f5c	-0.30297363
66	0x3d749740	0.059714556
67	0xbd588570	-0.05286163
68	0xbde4a300	-0.11163902
69	0x3ed97a48	0.42476106
70	0xbeb811d8	-0.35951114
71	0xbcc0f480	-0.023554087
72	0xbe264430	-0.16236949
73	0x3e3e18f0	0.185642
74	0xbecbfcd8	-0.39841342
75	0x3cf7a310	0.030229121
76	0x3e95fea4	0.29295838
77	0x3f47b24c	0.78006434
78	0xbe979730	-0.29607534
79	0x3c874ba0	0.016515553
80	0x3eb5d29c	0.35512245
81	0xbda15e40	-0.07879305
82	0x3e27ff80	0.1640606
83	0xbc106160	-0.0088122785
84	0x3ebab960	0.36469555
85	0x3f224af2	0.6339561
86	0xbe762530	-0.24037623
87	0x3d16aed0	0.036787808
88	0x3e97674c	0.29570997
89	0xbf66651a	-0.8999802
90	0x3e5f0ce0	0.21782255
91	0xbd060a78	-0.032724828
92	0x3eb2be3c	0.34910762
93	0x3f3cbf84	0.7372973
94	0x3d9203a0	0.07129598
95	0xbd32f0b8	-0.0436866
96	0x3e6bb0f0	0.23016715
97	0xbf166308	-0.5874486
98	0xbe499aa8	-0.19687903
99	0xbdc6e524	-0.09711674
100	0x3b4ac800	0.0030941963
101	0xbe646418	-0.22303808
102	0xbea38208	-0.31935143
103	0xbda52338	-0.08063358
104	0xbef5e788	-0.48028207
105	0xbf2bb3fa	-0.670715
106	0x3e0a6508	0.13515103
107	0x3dca9eb8	0.098935544
108	0x3e7aff28	0.24511397
109	0x3f2552e6	0.6457962
110	0x3ec80480	0.39065933
111	0x3d7aa1a0	0.061189294
112	0xbee3715c	-0.44422424
113	0x3f454c9a	0.7707001
114	0x3de43830	0.111435294
115	0x3d6d84d0	0.057987988
116	0x3e818764	0.25298607
117	0x3e251700	0.16122055
118	0x3ead8470	0.33890104
119	0x3cbbb530	0.022913545
120	0xbda54980	-0.0807066
121	0xbe88f824	-0.26751816
122	0xbec42e44	-0.38316548
123	0xbc0a11e0	-0.008427113
124	0x3d4f8e00	0.05067253
125	0x3ecc8ba8	0.399503
126	0x3eaace78	0.33360648
127	0xbd802328	-0.062567055
128	0x3e96e210	0.29469347
129	0xbe6b73d0	-0.22993398
130	0xbeabd1e8	-0.33558583
131	0x3d3eec00	0.046611786
132	0xbe96c92c	-0.29450357
133	0x3eaca688	0.33720803
134	0xbe62e7d8	-0.22158754
135	0xbd00cba0	-0.031444192
136	0xbe10d030	-0.14141917
137	0xbf100cfa	-0.562698
138	0x3ed597f4	0.41717494
139	0x3d25dc40	0.04049325
140	0x3ee5e3a0	0.44900227
141	0xbe92fe54	-0.28709662
142	0x3ca08480	0.01959443
143	0x3d4a76b0	0.049429595
144	0x3e6c7358	0.23090875
145	0x3e4bcfc8	0.19903481
146	0xbe857800	-0.26068115
147	0xbd53fea8	-0.05175653
148	0x3e8071d0	0.25086832
149	0xbe868530	-0.2627349
150	0xbecbc204	-0.3979646
151	0x3d904124	0.070436746
152	0xbe83e5fc	-0.25761402
153	0xbd680d60	-0.05665338
154	0xbe763280	-0.24042702
155	0xbd430f78	-0.047622174
156	0xbe64b040	-0.22332859
157	0x3f166a40	0.58755875
158	0x3eb8f8b0	0.36127234
159	0x3cca9120	0.024727404
160	0xbdad4380	-0.0846014
161	0x3e8a1868	0.26971745
162	0xbe9afa00	-0.3026886
163	0xbdaf8914	-0.085710675
164	0x3ea80c0c	0.3282169
165	0xbe86b054	-0.26306403
166	0xbebae3d4	-0.36501944
167	0x3dba2090	0.09088242
168	0x3d3dfba0	0.046382546
169	0xbea8d5e8	-0.32975698
170	0x3ecdfdf8	0.40232825
171	0x3ba39c80	0.0049930215
172	0x3d4b3400	0.049610138
173	0x3ca82ac0	0.020528197
174	0xbec5fc90	-0.38669252
175	0xbc261a80	-0.010138154
176	0x3a793000	0.0009505749
177	0x3e989d80	0.29807663
178	0x3eceb744	0.40374196
179	0x3b754e80	0.0037430823
180	0x3dcae4a0	0.09906888
181	0x3f3b18aa	0.7308451
182	0xbeaeca88	-0.34138894
183	0xbd3661f0	-0.044526994
184	0xbea61534	-0.32438052
185	0x3d2e22e0	0.04251373
186	0xbe7268b0	-0.23672748
187	0x3ace7600	0.001575172
188	0xbd000b40	-0.03126073
189	0x3ee94aa8	0.4556477
190	0xbec7f75c	-0.39055908
191	0xbc063720	-0.008191854
192	0xbeaf6f30	-0.34264517
193	0xbec38918	-0.38190532
194	0x3e1d02a0	0.15333033
195	0xbcc99fd0	-0.024612337
196	0xbd720bc0	-0.059093237
197	0x3e1ac7c8	0.15115273
198	0xbea091c4	-0.3136121
199	0xbda59eac	-0.08086905
200	0xbe678f38	-0.22613227
201	0xbd973070	-0.073822856
202	0xbe9ee388	-0.31032968
203	0xbc833d50	-0.016020447
204	0xbea54f48	-0.3228705
205	0x3f7b0094	0.9804776
206	0x3ea079e4	0.31342995
207	0x3d4cb9c8	0.049981862
208	0x3eee55dc	0.4654988
209	0x3f1d24b2	0.6138412
210	0xbda1ed80	-0.07906628
211	0x3d93cbb4	0.07216588
212	0xbedb2e50	-0.4280877
213	0x3f735f42	0.95067227
214	0x3e48ae60	0.19597769
215	0x3d910734	0.07081452
216	0x3e988550	0.2978921
217	0xbe8be584	-0.27323544
218	0xbec23498	-0.3793075
219	0x3da88d3c	0.08230063
220	0x3ec1cef0	0.37853193
221	0xbf087172	-0.53298104
222	0x3d2dc2e0	0.042422175
223	0xbc9c7420	-0.019098341
224	0x3e48d320	0.19611788
225	0xbef3c4c8	-0.4761107
226	0xbee2404c	-0.4418968
227	0x3daaedd8	0.08346146
228	0x3ede54a8	0.43423963
229	0xba2b1800	-0.00065267086
230	0x3e0464b8	0.12929046
231	0x3d5968c8	0.053078443
232	0xbec0a7a8	-0.37627912
233	0xbeffd350	-0.49965906
234	0x3d5d7360	0.05406511
235	0xbca2aa40	-0.019856572
236	0x3edc09ec	0.4297632
237	0xbe585000	-0.21124268
238	0xbd8a1f00	-0.06744194
239	0x3d0f7410	0.035022795
240	0xbe2cdcd8	-0.1688112
241	0x3e958cec	0.29209077
242	0xbec4d684	-0.38444912
243	0x3ca2d940	0.019878983
244	0xbeb7c534	-0.35892642
245	0x3f0da2c6	0.553265
246	0xbcc8ad00	-0.024496555
247	0xbd24d140	-0.04023862
248	0x3e1e7c80	0.1547718
249	0x3f0f0c36	0.5587801
250	0x3e8e9a5c	0.27852142
251	0xbda6a284	-0.08136466
252	0xbea080c0	-0.31348228
253	0x3dcf4840	0.101212025
254	0xbd972720	-0.073805094
255	0xbd9fa284	-0.07794669

neg f4 [2500, 4]
0	0x3e9cd4a0	0.3063097
1	0x3f3d5194	0.73952603
2	0xbf09b23a	-0.5378758
3	0x3e603c3a	0.21897975
4	0xbf3d19f4	-0.73867726
5	0x3f7bdaa6	0.98380506
6	0xbf672e58	-0.9030509
7	0x3f444538	0.7666812
8	0x3ddece80	0.108792305
9	0x3ef25008	0.47326684
10	0x3e49c200	0.19702911
11	0xbe332102	-0.1749306
12	0x3dbdf420	0.09275079
13	0xbf686e1a	-0.90793
14	0xbf6bb170	-0.92067623
15	0x3f067c72	0.5253364
16	0x3f450400	0.7695923
17	0xbf381f14	-0.7192242
18	0xbf355372	-0.7083045
19	0x3f255b9c	0.6459291
20	0xbefd51b8	-0.4947641
21	0xbec92100	-0.3928299
22	0x3f6a3186	0.91481817
23	0x3f23d9b0	0.6400404
24	0xbd013b20	-0.031550527
25	0x3f4050c2	0.75123227
26	0xbf6bdd78	-0.9213481
27	0x3f059a76	0.52188814
28	0xbf22da7e	-0.6361464
29	0x3f5a7eac	0.85349536
30	0x3f3e9b3e	0.7445563
31	0x3f144d9a	0.5793091
32	0x3e8d7a60	0.27632427
33	0x3f4d9dea	0.8031908
34	0xbf5f08a4	-0.8712256
35	0x3f039542	0.51399624
36	0x3f344edc	0.7043283
37	0x3f6dcf9a	0.928949
38	0xbec07c40	-0.37594795
39	0x3ecbf8d7	0.39838287
40	0xbf623284	-0.8835833
41	0xbf071d6a	-0.5277926
42	0x3f08008a	0.5312582
43	0x3f218904	0.63099694
44	0x3e6ca890	0.23111176
45	0xbf40de42	-0.7533914
46	0x3d0fb660	0.035086036
47	0xbe2a3adb	-0.16624014
48	0xbf765b1a	-0.9623276
49	0x3ecb61b0	0.39722967
50	0x3ef1909c	0.4718064
51	0x3f2bf8a8	0.67176294
52	0x3f2fcd80	0.68672943
53	0xbec1e2a0	-0.37868214
54	0xbf5a8e16	-0.85373056
55	0x3f32163e	0.6956519
56	0x3f71d91c	0.9447191
57	0x3f31ae38	0.6940646
58	0xbeeb0044	-0.4589864
59	0x3f267b14	0.6503155
60	0xbf6d406e	-0.92676437
61	0xbf23bb18	-0.6395736
62	0x3ce03380	0.027368307
63	0x3f06f482	0.5271684
64	0xbf20bd34	-0.627887
65	0x3c8d1440	0.01722157
66	0xbf533c62	-0.8251401
67	0x3f2309e0	0.63686943
68	0xbedfe094	-0.43726027
69	0x3f3233e8	0.6961045
70	0xbf7aa4e4	-0.97907853
71	0x3f2c1ac2	0.6722833
72	0xbf38e70e	-0.7222756
73	0xbe9717c8	-0.2951033
74	0xbf0b1b28	-0.5433831
75	0x3f00fc68	0.5038514
76	0x3f1594ec	0.5843036
77	0xbf4a501a	-0.79028475
78	0x3ef4548c	0.47720754
79	0x3eb57583	0.35441217
80	0xbf75e212	-0.9604808
81	0x3e345f40	0.1761446
82	0xbf6a4d50	-0.9152422
83	0x3f6d3daa	0.92672217
84	0xbec0fe28	-0.37693906
85	0xbf3bcff6	-0.733642
86	0x3f6335f6	0.8875421
87	0x3f1073ea	0.5642687
88	0xbf6902f6	-0.91020143
89	0xbdf2ea10	-0.1186105
90	0x3dfe68e0	0.12422347
91	0x3f04c58c	0.5186393
92	0x3e169760	0.14706182
93	0x3f7c8542	0.98640835
94	0x3e4bff38	0.19921577
95	0xbe1c0a55	-0.15238316
96	0x3e861f70	0.2619586
97	0x3dd54c70	0.1041497
98	0xbdc43b00	-0.09581566
99	0xbdf7f29c	-0.12106821
100	0xbeb63920	-0.35590458
101	0xbea9b698	-0.3314712
102	0x3f0aa472	0.54157174
103	0x3e7e00a6	0.24804935
104	0xbf5da6e6	-0.8658279
105	0xbebd3e84	-0.36961758
106	0xbda86ca0	-0.082238436
107	0x3ef07fc3	0.46972474
108	0x3ef62604	0.4807588
109	0x3f6f7a62	0.93546116
110	0x3f627b3e	0.884693
111	0x3f1b5c9a	0.60688174
112	0xbe820fec	-0.25402772
113	0x3eee9e90	0.4660535
114	0x3f699a9e	0.9125155
115	0x3f0c163a	0.54721415
116	0x3e886c3c	0.26645076
117	0xbeee55d8	-0.4654987
118	0xbd2e9820	-0.042625546
119	0xbe054900	-0.13016129
120	0x3f609b22	0.87736714
121	0xbdc77b60	-0.09740329
122	0x3f086e5c	0.53293395
123	0x3f20652a	0.62654364
124	0x3f5d4c50	0.8644457
125	0x3f1f9050	0.6232958
126	0xbf552072	-0.8325263
127	0x3f4cd6ce	0.80015266
128	0x3f5d91c0	0.8655052
129	0x3f6de762	0.9293119
130	0xbf6593be	-0.8967856
131	0x3f58a8b2	0.8463241
132	0x3f3e7182	0.7439195
133	0x3e36d008	0.17852795
134	0xbe53ea08	-0.20694745
135	0x3ebe8ccd	0.37216797
136	0x3e5e7038	0.21722496
137	0xbf59073e	-0.84776676
138	0x3f0f6b8a	0.56023467
139	0x3e4db1ea	0.200874
140	0x3e91a744	0.28447926
141	0xbe958d1c	-0.2920922
142	0xbd8fdb20	-0.07024217
143	0xbddb16d0	-0.106977105
144	0x3cea8200	0.028626442
145	0x3e162de0	0.14665937
146	0xbf4b7db2	-0.7948867
147	0x3eca7221	0.39540198
148	0x3eacbf80	0.33739853
149	0x3eac5550	0.33658838
150	0xbf683a76	-0.90714204
151	0x3f115efc	0.5678556
152	0x3dcef8b0	0.10106027
153	0x3c954240	0.018220067
154	0x3f18ae8c	0.5964134
155	0x3e51d53a	0.20491496
156	0x3f3eea74	0.745765
157	0x3f24d028	0.6438012
158	0xbedc6dd0	-0.4305253
159	0x3eec1723	0.46111402
160	0x3f583c0a	0.8446661
161	0xbf14b20a	-0.58084166
162	0xbf0db712	-0.5535747
163	0x3f1c22a8	0.6099038
164	0xbf4927ca	-0.7857634
165	0x3e63e658	0.22255838
166	0x3f5d3ee0	0.86424065
167	0x3f449eca	0.7680479
168	0xbf0f8998	-0.56069326
169	0xbebdac58	-0.3704555
170	0x3dc83ff0	0.0977782
171	0x3e2d36fe	0.16915509
172	0xbf221316	-0.6331037
173	0xbf62b962	-0.8856412
174	0xbc2c4780	-0.010515094
175	0x3e6ec9a2	0.23319104
176	0xbebe0de0	-0.3711996
177	0x3e4881c0	0.19580746
178	0xbeef0ea4	-0.46690857
179	0x3e493302	0.19648364
180	0xbf3ca6b2	-0.73691857
181	0x3f3f41fe	0.7471007
182	0xbe624ef0	-0.22100425
183	0x3ebd1acd	0.3693451
184	0xbf1bbe94	-0.60837674
185	0xbe9866d0	-0.2976594
186	0x3ef25e4c	0.47337568
187	0x3ebddfcd	0.3708481
188	0x3f3af8d6	0.73035944
189	0x3f074f6e	0.52855575
190	0xbed4556c	-0.41471422
191	0x3ee13913	0.43988857
192	0xbdd564e0	-0.10419631
193	0x3d74d200	0.059770584
194	0x3f6f97d4	0.93591046
195	0x3f0aac60	0.54169273
196	0x3f772bba	0.96551096
197	0x3f0bd166	0.5461639
198	0x3f122cee	0.5709981
199	0x3f38c27c	0.7217176
200	0x3f611a9a	0.87931216
201	0x3f21c006	0.6318363
202	0xbf7fd2ba	-0.9993092
203	0x3f6e5c1c	0.931093
204	0xbe3cbc20	-0.18431139
205	0x3f18f276	0.59744966
206	0x3f000d50	0.50020313
207	0x3e084602	0.13307956
208	0x3edd19f0	0.4318385
209	0x3f09936e	0.53740585
210	0xbf43c19c	-0.764673
211	0x3ef4d4b3	0.47818527
212	0xbdd6bdf0	-0.104854465
213	0xbf0dbcf2	-0.5536643
214	0x3d5859a0	0.052819848
215	0xbe90b009	-0.28259304
216	0x3e6bfd70	0.23045897
217	0xbe851660	-0.25993633
218	0xbdefc250	-0.11706984
219	0xbe10e832	-0.14151075
220	0xbe39b2e8	-0.18134654
221	0x3f412104	0.75441
222	0x3e57aba8	0.21061575
223	0xbdf9ff64	-0.12206915
224	0x3ec70da0	0.38877583
225	0x3f70fbfa	0.94134486
226	0xbf3f3ac8	-0.7469907
227	0x3ee25ba7	0.4421055
228	0x3ef0cb2c	0.47030008
229	0xbdca5780	-0.098799706
230	0x3f32af8a	0.697991
231	0x3ee21fdf	0.4416494
232	0x3d476ec0	0.048689604
233	0xbf35604a	-0.7085005
234	0xbf3ade92	-0.72995865
235	0x3ea9c4f1	0.33158067
236	0x3ee9c49c	0.45657814
237	0xbe8ca7d8	-0.27471805
238	0xbf66a0ee	-0.9008931
239	0x3f1c280e	0.6099862
240	0xbf6c5b02	-0.92326367
241	0x3eadd090	0.33948183
242	0x3f6c8b04	0.9239962
243	0x3f67fd64	0.9062102
244	0x3e1a3ff0	0.15063453
245	0xbf10e752	-0.56602967
246	0x3f2ebd62	0.68257725
247	0x3e9916ab	0.29900107
248	0xbf2ea8d8	-0.68226385
249	0x3f1f3b0c	0.62199473
250	0x3f1f13e4	0.62139726
251	0x3f05d84e	0.5228318
252	0x3cb910c0	0.022590995
253	0xbf2ce162	-0.67531407
254	0x3f3eb3fc	0.74493384
255	0x3eb0c80f	0.34527633
