experiments/OneLinParamW1dDiscreteInterpolation/SdfSamples/model_torus_0.8.npz (npz, 50153 bytes, 2 tensors)

pos f4 [890, 4]
00000000: 4a37 1a3f 2c51 b73e 18bb 99be a8fe 4a3d
00000010: 805b 433f c44c 4bbf 88bf 103e 1095 873d
00000020: 98d2 95be 42f4 6d3f 48a3 90be 08e0 853d
00000030: 5c06 a6be e8c2 76bf 18c8 57be f8aa 123d
00000040: d0e4 53bf 5e58 423f 0012 413d e04b 753d
00000050: 8401 22bf c0e0 d3bc 68d1 1cbe bc43 25bd
00000060: 4886 1abf 70f2 543e 1417 85be 285e 213d
00000070: 487e 9b3e be29 75bf 5005 563e b0da d33c
00000080: 8e44 303f 7075 14be 8053 653e c051 bbbc
00000090: e80a 743e 828c 41bf 6c18 85be 00b1 d8bb
000000a0: 9ea4 4cbf 12a6 313f c865 34be 704b 3d3d
000000b0: 5e0e 593f cc7d 2b3f b06b a9bd 20c3 d33c
000000c0: c468 2e3f 4036 37bf 8896 0fbe 384b 03bd
000000d0: 4291 3ebf c091 1abd 60e3 453e 5ad7 86bd
000000e0: 96ef 5f3f 58a1 cf3e 0812 18be bc7f 39bd
000000f0: 607b 50bd f6e0 513f 24e2 80be 00e6 65bc
00000100: 48ff 6a3f 001a a33e e8db 22be 38c0 05bd
00000110: 76ce 04bf 7ae5 64bf 40de 973c c0ea 03bd
00000120: 20c4 1e3f 0883 56be f033 09be f234 8dbd
00000130: 2006 273d 6c55 5fbf f0d2 3c3e 78b4 8bbd
00000140: 0262 023f bab0 323f 1c71 98be 882e 1b3d
00000150: d4bd 083f be4d 5b3f 8039 633e 60d3 1d3d
00000160: 149a af3e 8030 aebe 40cc bf3d 4ca5 823d
00000170: b067 7d3e c695 3e3f 5839 3ebe 185e a4bd
00000180: e0a2 7fbf 0827 5a3e 0061 d0bb 3477 3abd
00000190: 80f0 61bc 4e43 38bf e838 63be f8f8 fbbc
000001a0: a887 69bf b0d6 ad3d 4034 63be a0d9 84bc
000001b0: 26d8 163f b0c1 973e 603d 60be c000 d6bb
000001c0: 689e b5be c8b3 17bf 7063 463e 1c06 35bd
000001d0: ca22 5abf 8084 bd3e 70a4 0b3e caa9 a1bd
000001e0: 1e8e 783f 4022 bebc 78bd 113e 845f 34bd
000001f0: 505f 993d 46c7 403f e843 9cbe 8057 2a3d
00000200: 601e 2abf c817 cebe 0010 343e 22ec b6bd
00000210: 2c30 e03e f284 21bf c8cf 463e 4624 8fbd
00000220: 40ab 7c3e c221 1cbf 703a c63d 9009 c2bd
00000230: 9047 c23e 4c46 0ebf e85a aa3e a447 b73d
00000240: 88ba 48bf a4da 133f 1093 92bd fe1a a1bd
00000250: a2c9 513f 1ca0 a43e 40c6 343e 8cef 94bd
00000260: 2e08 343f 2686 0dbf c0dc 7f3e 0080 fc39
00000270: d020 4cbf 86c6 3b3f 4031 64be 1c44 c03d
00000280: 80a6 fd3e 348e adbe c8e6 1a3e a019 84bc
00000290: 50bf e9be 00c3 8c3e 20c2 d13d e0b2 9e3c
000002a0: 1233 163f 1a48 2d3f 6064 453e fc9e 52bd
000002b0: d64b 2fbf 64a1 c73e 5ca5 b73e e8dc bc3d
000002c0: 6a01 31bf 2eb9 123f f4da 94be c085 243d
000002d0: bcf5 7c3f 2037 3abe bc2a 813e 507d 6e3d
000002e0: 68a5 b53e 9451 c0be b083 c03d f869 023d
000002f0: 986d 33bf 829e 2cbf 5809 a33e 08a3 c33d
00000300: b64b 243f bc76 413f 9026 77be 089c 293d
00000310: 4806 84be ded8 7d3f f8e9 843e 30d9 9c3d
00000320: c032 6fbf ba5f 0abf e072 333d f0ab 843c
00000330: 581e 433f 600b 1c3d 48b4 953e f0b2 e53c
00000340: 2024 a23d 964a 293f 7033 2d3e 0870 50bd
00000350: 78d9 41bf 2e47 45bf 4043 4ebe 90eb a03d
00000360: 48d2 62bf c006 bfbd 809a 6b3e 10e3 9dbc
00000370: 28fd a0be c480 693f bc26 9a3e e0cb 9c3d
00000380: 541f 77bf 242e d3be 1884 723e f8c1 9e3d
00000390: 783b abbe ea4a 283f ac6c b6be 24ae c23d
000003a0: d4b6 ce3e fa8b 723f a04f 5bbe 68a9 423d
000003b0: a0b5 933e 7226 373f a861 4abe 1c28 89bd
000003c0: 500e 0dbf e8cc cbbe 3003 a13e a867 8f3d
000003d0: 9c75 a0be c881 223f 8090 49be 7830 4abd
000003e0: 0050 423b 36f6 003f 0045 793c e06a f53c
000003f0: f064 0dbe 949e 403f 587e 6b3e c46f 0bbd
0.60240614 0.35804117 -0.30025554 0.049559265 0.7631149 -0.7941401 0.14135563 0.06620228
-0.29262233 0.9295083 -0.28249574 0.06536871 -0.32426727 -0.96391153 -0.21072423 0.03580758
-0.82771015 0.7591609 0.047136307 0.059886813 -0.6328356 -0.025864005 -0.15314257 -0.0403478
-0.60361147 0.20795608 -0.2599417 0.039396435 0.30369782 -0.9576682 0.20900464 0.025861114
0.68854606 -0.14497924 0.22395134 -0.02286613 0.23832285 -0.7560502 -0.25995195 -0.006612897
-0.79938686 0.6939403 -0.17616951 0.04621452 0.8478755 0.66988826 -0.08272493 0.025849879
0.6812861 -0.71567154 -0.14022267 -0.032054156 -0.74440396 -0.037736654 0.19325018 -0.06584044
0.87474954 0.40552783 -0.14850628 -0.045287833 -0.05089891 0.8198389 -0.25172532 -0.014031887
0.9179578 0.31855774 -0.159042 -0.032654017 -0.51877534 -0.89412653 0.018538594 -0.032206297
0.62018013 -0.20948422 -0.13398719 -0.06894864 0.040777326 -0.8723972 0.18439841 -0.06821531
0.509308 0.69800913 -0.29773796 0.037886173 0.53414655 0.856655 0.22189903 0.03853166
0.3429724 -0.34021378 0.093651295 0.06379184 0.24746585 0.74447286 -0.18576562 -0.080257595
-0.998579 0.21303952 -0.0063592196 -0.045523837 -0.01379025 -0.719777 -0.22189677 -0.030758366
-0.9122262 0.08488214 -0.221879 -0.016217053 0.58923566 0.2963996 -0.21898413 -0.006530851
-0.35472417 -0.592587 0.1937387 -0.04419528 -0.85209334 0.37015152 0.13636947 -0.07893713
0.97091854 -0.023209691 0.14232433 -0.044036403 0.074888825 0.7530407 -0.30520558 0.041587353
-0.664526 -0.4025252 0.17584229 -0.089317575 0.43786752 -0.63093483 0.194152 -0.069893405
0.24674702 -0.6098901 0.09679115 -0.0947448 0.37945223 -0.55576015 0.3327248 0.08949211
-0.78409624 0.57755494 -0.07156956 -0.078664765 0.8194829 0.32153404 0.17653751 -0.072722524
0.7032498 -0.5528282 0.24986553 0.00048160553 -0.7973757 0.733498 -0.22284412 0.09387991
0.49541092 -0.33897555 0.15127099 -0.0161255 -0.45653772 0.27492523 0.102421045 0.019372404
0.5867168 0.67688143 0.19276571 -0.05142115 -0.6847509 0.3899032 0.35868347 0.09221822
-0.6914278 0.5731381 -0.29073298 0.040166616 0.9881246 -0.18185091 0.25227916 0.058224976
0.35477757 -0.3756224 0.094001174 0.03183934 -0.700891 -0.67429364 0.31843066 0.0955258
0.64178026 0.755718 -0.24135804 0.04140857 -0.25786042 0.9915904 0.25959754 0.07658613
-0.93436813 -0.5405232 0.043810725 0.016195267 0.76218176 0.038096786 0.29239106 0.028039426
0.079170465 0.66129434 0.16914153 -0.05088809 -0.75722456 -0.77061737 -0.20142841 0.0785743
-0.88602114 -0.09327459 0.23008156 -0.01927331 -0.31443143 0.91212106 0.30107677 0.076560736
-0.9653218 -0.4124614 0.23683202 0.0775184 -0.3344381 0.6573931 -0.35629785 0.09505871
0.40373862 0.9474484 -0.21417093 0.04752484 0.28849506 0.7154304 -0.19763815 -0.066971034
-0.55099964 -0.3980477 0.31447744 0.07002193 -0.3133973 0.6347928 -0.19684029 -0.04936263
0.0029649734 0.5037569 0.015214205 0.029958189 -0.13808036 0.7524197 0.22997415 -0.034042135

neg f4 [2500, 4]
00000000: f047 ce3e 9489 a8be f8d2 92be 4a27 093e
00000010: 9829 13be acd0 5c3f 169a 063f 115b 873e
00000020: e654 17bf 30ca 793f 3c5d 45bf 6c86 133f
00000030: ccb4 e93e 36dd 23bf 5075 123f fb77 9c3e
00000040: 62da 743f 6c03 023f 9458 2e3f 450d f13e
00000050: baa2 5bbf 70ed 643f 70bb 763e f2f5 6f3e
00000060: 6080 653e fe1c 6f3f 0a65 1ebf 45bf be3e
00000070: 0642 293f ea79 113f cccd 1abf 1340 af3e
00000080: 8850 bfbe f0c8 533e f664 00bf 1776 b73e
00000090: 446d 77bf 84e7 183f 1864 10bf e9a6 c73e
000000a0: 0633 56bf d41a 1a3f 4884 ddbe 360b 653e
000000b0: a40b 193f fc7d 5d3f d658 21bf 07ef d23e
000000c0: d8e9 ffbe dc3d 7d3f 3ec5 7e3f 7c73 463f
000000d0: 70fc 9d3e 382c 36be a612 01bf 0d61 cf3e
000000e0: 28eb 58be 207a 8dbd aa86 72bf d6b9 573f
000000f0: e0e7 c5bd 6059 00bf c4f8 aebe d080 393e
00000100: 3c1b 5dbf e835 e13e 8a64 3f3f 4ff0 ff3e
00000110: 56aa 63bf 86c0 65bf 44f3 a4be 6b75 983e
00000120: 7c00 3c3f 663e 29bf f87b fd3e 1fa2 863e
00000130: 50aa 023e d06a 24bf 040c 53bf 4207 123f
00000140: 6852 e7be b4e2 a9be 2cda 323f c998 f13e
00000150: 988c 2d3e e032 f6bd 24ed 3cbf d6f7 2d3f
00000160: 2e3d 3ebf e0fd 81bd 38ac 0dbf 9d2a 943e
00000170: 68d7 8a3e 948b 6d3f 4492 ed3e 2ad1 673e
00000180: 7851 53bf 1eae 5f3f 6006 653e f002 463e
00000190: 1cc2 2f3f e4ce f43e e292 233f dd26 bf3e
000001a0: 943e 43bf 542b 37bf 78fb f6be bba7 8c3e
000001b0: 8675 0d3f 682a e1be 8c3e 233f a577 c13e
000001c0: 40f2 a23c f49d 09bf 3a9e 46bf 4260 0d3f
000001d0: fc67 8ebe f2d1 52bf 20e1 f9bd 1d6c 01be
000001e0: f0ef 04be e09a bc3e 1401 84be 4e62 5e3e
000001f0: 60b2 45be e666 3c3f 8c35 523f 6a2e 0e3f
00000200: 3ea4 11bf 5c1e 843e 3c45 c0be 3c4f 173e
00000210: 567e 08bf 84e4 c83e 40e7 a63c 9b36 02be
00000220: cc0a 583f ea19 5abf f46c 02bf 31d9 c23e
00000230: 5c3c 463f 943d ebbe d0ed 8c3d 386c 14be
00000240: 70a7 3b3f 14ad 8fbe 9aa3 6e3f 5a67 2a3f
00000250: 4096 19bd d83c 47bf 006f 653d 57df 53be
00000260: e095 c4bd 4084 75bd 4828 4ebf 4cb0 4a3f
00000270: cc58 6ebf 62b2 383f 00be 76bf 7cc2 443f
00000280: 50c9 423f 8cad 3f3f 32e7 383f 02e9 003f
00000290: dcd5 3cbf 92b5 4abf a679 523f 8a42 1a3f
000002a0: 88e6 7ebe 4428 263f 78e3 7b3f 4a0c 393f
000002b0: 342e 2b3f 5047 3a3e 1814 17bf 538d aa3e
000002c0: c4f5 b83e 307b 87bd 308c 0cbf 7762 dd3e
000002d0: 5c75 763f 52e1 093f 7464 c13e 66e1 5e3e
000002e0: 5c98 92be bec9 663f 166b 06bf cb7c 8e3e
000002f0: e0a3 75bd b0b4 44be c020 a53d 9dcc ac3e
00000300: c697 5a3f f8ba 783f 44d4 b23e 1d04 ad3e
00000310: 3ced 6b3f ecc2 0f3f 828b 10bf 63f8 b93e
00000320: 6c39 273f 3c19 f63e f298 163f d9b6 a43e
00000330: e89d 5cbe 6c47 d0be 98cb 6abf 1a1d 363f
00000340: 0081 70bc 0003 2f3f 76e6 27bf 3d7f cc3e
00000350: 001f 1a3f 3806 75be f8db 7bbf 3e96 3a3f
00000360: 0056 3e3d e047 3cbd 704d 38be 87b9 fa3e
00000370: 2062 51bd b415 20bf 444b 4cbf 08c0 0c3f
00000380: 6453 483f 680d 1bbf 76cf 103f b7e9 a83e
00000390: cc31 cabe 90f2 d23e f8bc 4f3f fe9a 133f
000003a0: 0458 27bf b0d1 273e c0d7 5dbf 72e9 1b3f
000003b0: 4c67 2b3f e01a c73d 8ee7 083f 7579 903e
000003c0: 3aef 6cbf 8057 8ebc 00f3 67bd e7e6 03be
000003d0: e82a 1abf 2aa8 063f 6633 20bf 49de b73e
000003e0: c04d f13c ac25 5cbf e059 5b3d ae5d 3ebe
000003f0: 0809 d5be c4d5 f4be ac09 eb3e d2d7 623e
0.4028926 -0.32917464 -0.2867658 0.13393894 -0.14371336 0.8625591 0.52578866 0.26436666
-0.5911392 0.9757414 -0.7709539 0.57626987 0.4564575 -0.64009416 0.57210255 0.30560288
0.95645726 0.5078647 0.6810391 0.47080436 -0.85795176 0.894248 0.24094939 0.23433664
0.22412252 0.93403614 -0.61872923 0.37255302 0.6611637 0.5682665 -0.6047027 0.34228572
-0.37366128 0.2068212 -0.50154054 0.35832283 -0.966511 0.59728265 -0.5640273 0.3899453
-0.83671606 0.60197186 -0.43264985 0.22367558 0.5978339 0.8652036 -0.6302618 0.41197988
-0.49983096 0.98922515 0.9951972 0.77519965 0.30856657 -0.17790306 -0.5041908 0.4050373
-0.21183455 -0.06908059 -0.9473673 0.8426794 -0.09663367 -0.50136375 -0.34174168 0.18115544
-0.8636968 0.4398644 0.74762785 0.49988028 -0.88931787 -0.8974689 -0.32216847 0.29777083
0.7343824 -0.6611084 0.49508643 0.26295564 0.12760282 -0.6422548 -0.8244021 0.57042325
-0.45180058 -0.33180773 0.69864154 0.47186878 0.16948164 -0.120214224 -0.7379935 0.6795629
-0.743121 -0.06347251 -0.5534091 0.2893876 0.27117467 0.92791104 0.46400654 0.22638384
-0.82546186 0.87375057 0.22365713 0.19337058 0.6865556 0.47814095 0.63896 0.37334338
-0.7626736 -0.7155049 -0.4823873 0.27471718 0.5525745 -0.43977666 0.63767314 0.37786594
0.019890904 -0.5375664 -0.77585185 0.55225 -0.2781371 -0.823516 -0.12201142 -0.12638898
-0.12982154 0.3683691 -0.25782073 0.21717188 -0.19306326 0.7359451 0.82112956 0.5553957
-0.5689124 0.25804412 -0.37552822 0.1477632 -0.53317773 0.39236844 0.02037394 -0.12716143
0.84391475 -0.8519579 -0.509475 0.3805633 0.7743585 -0.45945418 0.06881297 -0.14494407
0.73302364 -0.28061736 0.93218386 0.6656395 -0.037496805 -0.77827215 0.05601406 -0.20690666
-0.09598899 -0.059940577 -0.80530214 0.7917526 -0.93104243 0.7214719 -0.96383667 0.7685926
0.7608843 0.74874187 0.72227776 0.5035554 -0.73763824 -0.79183304 0.8221687 0.6025778
-0.24892628 0.6490519 0.98393965 0.72284377 0.66867375 0.18191266 -0.59015036 0.33310947
0.36125004 -0.06615293 -0.5490141 0.43239185 0.96272826 0.53859437 0.37771952 0.2176567
-0.28631866 0.90151584 -0.5250715 0.27829584 -0.059970737 -0.19209552 0.08062887 0.33749858
0.8538784 0.9716029 0.3492757 0.337922 0.92158866 0.561568 -0.5646287 0.36322317
0.65321994 0.48066127 0.58827126 0.32170752 -0.21544611 -0.4067949 -0.9171691 0.71138155
-0.0146791935 0.6836395 -0.6558603 0.39940825 0.6020355 -0.23928154 -0.9838252 0.728855
0.046468735 -0.045966983 -0.1799829 0.4896967 -0.05111897 -0.62533116 -0.79802346 0.54980516
0.78252244 -0.6056733 0.5656656 0.3299081 -0.39491117 0.41200686 0.8114772 0.57658374
-0.65368676 0.16388583 -0.86657333 0.60903084 0.66954494 0.09721923 0.53478324 0.28217664
-0.9255253 -0.017375708 -0.056628227 -0.12881051 -0.6022172 0.5260035 -0.6257843 0.35911778
0.02945602 -0.8599498 0.05355251 -0.18590423 -0.41608453 -0.4781934 0.45905817 0.22152641
