experiments/OneLinParamW1dDiscreteInterpolation/SdfSamples/model_cylinder_0.6.npz (npz, 50605 bytes, 2 tensors)

pos f4 [929, 4]
0	0x3ef5b890	0.47992373
1	0xbcf30900	-0.029667377
2	0xbed71f3c	-0.42016017
3	0x3d1b0fc0	0.037856817
4	0x3ef6b238	0.48182845
5	0x3d9d3fa0	0.07678151
6	0x3e102a38	0.14078605
7	0xbdc8c118	-0.09802455
8	0x3ecd45f8	0.40092444
9	0x3e4f3a08	0.20236981
10	0x3ea66be0	0.32504177
11	0xbdabc2d8	-0.08386773
12	0x3bd1c200	0.0064013004
13	0x3ee91d88	0.45530343
14	0xbf191616	-0.59799325
15	0xbb014500	-0.0019724965
16	0x3d3c9660	0.046041846
17	0xbf0d63bc	-0.5523031
18	0x3f1d4fee	0.6145009
19	0x3c84e6c0	0.016223311
20	0xbea154a4	-0.31509888
21	0xbe2a3050	-0.16619992
22	0x3f19dc44	0.60101724
23	0x3da0fd50	0.078608155
24	0xbf101ebe	-0.5629691
25	0x3f40ec50	0.75360584
26	0xbe58a270	-0.21155715
27	0x3ab87200	0.0014072061
28	0x3e1764b8	0.14784515
29	0x3e3e0640	0.18557072
30	0xbf080af0	-0.5314169
31	0xbd463f90	-0.04840046
32	0x3eeb4304	0.45949566
33	0xbeb77404	-0.358307
34	0xbec4e424	-0.38455307
35	0xba56d400	-0.00081950426
36	0x3eddc678	0.43315482
37	0xbef39344	-0.47573292
38	0xbea412e0	-0.3204565
39	0xbd7aa320	-0.061190724
40	0x3f2016a2	0.62534535
41	0x3f079e04	0.5297549
42	0x3e0f6090	0.1400168
43	0x3d273c10	0.040828764
44	0x3f073708	0.52818346
45	0xbda41f10	-0.08013737
46	0xbe9e96a0	-0.30974293
47	0x3c499e80	0.012305856
48	0x3ef7e008	0.4841311
49	0x3ddcc9d0	0.1078068
50	0xbecb6594	-0.39725935
51	0x3cd71900	0.026257038
52	0x3f26b8d4	0.65125775
53	0xbe0bb8f8	-0.13644779
54	0xbe734778	-0.23757732
55	0x3dbef3d0	0.09323847
56	0x3ebae388	0.36501718
57	0xbe3ebb90	-0.18626237
58	0xbf07fe22	-0.5312215
59	0x3d367130	0.044541538
60	0x3f170fa2	0.5900823
61	0x3f508938	0.8145938
62	0x3ea3b358	0.31972766
63	0x3d91af80	0.07113552
64	0xbf0a1fbc	-0.5395467
65	0xbf3a0afe	-0.7267302
66	0xbeccb6b0	-0.3998313
67	0x3d928758	0.07154721
68	0x3ec1b828	0.37835813
69	0xbf68096a	-0.90639365
70	0xbf001682	-0.50034344
71	0x3cdf98c0	0.027294517
72	0xbf1a350a	-0.6023718
73	0x3f67fdf2	0.90621865
74	0xbde7b910	-0.11314595
75	0x3c5373c0	0.012906015
76	0x3ecf739c	0.4051789
77	0x3f34c238	0.70608854
78	0xbf0554a8	-0.520823
79	0x3d7538c0	0.059868574
80	0xbe3e7ea0	-0.18602991
81	0xbe27e898	-0.16397321
82	0xbef9a88c	-0.48761404
83	0xbd9ff570	-0.07810485
84	0x3e4b0f68	0.19830096
85	0xbeb039d0	-0.34419107
86	0xbf012114	-0.504411
87	0xbd6d9b60	-0.058009505
88	0xbea9e9d8	-0.3318622
89	0x3bad8c00	0.0052962303
90	0x3ede4560	0.43412304
91	0xbd5b6310	-0.05356127
92	0x3ea2cc20	0.3179636
93	0x3eb0fe3c	0.34568965
94	0x3ec6f628	0.38859677
95	0xbdc87dc8	-0.09789616
96	0xba230000	-0.00062179565
97	0xbf3824d6	-0.7193121
98	0xbf01c96e	-0.5069798
99	0xbdbe8128	-0.09301978
100	0xbe276d68	-0.16350329
101	0x3d00cd20	0.031445622
102	0x3ef6e8d8	0.4822452
103	0xbdb9f0a8	-0.09079105
104	0x3e24a130	0.16077113
105	0xbf429942	-0.760151
106	0xbf0ac32c	-0.5420406
107	0xbd0dcd00	-0.03461933
108	0xbd9be050	-0.076111436
109	0xbdfb1d70	-0.12261474
110	0xbf114ab4	-0.5675461
111	0xbce03da0	-0.027373135
112	0x3f185b6e	0.5951451
113	0xbf0cbb2e	-0.54973114
114	0xbe4cde68	-0.20006716
115	0x3ce45600	0.02787304
116	0xbf0da1cc	-0.5532501
117	0xbf1601ae	-0.58596313
118	0xbe9d4608	-0.30717492
119	0x3d065e70	0.032804906
120	0xbf0196f4	-0.5062096
121	0x3dae3d80	0.08507824
122	0x3ede802c	0.43457162
123	0x3d898a78	0.06715864
124	0xbf0137c0	-0.5047569
125	0x3ec8534c	0.3912605
126	0xbc6ded00	-0.014521837
127	0xbdc2a150	-0.09503424
128	0xbf146ace	-0.5797547
129	0xbdb7adf0	-0.08968723
130	0xbd3ef120	-0.046616673
131	0xbc968560	-0.018374145
132	0x3f088ebe	0.5334281
133	0x3f6fce88	0.93674517
134	0xbd57e9c0	-0.052713156
135	0xbd8304a8	-0.063973725
136	0x3f103424	0.5632956
137	0x3f665652	0.89975464
138	0xbe98b620	-0.2982645
139	0x3d192450	0.037388146
140	0x3e427ae0	0.18992186
141	0xbf2d07f6	-0.6759027
142	0x3f16fc10	0.58978367
143	0x3ca0a2a0	0.019608796
144	0xbf09dafa	-0.53849757
145	0xbf7e7f92	-0.99413407
146	0xbe9f5468	-0.31119084
147	0x3cb3cc60	0.02194804
148	0xbe919880	-0.2843666
149	0x3f1b404a	0.6064497
150	0x3f12860a	0.5723578
151	0x3d202ea0	0.039106965
152	0x3f0bd528	0.54622126
153	0xbd804650	-0.06263411
154	0x3c0b1b80	0.008490443
155	0xbd5c01f0	-0.053712785
156	0x3e537128	0.20648634
157	0x3f7a750e	0.9783486
158	0xbf21ccd8	-0.6320319
159	0x3d84edd0	0.06490672
160	0xbed92694	-0.42412245
161	0x3f180a96	0.5939115
162	0xbeb5da20	-0.3551798
163	0xbd3faf30	-0.04679793
164	0xbed2c3a8	-0.411649
165	0x3eda89b0	0.42683172
166	0xbee2fa34	-0.44331515
167	0x3ba2b500	0.0049654245
168	0x3f264226	0.64944685
169	0x3e8845dc	0.26615798
170	0xbe70e110	-0.23523355
171	0x3db9d3b8	0.09073585
172	0xbe9eba64	-0.3100158
173	0x3e981dac	0.29710138
174	0x3ed59d1c	0.41721427
175	0xbda44738	-0.080213964
176	0xbf0fd9e4	-0.5619185
177	0x3d261520	0.04054749
178	0x3ea8a418	0.32937694
179	0x3d524810	0.051338255
180	0xbf10e8ca	-0.5660521
181	0x3f7c6dca	0.98605025
182	0xbeac7268	-0.33681035
183	0x3d7057f0	0.058677614
184	0xbd9175b0	-0.07102525
185	0x3dbf73a0	0.093482256
186	0x3f2a7bda	0.6659523
187	0x3d8ece20	0.06972909
188	0x3eb9bebc	0.3627833
189	0xbefdc700	-0.49565887
190	0x3f067aa6	0.52530897
191	0x3d1d4ed0	0.03840524
192	0x3eb123a8	0.34597516
193	0x3e076068	0.1322037
194	0xbed27890	-0.41107607
195	0xbd806d40	-0.06270838
196	0x3d3f4aa0	0.046702027
197	0x3d805780	0.06266689
198	0xbf24203e	-0.641117
199	0x3d2f5f80	0.042815685
200	0xbef05f9c	-0.46947944
201	0xbf779e74	-0.96726155
202	0xbeccaefc	-0.39977252
203	0x3c883580	0.016627073
204	0xbd016320	-0.031588674
205	0xbb8d7400	-0.004316807
206	0x3f259ea4	0.6469519
207	0x3d4378d0	0.047722638
208	0x3e6a2fc8	0.2286979
209	0xbebfaad4	-0.3743502
210	0xbf19574e	-0.5989884
211	0x3d289a60	0.04116285
212	0x3eef7d98	0.46775508
213	0x3e56cff8	0.20977771
214	0x3eca76c4	0.39543736
215	0x3c4cec80	0.012507558
216	0x3ebb0684	0.3652841
217	0x3f4244f6	0.75886476
218	0xbeba4258	-0.3637874
219	0xbdacfd50	-0.08446753
220	0xbf238862	-0.6387998
221	0x3f12a4e8	0.57282877
222	0xbd987e30	-0.07445943
223	0x3d30a380	0.043124676
224	0x3f011146	0.5041698
225	0x3f00603e	0.50146854
226	0xbea3bf88	-0.31982064
227	0xbb412100	-0.0029469132
228	0xbe4c6df0	-0.19963813
229	0x3f4d5da0	0.80220985
230	0xbf26476a	-0.6495272
231	0x3da2d8e0	0.07951522
232	0x3f06b174	0.5261452
233	0x3ebed390	0.37270784
234	0xbe678f18	-0.2261318
235	0xbcdfcaa0	-0.027318299
236	0xbdc5c470	-0.09656608
237	0x3a493800	0.0007675886
238	0x3f0ce704	0.5504
239	0xbd28ba10	-0.041193068
240	0xbf310094	-0.6914151
241	0x3f5645b2	0.83700097
242	0xbdd20940	-0.102556705
243	0x3dcab5e0	0.09897971
244	0xbdb59c80	-0.08867741
245	0xbf0f116c	-0.5588596
246	0x3f22f824	0.6365988
247	0x3d2f15d0	0.04274541
248	0xbe4928c8	-0.19644463
249	0x3eba5bbc	0.36398113
250	0x3f1b361e	0.6062945
251	0x3d18e260	0.037325263
252	0x3e8b5624	0.27214158
253	0x3e5b39a0	0.21408701
254	0x3ee2f860	0.4433012
255	0xbda37dd8	-0.07982987

neg f4 [2500, 4]
0	0x3e8437a8	0.25823712
1	0x3f0ebe56	0.5575918
2	0xbe6739c8	-0.22580636
3	0xbe83908e	-0.25696224
4	0x3f401986	0.75038946
5	0x3df393f0	0.11893451
6	0xbeeeb324	-0.46621048
7	0x3e911cd8	0.2834232
8	0x3eb292c8	0.3487761
9	0xbddb5300	-0.1070919
10	0xbe3a5d00	-0.18199539
11	0xbe538dc6	-0.20659551
12	0x3f322856	0.695928
13	0x3c8f0300	0.017457485
14	0xbf1f9e36	-0.62350786
15	0x3eab34ae	0.3343863
16	0xbf3c17e0	-0.7347393
17	0x3f09bbde	0.5380229
18	0xbee2f224	-0.44325364
19	0x3e842428	0.25808835
20	0xbf3f2b5e	-0.7467555
21	0xbf6046aa	-0.87607825
22	0xbe6a2ae0	-0.22867918
23	0x3e395430	0.18098521
24	0x3e821790	0.25408602
25	0xbed82fb4	-0.42223895
26	0xbec706cc	-0.38872373
27	0xbe0adb2a	-0.13560167
28	0xbec32184	-0.38111508
29	0xbf64b56a	-0.89339316
30	0xbe96101c	-0.29309165
31	0xbdf42888	-0.11921793
32	0xbf42b324	-0.76054597
33	0xbea49c58	-0.3215053
34	0x3d8a5600	0.067546844
35	0x3e2776ec	0.16353959
36	0xbf7c3692	-0.9852077
37	0x3f44316a	0.766379
38	0xbf61cb56	-0.8820089
39	0x3f38eb0c	0.72233653
40	0xbd98cff0	-0.07461536
41	0x3f690236	0.91019
42	0x3e8eb764	0.2787429
43	0xbe9f757a	-0.31144315
44	0x3e8a2dd8	0.269881
45	0xbd238ba0	-0.03992808
46	0x3f3793a2	0.71709645
47	0x3e2a3070	0.1662004
48	0xbf60edec	-0.8786304
49	0x3ec7f41c	0.39053428
50	0x3e540220	0.20703936
51	0x3e9afab8	0.30269408
52	0xbedc2910	-0.43000078
53	0x3ed146a0	0.40874195
54	0xbf1a1dbe	-0.6020163
55	0x3e0f2b50	0.13981366
56	0xbf12690c	-0.5719154
57	0xbf53d9f4	-0.82754445
58	0x3f2610f8	0.6486964
59	0x3e879506	0.26480883
60	0xbe4c7c50	-0.19969296
61	0xbf14a566	-0.5806488
62	0x3f2f5edc	0.6850412
63	0x3de88ec8	0.11355358
64	0xbf44ca7e	-0.7687148
65	0xbe183a08	-0.14865887
66	0xbf70d5a6	-0.94076
67	0x3f1d6946	0.6148876
68	0xbf6cf9c8	-0.92568636
69	0x3e8d0a4c	0.27546918
70	0xbed280e4	-0.4111396
71	0x3ed36554	0.41288245
72	0xbf01fa1c	-0.5077226
73	0x3d3a95a0	0.04555285
74	0xbf24a1a2	-0.6430913
75	0x3e609f90	0.21935868
76	0x3ecddb48	0.4020636
77	0xbf29a7a0	-0.662714
78	0x3f31cc38	0.6945224
79	0x3e4f5dd4	0.20250636
80	0x3e97db84	0.29659665
81	0xbca2c200	-0.019867897
82	0xbf7fd5c6	-0.9993557
83	0x3ee28780	0.44244003
84	0xbf44dd3a	-0.76900065
85	0xbefc57c0	-0.49285698
86	0x3f4d337e	0.80156696
87	0x3f02c3a2	0.5107976
88	0x3e46d1d0	0.19415975
89	0xbf142f68	-0.57884836
90	0x3e5ae4d8	0.2137636
91	0xbe9f5876	-0.31122178
92	0x3f5edb6a	0.8705355
93	0x3e462b88	0.19352543
94	0x3f28cd22	0.6593801
95	0x3efbf06c	0.49206865
96	0xbe657238	-0.22406852
97	0xbf377758	-0.7166648
98	0xbf5986fc	-0.84971595
99	0x3e8eb9fc	0.2787627
100	0xbf3a606a	-0.72803366
101	0xbf77161e	-0.96518123
102	0x3db445d0	0.08802378
103	0x3e088924	0.13333565
104	0xbf5a3852	-0.8524219
105	0x3f77de84	0.96823907
106	0x3f37d956	0.71816003
107	0x3f03be1c	0.5146196
108	0xbea776b0	-0.3270774
109	0x3f39c39a	0.7256409
110	0xbeac9e70	-0.33714628
111	0xbe05653c	-0.13026899
112	0x3f4dae1a	0.8034378
113	0xbf5e5caa	-0.86860144
114	0xbf4edafe	-0.80802906
115	0x3f0a1b9c	0.5394838
116	0x3e8de7e0	0.2771597
117	0xbdce6cb0	-0.10079324
118	0x3e8fad4c	0.28061903
119	0xbe528470	-0.20558333
120	0xbeecc280	-0.46242142
121	0x3d191d20	0.03738129
122	0xbf1a0b6e	-0.6017369
123	0x3e22b53c	0.15889448
124	0x3f385848	0.72009706
125	0xbe1c4fe8	-0.15264857
126	0xbea9a030	-0.33130026
127	0x3e4546f8	0.19265354
128	0xbbad6e00	-0.005292654
129	0xbf19f982	-0.60146344
130	0x3f679fd8	0.9047828
131	0x3e9c0e84	0.30479825
132	0x3f611cc2	0.87934506
133	0x3f31b018	0.6940932
134	0xbec18cdc	-0.3780278
135	0x3eb6dd7e	0.3571586
136	0xbf4dd00c	-0.8039558
137	0x3f0d6b40	0.55241776
138	0x3f473b5c	0.7782495
139	0x3f04d8fa	0.5189358
140	0x3dc1da30	0.09465444
141	0x3e920408	0.285187
142	0xbdda0590	-0.10645592
143	0xbeea43d9	-0.4575489
144	0x3f7b7a6a	0.98233664
145	0xbf777428	-0.96661615
146	0x3f024810	0.5089121
147	0x3f019f28	0.5063348
148	0x3f4b34a4	0.793772
149	0x3e0ff1e0	0.14057112
150	0xbe94b54c	-0.2904457
151	0x3e7b2080	0.24524117
152	0x3e17f080	0.14837837
153	0xbe14b798	-0.1452316
154	0x3e171d90	0.14757371
155	0xbec80db4	-0.39072955
156	0xbe008a40	-0.12552738
157	0xbf45a5e2	-0.7720624
158	0x3f6ddfbc	0.92919517
159	0x3eacde98	0.33763576
160	0xbef343d0	-0.47512674
161	0xbefac5fc	-0.48979175
162	0x3f40cc5e	0.7531184
163	0x3e94b82e	0.29046768
164	0x3e5e6fa0	0.21722269
165	0x3edc9b08	0.4308703
166	0xbe4003f0	-0.18751502
167	0xbea0466e	-0.31303734
168	0xbf449cb0	-0.76801586
169	0xbf772070	-0.9653387
170	0x3e29ae00	0.16570282
171	0x3e3e2500	0.18568802
172	0x3f2fb54e	0.68636024
173	0x3eeafe24	0.4589702
174	0x3e8ca044	0.27466023
175	0x3e0e9e4c	0.13927573
176	0x3e605170	0.21906066
177	0xbf1e4e00	-0.6183777
178	0x3ea989fc	0.33113086
179	0xbe4fd696	-0.20296702
180	0x3e71cb68	0.2361275
181	0x3f2bfff2	0.67187417
182	0xbeb29d0c	-0.34885442
183	0xbe3708fe	-0.17874524
184	0x3ed877fc	0.4227904
185	0xbf207cdc	-0.6269052
186	0xbf45be44	-0.7724345
187	0x3e8fa71a	0.28057176
188	0x3dde3680	0.10850239
189	0xbf6fcd04	-0.93672204
190	0x3e7bce58	0.24590433
191	0xbea995e9	-0.33122185
192	0xbf721504	-0.9456332
193	0xbf578d6a	-0.84200156
194	0xbe370d60	-0.17876196
195	0x3eb98a0e	0.3623814
196	0x3f328852	0.6973926
197	0x3de90a80	0.11378956
198	0xbeb02104	-0.3440019
199	0x3e35e228	0.17762053
200	0x3ef471c0	0.47743034
201	0xbf2225ee	-0.63339126
202	0x3f776eb4	0.96653295
203	0x3ef4bef4	0.47801936
204	0x3f58800a	0.8457037
205	0xbe8e5c24	-0.27804673
206	0xbcc83dc0	-0.024443507
207	0x3e7bf654	0.24605685
208	0x3e715448	0.23567307
209	0xbf59133e	-0.84794986
210	0xbf41a14c	-0.75636744
211	0x3e44d8c8	0.1922332
212	0xbf72a282	-0.9477922
213	0xbed9e794	-0.42559493
214	0x3ee83720	0.45354557
215	0x3ee6c4d4	0.45072043
216	0xbf2b4980	-0.6690903
217	0x3d91b6d0	0.07114947
218	0x3e7263e0	0.23670912
219	0x3de0b8c0	0.10972738
220	0xbf3efbea	-0.7460314
221	0x3e626350	0.22108197
222	0x3f5b811c	0.8574388
223	0x3f095bde	0.53655803
224	0xbe90583c	-0.28192317
225	0xbeb56430	-0.35428
226	0x3f39a50c	0.72517467
227	0x3e365240	0.17804813
228	0x3f0e99ae	0.55703247
229	0xbe186618	-0.14882696
230	0xbf42867c	-0.75986457
231	0x3eaf3090	0.34216738
232	0x3f5ae5f8	0.85507154
233	0xbe712588	-0.23549473
234	0xbd971e30	-0.07378805
235	0x3e843944	0.2582494
236	0x3e982b1c	0.2972039
237	0xbf46c0a0	-0.7763767
238	0xbf451944	-0.7699168
239	0x3e66b228	0.22528899
240	0xbf5a9880	-0.85388947
241	0x3c8427c0	0.016132236
242	0xbefa060c	-0.48832738
243	0x3ec46f58	0.383662
244	0x3e93ec5c	0.28891265
245	0x3d2e4a80	0.042551517
246	0xbf79d91a	-0.97596896
247	0x3ed5ee54	0.41783392
248	0x3f39d62c	0.72592425
249	0x3dae8b70	0.08522689
250	0x3eb5bb50	0.3549447
251	0x3e550c30	0.2080543
252	0xbf7ca21c	-0.9868486
253	0xbf1924c0	-0.598217
254	0x3edaf180	0.42762375
255	0x3ef376ac	0.47551477
