experiments/OneLinParamW1dDiscreteInterpolation/SdfSamples/model_sphere_0.4.npz (npz, 40767 bytes, 2 tensors)

pos f4 [260, 4]
000000 d4 96 c6 3e 58 30 6d 3e 00 68 15 be 1c 14 99 3d
       0.38786948 0.23162973 -0.14590454 0.07474539
000010 80 e5 ed 3d 24 b9 c4 be 60 61 42 be 58 50 34 3d
       0.11616039 -0.384225 -0.18982458 0.044021934
000020 40 bc d7 3c f0 63 19 be 3c 19 8f 3e b0 8a a7 bd
       0.026334882 -0.1497953 0.2794894 -0.081807494
000030 e0 2c e7 bd 98 01 eb 3e 48 df 0b 3e 94 71 bc 3d
       -0.11287856 0.45899653 0.13659394 0.09201351
000040 20 dc 4b 3e 80 fc 94 be 10 1f a4 3d b8 6c 1d bd
       0.1990819 -0.29098892 0.08013737 -0.03843376
000050 c0 a2 9e 3d 30 93 e5 bd e0 3a 91 be 9c bb ae bd
       0.07745886 -0.112097144 -0.2836523 -0.085318774
000060 90 e9 b3 3d 38 57 b8 3e 98 f9 2a 3e 80 47 d4 3b
       0.08784783 0.36004043 0.16696775 0.00647825
000070 38 4d 40 be 24 e6 99 3e 50 4e 5c be a0 6a 6f 3c
       -0.18779457 0.30058396 -0.21514249 0.014612824
000080 c8 8c b0 be 40 a2 3e 3e d0 a2 d8 3d 40 29 c1 3b
       -0.34482408 0.18616581 0.10577929 0.00589481
000090 b8 7b 14 3e 88 3c 98 3e 00 fa 4b 3c d4 38 8d bd
       0.1450032 0.29733682 0.012449741 -0.06895605
0000a0 bc ee 99 3e 48 57 ab be c0 d8 e1 bc 08 b7 4f 3d
       0.30064952 -0.33465028 -0.027569175 0.05071166
0000b0 40 7e d5 3e 20 d0 2d 3d 30 c1 e9 bd 68 e2 0c 3d
       0.41697884 0.04243481 -0.11413801 0.034395605
0000c0 14 86 cf be c0 52 f4 3c b0 61 b3 bd 80 ff 80 3c
       -0.4053198 0.029824615 -0.08758867 0.015746832
0000d0 b8 e6 d4 3e 60 e4 22 3d 8c db 83 be a4 cf b9 3d
       0.41582274 0.039768577 -0.25753438 0.090728074
0000e0 00 01 ec bd 40 f8 1f 3e 00 8b e5 3e 60 59 b5 3d
       -0.11523628 0.15622044 0.4483261 0.088549376
0000f0 40 11 44 be cc 01 81 3e 80 bf 58 3e d0 e4 9d bc
       -0.19147205 0.25196683 0.21166801 -0.019274145
000100 60 cf b8 bd dc 2f ac 3e 18 70 91 be 40 36 4a 3d
       -0.09023929 0.33630264 -0.28405833 0.049368143
000110 b0 c9 50 3e 60 6c 3d 3e e8 2f b5 be b0 11 46 3d
       0.20389438 0.18498373 -0.35388112 0.048356712
000120 d0 ab cb be 70 1b 31 3e 40 aa e0 3d 70 40 42 3d
       -0.3977952 0.17295623 0.109699726 0.047424734
000130 c0 79 05 be 58 da 81 be 88 eb 5e be d8 f1 28 bd
       -0.13034725 -0.25361896 -0.21769536 -0.041246265
000140 c8 9e 70 be f8 31 6b be 80 a3 b1 be 1c 72 9f 3d
       -0.2349807 -0.2296828 -0.34695053 0.077854365
000150 38 24 16 3e f4 92 a7 3e f0 14 f3 bd 30 25 b6 bc
       0.14662254 0.32729304 -0.11869228 -0.02223453
000160 80 76 7b be d8 e4 b1 be f0 f0 f0 bd 00 b9 29 3d
       -0.24556923 -0.34744906 -0.11764705 0.041436195
000170 44 18 a8 be a0 eb 71 3e c0 7e a4 bc c0 07 a3 3b
       -0.32831013 0.2362504 -0.02007997 0.004975289
000180 08 37 77 be 28 93 00 be 2c eb a5 be 40 ba bd 3c
       -0.24142087 -0.12556136 -0.32405984 0.0231601
000190 e8 78 31 be 5c 36 d9 3e f0 f9 e8 3d 90 d6 93 3d
       -0.17331278 0.42424285 0.11375797 0.07218659
0001a0 b0 63 3a 3e 60 89 d2 be a0 62 3c be 68 da af 3d
       0.1820209 -0.41120434 -0.18396997 0.085865796
0001b0 f0 d3 f3 bd 58 c9 bc 3e 90 60 26 be 10 1d a5 3c
       -0.11905658 0.36872363 -0.16247773 0.02015546
0001c0 f0 80 a0 be a0 80 12 3e 94 9a 99 be b8 01 69 3d
       -0.31348372 0.14306879 -0.30000746 0.056886405
0001d0 c0 cb ba 3c 90 af ea be b8 ae 16 be 10 d6 a7 3d
       0.022802234 -0.4583707 -0.14715087 0.08195126
0001e0 20 a9 a2 be f0 3a 3d 3e c0 5e 09 be 60 5b 0f bc
       -0.31769657 0.18479514 -0.1341505 -0.008749813
0001f0 30 3c 1c be 90 4e 10 be 7c 40 91 3e f8 40 46 bd
       -0.15257335 -0.14092469 0.2836951 -0.048401803
000200 e0 91 27 bd 6c 58 c9 3e 70 15 95 be ec 6b ba 3d
       -0.0409106 0.39325273 -0.29117918 0.09102616
000210 c0 05 7b 3e 90 4b 86 bd b0 6a 88 3e 18 4d 03 bd
       0.24513912 -0.06557381 0.26643896 -0.032055944
000220 b8 38 5e 3e 24 ed b9 3e b8 0a 4c be 08 7c 8a 3d
       0.21701324 0.36313736 -0.19925964 0.06761938
000230 30 0b 57 be 5c 9d aa 3e e0 70 99 3e 34 6c c2 3d
       -0.21000361 0.3332318 0.2996893 0.09493294
000240 dc 56 c4 3e a0 7a d2 bd 10 9e 3a be 60 e4 16 3d
       0.38347518 -0.10277295 -0.18224359 0.03683889
000250 20 28 10 3d dc 17 aa 3e 68 fe 93 3e 88 0f 2b 3d
       0.035194516 0.33221328 0.28905034 0.04176286
000260 b0 66 d3 bd 50 87 b0 be e8 35 4b 3e 80 08 34 3c
       -0.103223205 -0.34478235 0.19844782 0.010988355
000270 e0 9d 77 be e8 6c 85 be 9c 1f ab be cc 1c b4 3d
       -0.24181318 -0.2605965 -0.33422554 0.08794555
000280 e8 90 3b 3e c8 1a 42 be 7c a7 91 be 20 66 47 bc
       0.18316996 -0.18955529 -0.28448093 -0.012170345
000290 08 af 26 be e0 10 9f be b0 95 c6 3d 28 e5 13 bd
       -0.16277707 -0.31067562 0.096965194 -0.036107212
0002a0 b0 a3 58 3e 1c ed 87 be a8 41 54 3e 00 86 13 bb
       0.21156192 -0.26548088 0.20728171 -0.002251029
0002b0 e8 28 01 3e 68 a4 13 be fc 7a 88 3e 10 ed 92 bd
       0.12613261 -0.14418185 0.2665633 -0.07174122
0002c0 18 11 2d 3e d8 eb 70 be 30 7f bd 3d 60 64 c4 bd
       0.16901052 -0.23527467 0.09252775 -0.095894575
0002d0 e0 bb 4b 3d 20 e5 80 3e d0 c7 91 3e e0 c8 88 bc
       0.04973972 0.25174809 0.28472757 -0.016697347
0002e0 68 02 53 3e f8 87 10 3e 10 64 85 be 30 18 20 bd
       0.20606387 0.14114368 -0.26052904 -0.039085567
0002f0 60 8f e4 be c8 af 09 be a0 be 08 3e 08 02 ae 3d
       -0.44640636 -0.13445961 0.13353968 0.08496481
000300 8c 32 9e 3e 80 dc fe bd 60 fe 0c 3d a8 61 85 bd
       0.3089794 -0.12444401 0.03442228 -0.06512767
000310 38 d0 46 3e d8 53 aa be 00 7f 19 bc 20 e7 70 bc
       0.19415367 -0.33267093 -0.009368658 -0.014703542
000320 8c 20 ab 3e c0 08 4c bd 00 62 06 3c c0 da 7d bd
       0.3342327 -0.049813032 0.008202076 -0.061976194
000330 98 3a 3b be 84 78 b4 3e 00 09 e3 bc 00 d5 ff ba
       -0.1828407 0.35248196 -0.027714252 -0.0019518435
000340 40 22 30 bd 00 36 0f be 38 05 b6 be 20 ec 7e bc
       -0.043001413 -0.13985443 -0.35550857 -0.015559226
000350 c8 1f 72 3e 60 be df 3d 80 ae 95 3e 60 76 0a bc
       0.23644936 0.10924983 0.29234695 -0.008451074
000360 18 ec e1 be 10 f1 e0 bd 00 ad 3d bd d0 c2 69 3d
       -0.44125438 -0.10983479 -0.046307564 0.057070553
000370 90 4c 10 3e c0 f5 64 3d 24 7a cd 3e d0 93 ed 3c
       0.14091706 0.055898428 0.40132248 0.029001147
000380 70 eb d0 3e 00 98 1e 3c 20 b5 6c 3d 40 68 48 3c
       0.40804625 0.009679794 0.05778992 0.012231886
000390 c8 0f d0 be f8 49 78 3e 30 67 1f be b0 06 c9 3d
       -0.4063704 0.24246967 -0.15566707 0.09815729
0003a0 00 0b a8 3d 6c dd 99 3e c0 0e 44 3d 74 b9 ad bd
       0.08205223 0.30051744 0.04786563 -0.08482638
0003b0 0c 94 9e be b0 b2 9d bd e8 d5 b2 be 90 c9 95 3d
       -0.30972326 -0.077000976 -0.34928823 0.073138356
0003c0 b0 0c 5c be 00 8f f3 3d 18 6e 91 be 90 ae c8 bc
       -0.21489215 0.118925095 -0.28404307 -0.0244973
0003d0 50 45 45 3e a0 88 11 be a0 86 83 3e a8 1c 48 bd
       0.19264722 -0.14212275 0.25688648 -0.048855454
0003e0 84 69 8e 3e 98 1c 03 3e d0 e9 2a 3e 30 f7 51 bd
       0.27814877 0.12803876 0.16690755 -0.051261127
0003f0 b0 e8 1a 3e 30 7b a7 3d 90 db 8a be a8 85 a1 bd
       0.15127826 0.08177793 -0.27120638 -0.07886821

neg f4 [2500, 4]
000000 28 19 5d bf 22 95 4c 3f c0 79 4b 3e de 17 4b 3f
       -0.8636651 0.7991506 0.19870663 0.79333293
000010 b4 5f 44 3f 38 bc 92 be 7e 06 06 bf ec 69 12 3f
       0.7670853 -0.28659225 -0.52353656 0.57192874
000020 18 1b c1 be 88 fd 7f bf 8a c3 40 3f f4 47 68 3f
       -0.37715983 -0.99996233 0.7529837 0.9073479
000030 42 1e 74 3f a0 3e 03 bd 10 19 04 3f d2 49 2f 3f
       0.9535867 -0.032042146 0.5160074 0.68472016
000040 fa 56 60 bf e0 94 19 bd a0 54 0f bd b3 a5 f4 3e
       -0.87632716 -0.037495494 -0.034992814 0.47782668
000050 90 94 29 bf 60 48 78 bd 10 72 7b bf 5c 48 49 3f
       -0.66242313 -0.060615897 -0.9822092 0.78626037
000060 c2 76 18 bf 4c 00 61 bf d0 6e 1a 3e c8 1e 2c 3f
       -0.5955621 -0.8789108 0.15081334 0.6723447
000070 e8 08 02 be b8 da 0a 3e 42 8d 7d bf d6 92 1b 3f
       -0.1269871 0.13559997 -0.9904367 0.6077093
000080 88 59 e6 be e4 f2 a7 be 40 54 56 be 1e 81 47 3e
       -0.44990182 -0.32802498 -0.20930576 0.19482848
000090 e0 d4 06 bd 58 f0 1b 3e 80 b7 24 3f 69 27 86 3e
       -0.032917857 0.15228403 0.643425 0.26201943
0000a0 8e fa 7f 3f 0c bb ac 3e 48 66 f3 be ee e6 41 3f
       0.9999169 0.33736455 -0.47538972 0.75742996
0000b0 4c c1 2b 3f 94 7b f1 3e 00 92 69 3f d6 a8 53 3f
       0.6709182 0.47164595 0.91238403 0.826795
0000c0 7c b0 49 bf a4 8d 1f 3f 5c fe a7 be 92 23 28 3f
       -0.7878492 0.623255 -0.32811248 0.65679276
0000d0 f6 62 29 3f 80 5d c6 3c d2 d2 14 3f 75 53 f6 3e
       0.6616663 0.024214506 0.58134186 0.48110548
0000e0 56 3a 22 bf ac 5c cc 3e 00 31 ec bd f3 2b b7 3e
       -0.63370264 0.39914453 -0.115327835 0.35775718
0000f0 c0 ff 41 be 08 a9 78 bf 9c a1 20 bf e0 93 45 3f
       -0.18945217 -0.9713292 -0.62746596 0.77178764
000100 fe 56 22 bf d0 76 d8 3e 48 73 23 bf b8 20 18 3f
       -0.6341399 0.42278147 -0.6384778 0.59424925
000110 70 f4 da 3e 86 2c 25 3f 28 3a a0 be 6d af de 3e
       0.42764616 0.6452106 -0.3129437 0.43493214
000120 4e 46 24 bf 3c e5 ea be 42 9b 52 bf 20 61 3d 3f
       -0.64169776 -0.45878017 -0.82268155 0.73976326
000130 3c 66 1c 3f 00 8b c6 3d d0 75 0d 3e ae 6d 6f 3e
       0.610935 0.09694481 0.13814473 0.23381683
000140 68 94 e4 3e f8 44 7f 3e 44 ab 3b bf 71 d2 fc 3e
       0.44644475 0.24928653 -0.73308206 0.49379304
000150 40 7b c7 bd dc 20 c2 be 6c 34 44 3f 73 d5 eb 3e
       -0.09740305 -0.37915695 0.7664249 0.46061286
000160 c4 fc c3 be 90 6f 21 bf fa e5 04 3f 56 86 00 3f
       -0.38278782 -0.63060856 0.51913416 0.5020498
000170 14 92 6d 3f 40 d5 f9 3d 50 10 7f 3e ce 8d 11 3f
       0.9280102 0.12198877 0.24908566 0.56857
000180 a0 12 b6 be c0 5a 11 be f8 23 43 bf 8b f3 e7 3e
       -0.35561085 -0.14194775 -0.7622676 0.45302996
000190 5c f0 7d 3f f0 2c 71 be 9a 0c 68 bf 86 d6 76 3f
       0.99194884 -0.23552299 -0.9064423 0.96421087
0001a0 90 4b 18 be 20 44 25 3f ca 7e 76 3f 90 cd 44 3f
       -0.14872575 0.64557076 0.96287215 0.76876163
0001b0 70 f4 e4 bd 3e 93 71 3f 80 b9 7c 3c 86 e5 0c 3f
       -0.11179435 0.943653 0.015425086 0.55037725
0001c0 b2 d2 5d 3f 9c 34 b9 be 02 53 5b 3f 7c ff 5e 3f
       0.8664962 -0.3617295 0.85673535 0.8710859
0001d0 00 d9 f1 3d 1a 0d 6b bf 04 01 a0 3e fe b9 13 3f
       0.118089676 -0.91816866 0.31250775 0.57705677
0001e0 90 c1 61 bf e0 4b 42 be 5c b1 fc be d2 d3 20 3f
       -0.8818598 -0.18974257 -0.49354064 0.6282321
0001f0 f0 b9 06 bf 9c d7 fb 3e b8 c6 20 be 31 ae ac 3e
       -0.5262747 0.49187934 -0.15700805 0.33726647
000200 c0 bd 29 bf c0 e7 eb 3d a2 11 46 3f d8 1c 20 3f
       -0.6630516 0.11518812 0.77370656 0.6254401
000210 d0 9b 79 3f a0 71 a8 bd 72 d9 55 bf 4a f6 62 3f
       0.97503376 -0.08224797 -0.8353492 0.8865706
000220 28 fe e0 be f8 e5 e2 be f6 87 6e bf ca b1 38 3f
       -0.43943906 -0.44316077 -0.9317621 0.72146285
000230 a0 9e 3d bf 42 06 6c bf e6 50 41 3f 1c 68 80 3f
       -0.7407017 -0.9219705 0.75514066 1.0031772
000240 de 9b 7f bf f0 f4 26 be 48 97 29 3f d0 2d 4f 3f
       -0.9984721 -0.16304374 0.6624646 0.8092928
000250 76 34 63 bf b8 fc c6 be 14 7d 6d 3f 60 ff 70 3f
       -0.88751924 -0.38864684 0.9276898 0.9413967
000260 6c ee 13 bf a0 8d 10 bf 2e 4f 7f 3f 0a 2d 62 3f
       -0.5778568 -0.564661 0.99730194 0.88349974
000270 50 6e 0d 3f 62 57 4d bf 54 81 8e 3e 74 ea 1c 3f
       0.5524645 -0.8021146 0.27833045 0.6129525
000280 66 67 30 3f b6 f0 3e 3f de f1 38 bf aa a1 58 3f
       0.68907773 0.74586046 -0.7224406 0.8462168
000290 84 90 6f bf dc 8e 67 3f 1c 22 cc be a6 10 76 3f
       -0.9357989 0.9045236 -0.39869773 0.96119153
0002a0 b0 52 9c bd ea 96 0f 3f a6 70 79 bf 36 14 3a 3f
       -0.07632959 0.5608965 -0.9743751 0.7268709
0002b0 3c 42 05 3f 1e 72 31 bf 9c 3a bf be ea 3b 0b 3f
       0.5205419 -0.69314754 -0.37349403 0.54388297
0002c0 40 b9 47 3e 40 12 dc 3d e8 4a 39 be e8 8e e7 bd
       0.19504261 0.107456684 -0.1809498 -0.11306554
0002d0 2e 9c 07 bf e4 55 dc 3e 24 3f e8 3e 71 c7 d6 3e
       -0.52972686 0.4303428 0.45360672 0.41949037
0002e0 f8 38 35 be fa b8 6a bf 30 ca 11 be e2 6a 0b 3f
       -0.17697513 -0.916885 -0.14237285 0.54459965
0002f0 30 a1 6b be e6 22 12 3f 84 c9 98 be 25 69 91 3e
       -0.23010707 0.570845 -0.29841244 0.2840053
000300 1a 29 4f 3f 54 05 2a 3f 54 89 7c bf eb ea 84 3f
       0.8092209 0.6641438 -0.98647046 1.0384191
000310 e0 d9 ad 3e 88 5b 72 be ac db 58 bf b6 f5 0a 3f
       0.33955288 -0.23667729 -0.8471019 0.54281175
000320 20 30 5b bf e4 3e 30 3f 40 4a 17 3d 42 04 33 3f
       -0.8562031 0.68845963 0.036936045 0.6992837
000330 7a de 4b 3f 80 fc 93 be 60 2d 4f be 21 29 f1 3e
       0.7963635 -0.2890358 -0.20232153 0.4710169
000340 a8 6b 74 3e e4 a3 a3 3e b8 4f 9d be 04 ff d3 3d
       0.23869193 0.31960976 -0.30724883 0.10351375
000350 44 f2 af be ac ca 0e bf c4 e5 3a bf 64 b7 14 3f
       -0.34364522 -0.55778 -0.73006845 0.5809233
000360 be 97 1a bf 80 e6 71 bd a4 6c 9e be 7b ec 8f 3e
       -0.6038779 -0.059057713 -0.3094226 0.28110108
000370 b8 71 46 be a8 0d 75 3f 20 ea 5a bf 4a eb 65 3f
       -0.19379318 0.9572396 -0.85513496 0.8981215
000380 40 c2 2f 3d aa e7 51 bf 94 76 a6 3e b9 57 f7 3e
       0.04290986 -0.81994116 0.32512343 0.48309115
000390 80 95 70 3c 18 2a e6 3e 8c ce 80 be ec 3f ec 3d
       0.014684081 0.4495399 -0.25157583 0.1153563
0003a0 98 0c 70 3e b6 b2 1e 3f 40 c3 f2 3d ad ea 8b 3e
       0.23442304 0.6199144 0.11853647 0.2732748
0003b0 30 21 b8 3d 00 b5 40 bc 30 10 28 3f 6f 84 86 3e
       0.08990705 -0.011761904 0.656497 0.26272914
0003c0 94 c9 b3 be 80 db 29 bf 10 42 98 3e 83 9d d0 3e
       -0.3511473 -0.66350555 0.29737902 0.40745172
0003d0 40 ca c8 be 9c 80 ed 3e 90 9c 6d 3f 82 92 35 3f
       -0.39216805 0.46387184 0.9281702 0.7092668
0003e0 24 b1 94 be de e8 10 bf 76 ce 42 3f 4a 85 17 3f
       -0.29041398 -0.5660533 0.76096284 0.5918776
0003f0 f0 b9 e9 bd 90 c1 60 bf c0 2e a0 bc c5 9a f8 3e
       -0.11412418 -0.8779535 -0.019553542 0.4855558
