experiments/OneLinParamW1dDiscreteInterpolation/SdfSamples/model_sphere_0.6.npz (npz, 45428 bytes, 2 tensors)

pos f4 [585, 4]
0	0xbe83113c	-0.25599086
1	0xbeecd108	-0.46253228
2	0x3ecb6cbc	0.39731395
3	0x3d7b1c20	0.06130612
4	0x3d942030	0.07232702
5	0xbee687f8	-0.4502561
6	0xbedfca48	-0.43709016
7	0x3d01ba90	0.03167206
8	0xbe1d44d8	-0.15358293
9	0x3e66f158	0.22553003
10	0xbf0cdf6e	-0.55028427
11	0x3c68f440	0.01421839
12	0xbf17580c	-0.59118724
13	0x3cbaa300	0.022782803
14	0xbeaf36c0	-0.34221458
15	0x3daaf2b0	0.0834707
16	0xbe5754c8	-0.21028435
17	0x3d895c50	0.0670706
18	0x3f280bc4	0.6564295
19	0x3dbd87e8	0.09254438
20	0x3ed385f4	0.41313136
21	0x3ea98ff0	0.33117628
22	0x3e72a040	0.23693943
23	0xbca32a60	-0.019917667
24	0x3d8a8860	0.06764293
25	0x3e4e7bc0	0.20164394
26	0xbf1cbcb8	-0.6122546
27	0x3d453360	0.0481447
28	0xbb320600	-0.002716422
29	0xbec221cc	-0.3791641
30	0x3ee35b90	0.44405794
31	0xbc83be60	-0.016081989
32	0xbf025432	-0.5090972
33	0xbe590260	-0.21192312
34	0xbeab2dd0	-0.3343339
35	0x3d37d450	0.04488021
36	0xbe09aad8	-0.13444078
37	0x3f0ae7b4	0.542598
38	0xbde36480	-0.11103153
39	0xbcf65f20	-0.030074656
40	0x3eaf8e18	0.34288096
41	0xbdb40920	-0.08790803
42	0xbed313a8	-0.41225934
43	0xbd67f300	-0.056628227
44	0x3ef77c28	0.4833691
45	0x3e204ad0	0.15653539
46	0xbe8f3544	-0.27970326
47	0xbca3f600	-0.020014763
48	0x3e322d40	0.17400074
49	0xbedbe168	-0.4294541
50	0xbeffb3c8	-0.4994185
51	0x3da66fc0	0.08126783
52	0x3dbef9c0	0.0932498
53	0xbebe0858	-0.3711574
54	0xbef1711c	-0.47156608
55	0x3bef9a00	0.0073120594
56	0xbe58a220	-0.21155596
57	0xbe46e650	-0.19423795
58	0x3f08739a	0.53301394
59	0x3bb31580	0.0054652095
60	0xbe679ce8	-0.22618449
61	0x3f024d54	0.50899243
62	0xbece53c0	-0.4029827
63	0x3db32850	0.087479234
64	0x3e938598	0.2881286
65	0x3e93461c	0.28764427
66	0xbea4aafc	-0.321617
67	0xbda63748	-0.08116013
68	0xbd6a6de0	-0.05723369
69	0xbf025f18	-0.5092635
70	0xbec07090	-0.37585878
71	0x3d1184f0	0.03552717
72	0x3de69b70	0.11260116
73	0x3d2e4520	0.04254639
74	0x3f1b9918	0.6078048
75	0x3ca0a3e0	0.019609392
76	0xbdd62f90	-0.104582906
77	0x3f259236	0.64676225
78	0x3e617aa8	0.22019446
79	0x3dbaba98	0.09117621
80	0x3e99b7dc	0.30023086
81	0xbf1889b2	-0.59585106
82	0xbd8d7100	-0.06906319
83	0x3d90f578	0.070780694
84	0xbef4f6d8	-0.47844577
85	0x3ea59fd4	0.32348502
86	0x3e9742c8	0.29543138
87	0x3d478a80	0.04871607
88	0x3d8c4e60	0.06850886
89	0xbf0ddfd0	-0.55419636
90	0xbe758260	-0.23975515
91	0x3bfc9780	0.00770849
92	0x3f29a684	0.6626971
93	0xbd438900	-0.047738075
94	0xbc490b00	-0.012270689
95	0x3d842708	0.06452757
96	0x3e163300	0.14667892
97	0xbe38ed90	-0.18059373
98	0x3f1ca358	0.6118674
99	0x3d5fabc0	0.054607153
100	0xbe2fe0a8	-0.17175543
101	0x3c8e0e00	0.01734066
102	0xbf06be50	-0.52634144
103	0xbd3cb650	-0.046072304
104	0xbefe3e14	-0.49656737
105	0x3d63eb80	0.055644512
106	0xbd652d20	-0.055951238
107	0xbdc711c0	-0.097201824
108	0xbdb150a0	-0.08657956
109	0x3ecd6ea8	0.40123487
110	0x3f058b40	0.52165604
111	0x3d82a1a8	0.0637849
112	0x3f1e23d2	0.6177341
113	0xbe079d00	-0.13243484
114	0x3e53a220	0.20667315
115	0x3d848a20	0.06471658
116	0x3e1ff798	0.15621793
117	0xbee5b028	-0.4486096
118	0x3e85051c	0.2598046
119	0xbd6fe0c0	-0.058563948
120	0x3f17755e	0.59163463
121	0xbe85de3c	-0.26146114
122	0x3ddf6650	0.109081864
123	0x3d653d50	0.055966675
124	0xbf0aaa64	-0.54166245
125	0xbec1a6a0	-0.37822437
126	0xbdfe1270	-0.124058604
127	0x3d93d988	0.07219225
128	0x3eff9ea4	0.4992572
129	0xbe36fdf8	-0.17870319
130	0xbe99b15c	-0.30018127
131	0x3c191c00	0.009345055
132	0x3e6b1708	0.22958004
133	0xbcb5cb80	-0.022191763
134	0x3f0e25f6	0.55526674
135	0x3aa5ea00	0.0012658238
136	0xbeea9c88	-0.4582255
137	0xbea64c5c	-0.32480133
138	0xbeab2b94	-0.33431685
139	0x3d5bacc0	0.053631544
140	0x3dcc2260	0.09967494
141	0xbef5ea3c	-0.4803027
142	0xbe220500	-0.1582222
143	0xbdad3720	-0.0845778
144	0x3e9c3cf0	0.30515242
145	0x3e799f58	0.24377191
146	0xbf0bd632	-0.5462371
147	0x3d9270b8	0.07150406
148	0x3da30ba0	0.07961202
149	0x3ef25490	0.4733014
150	0xbe8074fc	-0.25089252
151	0xbd6f5310	-0.058428824
152	0x3e0b58a0	0.13608027
153	0x3ed4bf34	0.41552126
154	0x3ea0f740	0.31438637
155	0xbd7bc800	-0.06147003
156	0xbd0b58c0	-0.034020185
157	0x3ee94900	0.45563507
158	0x3ec1b638	0.37834334
159	0xbbde5280	-0.006784737
160	0x3efb51d4	0.49085867
161	0x3e35e9b0	0.17764926
162	0xbe95e018	-0.29272532
163	0xbac5fe00	-0.0015105605
164	0x3d6df6a0	0.058096528
165	0x3edb15c0	0.4279003
166	0x3eeae36c	0.45876634
167	0x3cf605c0	0.030032039
168	0xbd902db0	-0.07039964
169	0x3cdb48c0	0.026768088
170	0x3f0d58b6	0.5521349
171	0xbd2f1c90	-0.04275185
172	0x3e5ee8c8	0.21768486
173	0xbe5e1ba8	-0.21690238
174	0x3f18e2ca	0.5972105
175	0x3d92b570	0.07163513
176	0xbed20280	-0.41017532
177	0xbde43d80	-0.11144543
178	0x3ed6e15c	0.4196881
179	0xbb2f0c00	-0.0026710033
180	0xbee2c1a8	-0.44288373
181	0x3ea5dea0	0.32396412
182	0x3e21a368	0.15784991
183	0xbcedc080	-0.029022455
184	0x3ede5038	0.43420577
185	0xbd10fb20	-0.03539574
186	0x3ebbe378	0.36696982
187	0xbcf8f6a0	-0.030391037
188	0xbebd02b4	-0.36916125
189	0x3e8e6fb0	0.27819586
190	0xbed5f2e8	-0.41786885
191	0x3cbd7500	0.023127079
192	0x3eefba80	0.46821976
193	0xbe958e20	-0.29209995
194	0xbe9b55b8	-0.30338836
195	0x3cf3c980	0.029759169
196	0xbea09e08	-0.31370568
197	0x3ed3ca64	0.4136535
198	0xbe46ac40	-0.19401646
199	0xbd3b80f0	-0.04577726
200	0x3ef00d4c	0.46885145
201	0xbeab9328	-0.3351071
202	0x3ebc9964	0.36835778
203	0x3dabf500	0.083963394
204	0x3e1f5500	0.15559769
205	0xbf1b334c	-0.6062515
206	0x3dd0bea0	0.10192609
207	0x3d0bdc10	0.034145415
208	0x3ea0cbec	0.3140558
209	0xbe9427a8	-0.28936505
210	0x3efa36d4	0.48869956
211	0x3d48abb0	0.04899186
212	0x3ed4e818	0.41583323
213	0xbc8bbe40	-0.017058492
214	0x3f045c70	0.5170355
215	0x3d828378	0.06372732
216	0x3e782e50	0.24236417
217	0x3e140c60	0.14457846
218	0xbeefe47c	-0.46854007
219	0xbd5938f0	-0.053032815
220	0x3ef35bac	0.47530878
221	0xbe09de00	-0.13463593
222	0x3eabf810	0.33587694
223	0xbb2bf100	-0.0026236176
224	0xbe3909a0	-0.18070078
225	0xbf1af42e	-0.6052884
226	0xbe7d2378	-0.24720562
227	0x3da06db8	0.07833427
228	0xbea81530	-0.32828665
229	0xbdf55450	-0.11978972
230	0x3ebdf790	0.37102938
231	0xbdb8f428	-0.09030944
232	0x3e05ffd8	0.13085878
233	0x3ece06b0	0.40239477
234	0xbe96c110	-0.2944417
235	0xbdad0db8	-0.08449882
236	0x3eb62eec	0.35582674
237	0x3f14a7c2	0.5806848
238	0xbdda3a30	-0.1065563
239	0x3db6ed40	0.089319706
240	0xbe96ea5c	-0.29475677
241	0x3f19ed5c	0.60127807
242	0x3e367cf8	0.1782111
243	0x3dbe5b30	0.092947364
244	0xbcd59bc0	-0.026075244
245	0xbf19777a	-0.5994793
246	0x3d9b05f0	0.07569492
247	0x3b9d5780	0.0048016906
248	0xbf01096e	-0.50405014
249	0xbe87f70c	-0.2655567
250	0xbe09dfa0	-0.13464212
251	0xbc6ee540	-0.014581025
252	0x3e398768	0.1811806
253	0x3f153926	0.58290327
254	0x3de970f0	0.11398494
255	0x3cabbac0	0.020963073

neg f4 [2500, 4]
0	0x3f3e7e28	0.7441125
1	0x3e71d4a0	0.23616266
2	0xbf0c8b78	-0.5490031
3	0x3eb57400	0.35440063
4	0x3f65b138	0.8972354
5	0x3ec25158	0.37952685
6	0x3ec0d09c	0.37659156
7	0x3ee3900c	0.44445837
8	0x3f5785b0	0.84188366
9	0x3f26ca50	0.65152454
10	0xbde66900	-0.11250496
11	0x3ef0e1a8	0.47047162
12	0x3e050268	0.12989199
13	0xbf612cd8	-0.8795905
14	0x3ed76f78	0.4207723
15	0x3ec47000	0.383667
16	0x3ef5e840	0.48028755
17	0x3ede1f60	0.43383312
18	0xbf099a46	-0.5375103
19	0x3e771a4c	0.24131125
20	0x3f56577e	0.8372725
21	0xbee96404	-0.45584118
22	0x3f5cc732	0.8624145
23	0x3f2f7e96	0.6855253
24	0x3eb36224	0.35035813
25	0x3f50ff22	0.816393
26	0xbf33eaaa	-0.70279944
27	0x3f0863d6	0.5327734
28	0x3eb59ac0	0.35469627
29	0x3f6dc534	0.92879033
30	0x3eb31ea8	0.34984326
31	0x3ee86ea8	0.45396924
32	0xbecf0530	-0.40433645
33	0xbeaf1358	-0.34194446
34	0x3f18ffdc	0.5976541
35	0x3e4b43f0	0.19850135
36	0xbf3663e4	-0.7124617
37	0x3f6f8ace	0.93571174
38	0xbe874db8	-0.26426482
39	0x3f1afba0	0.605402
40	0xbd7636e0	-0.060110927
41	0x3e619f10	0.22033334
42	0x3f4d4f72	0.8019935
43	0x3e6f7de0	0.23387861
44	0x3eaf721c	0.34266746
45	0xbe283710	-0.16427255
46	0xbf4468f0	-0.7672262
47	0x3e8329e6	0.25617903
48	0x3ecc6af4	0.3992535
49	0x3f309282	0.68973553
50	0xbf230d04	-0.63691735
51	0x3ed72414	0.42019713
52	0x3f58bf58	0.8466697
53	0xbed45774	-0.4147297
54	0x3e08dfe8	0.13366663
55	0x3eb455c6	0.3522169
56	0x3f209a44	0.6273539
57	0x3e300020	0.17187548
58	0x3efbaa90	0.49153566
59	0x3e5c78c8	0.2153045
60	0x3f04526e	0.5168828
61	0xbeadf468	-0.3397553
62	0x3f060268	0.5234742
63	0x3e575f74	0.21032506
64	0x3e82b060	0.25525188
65	0xbea79aa4	-0.3273517
66	0x3f2f34ac	0.68439746
67	0x3e4d4180	0.20044518
68	0x3f482f4e	0.7819718
69	0xbf0623d0	-0.52398396
70	0x3ec137e4	0.37737954
71	0x3ed40880	0.41412735
72	0xbf2f1bf4	-0.6840203
73	0x3f2397d4	0.63903546
74	0xbe9f13e4	-0.31069863
75	0x3ec5c8d8	0.38629794
76	0x3f14efb6	0.5817827
77	0xbc5c4a00	-0.013445377
78	0xbf6e94a0	-0.93195534
79	0x3eff58a4	0.49872315
80	0x3f6fdbe6	0.93694913
81	0x3e2095b8	0.15682113
82	0x3f54ae12	0.8307811
83	0x3f297958	0.6620078
84	0x3ee24cb8	0.44199157
85	0xbf482e66	-0.781958
86	0xbe42a7c8	-0.19009316
87	0x3ea2e10c	0.31812322
88	0xbf09f6ae	-0.5389203
89	0x3eab00e0	0.33399105
90	0xbefab5d4	-0.4896685
91	0x3e4ded04	0.20109946
92	0x3e505cf8	0.20347965
93	0xbf3a5246	-0.7278179
94	0xbf572422	-0.8403951
95	0x3f07bc30	0.53021526
96	0x3efb2440	0.49051094
97	0xbf707dbc	-0.93941855
98	0xbea45b9c	-0.32101142
99	0x3f01dfb0	0.50731945
100	0x3f7a4ef6	0.97776735
101	0x3f490406	0.78521764
102	0xbf0a8442	-0.5410806
103	0x3f440a60	0.7657833
104	0x3f5d6236	0.86477983
105	0x3f192882	0.59827435
106	0xbf20c0f6	-0.62794435
107	0x3f1ff1b2	0.6247817
108	0xbf7f1edc	-0.9965646
109	0x3f7c7bc2	0.9862634
110	0x3f41d00a	0.7570807
111	0x3f7e519a	0.99343264
112	0x3e30e2e0	0.17274046
113	0x3c83cd00	0.016088963
114	0x3e905e70	0.2819705
115	0xbe89b190	-0.26893282
116	0x3f358d46	0.7091869
117	0xbf488b62	-0.7833768
118	0xbf20b118	-0.62770224
119	0x3f210b54	0.6290791
120	0x3f5b8164	0.8574431
121	0x3ebaec24	0.36508286
122	0xbf247542	-0.6424142
123	0x3f082a62	0.5318967
124	0x3eee294c	0.46515882
125	0xbf275772	-0.65367806
126	0x3df7cbe0	0.12099433
127	0x3e586f1c	0.21136135
128	0x3f5becf4	0.85908437
129	0x3efebd60	0.49753857
130	0xbe39ea70	-0.18155837
131	0x3ed185e0	0.4092245
132	0xbf1f55ea	-0.6224047
133	0xbed81b60	-0.42208385
134	0xbf4fbdea	-0.8114916
135	0x3f01a1a8	0.5063729
136	0x3daf18d0	0.085496545
137	0xbd425700	-0.04744625
138	0x3e8c8788	0.27447152
139	0xbe9e04fe	-0.30863184
140	0xbeb77fc4	-0.35839665
141	0x3f217e14	0.63083005
142	0xbeea47d0	-0.45757914
143	0x3e83fabc	0.25777233
144	0xbea61198	-0.32435298
145	0xbdeb7550	-0.11496985
146	0xbf554e9a	-0.8332306
147	0x3e9a5dc4	0.30149662
148	0x3f38b164	0.72145677
149	0x3e368990	0.17825913
150	0xbd86bff0	-0.06579578
151	0x3e1590b4	0.14605981
152	0xbf2ee72e	-0.683215
153	0x3f08f4f0	0.53498745
154	0x3f56456e	0.8369969
155	0x3f1b0af6	0.605636
156	0xbe14af00	-0.14519882
157	0xbef0ba28	-0.47017026
158	0x3f38ff32	0.722644
159	0x3e8c6dcc	0.27427518
160	0xbd460840	-0.04834771
161	0x3f7c64ca	0.9859129
162	0x3e7b6fb0	0.24554324
163	0x3ed59880	0.4171791
164	0xbe3ce110	-0.1844523
165	0x3ee47dc8	0.44627213
166	0x3f1d547c	0.6145704
167	0x3e39f1f0	0.18158698
168	0xbf5148ec	-0.81751895
169	0x3f19de52	0.6010486
170	0xbe8ba9b8	-0.27277923
171	0x3ee6c450	0.4507165
172	0xbf270980	-0.6524887
173	0xbca62840	-0.020282865
174	0xbf38d9b6	-0.722072
175	0x3ebf3086	0.37341708
176	0xbf57ed7a	-0.84346735
177	0x3efcc3f0	0.49368238
178	0xbf110480	-0.5664749
179	0x3f079584	0.5296252
180	0x3eb1e954	0.34748328
181	0xbe8807fc	-0.26568592
182	0xbe4d6e70	-0.2006166
183	0xbdf33e98	-0.11877173
184	0x3f496866	0.78674924
185	0xbf526228	-0.82181025
186	0xbe9bd07c	-0.30432498
187	0x3f13e3ac	0.57769275
188	0x3f73c532	0.9522277
189	0xbf7da14a	-0.9907423
190	0x3db107d0	0.08644068
191	0x3f46e12a	0.77687323
192	0x3f333d56	0.70015466
193	0xbeb82424	-0.35965073
194	0xbe77f2f0	-0.24213767
195	0x3e64e41c	0.22352642
196	0xbe179c98	-0.1480583
197	0xbde291d0	-0.11062968
198	0x3ea9c158	0.33155322
199	0xbe61b376	-0.22041115
200	0xbf160366	-0.58598936
201	0xbefc0ee8	-0.49230123
202	0x3dd669c0	0.10469389
203	0x3e309b1c	0.1724667
204	0x3d132da0	0.035932183
205	0xbf595c60	-0.8490658
206	0xbf6065e2	-0.8765546
207	0x3f1ef218	0.62088156
208	0xbe8170a4	-0.2528125
209	0xbf20733a	-0.6267582
210	0x3f711c10	0.94183445
211	0x3f0f2912	0.55922043
212	0x3f187f72	0.59569466
213	0xbed1cce8	-0.40976644
214	0x3e71f708	0.23629391
215	0x3e2482a8	0.16065466
216	0xbf55b854	-0.8348439
217	0xb9ee5000	-0.00045454502
218	0x3edc4a34	0.43025362
219	0x3eadaaa6	0.33919257
220	0x3f690cee	0.91035354
221	0x3eae5ee4	0.3405677
222	0x3f6e8e7e	0.93186176
223	0x3f3f1b74	0.74651265
224	0x3cfef540	0.031122804
225	0xbf1a5d48	-0.60298586
226	0x3f3f9eda	0.74851763
227	0x3eb92edc	0.36168563
228	0x3f03fd82	0.515587
229	0x3e204700	0.15652084
230	0x3f3b413e	0.73146427
231	0x3e9df372	0.30849797
232	0xbf523ce0	-0.8212414
233	0xbf1f2c58	-0.6217704
234	0x3f22bbca	0.63567793
235	0x3f1c44a4	0.6104224
236	0xbf2188e2	-0.6309949
237	0xbf188b48	-0.59587526
238	0x3d2f2f40	0.04276967
239	0x3e89b216	0.2689368
240	0x3e90ea7c	0.28303897
241	0xbe8c14a4	-0.27359498
242	0x3f1983e0	0.5996685
243	0x3df04ca0	0.11733365
244	0x3d8c0860	0.06837535
245	0x3f655fc2	0.8959924
246	0xbf303d9c	-0.6884401
247	0x3f083140	0.5320015
248	0x3f754ee6	0.95823514
249	0xbdc82550	-0.09772742
250	0xbf446aae	-0.7672528
251	0x3f21a5fc	0.631439
252	0x3e666ce0	0.2250247
253	0x3da0c180	0.07849407
254	0x3e9fc738	0.3120668
255	0xbe545088	-0.20733845
